models/v1.pt (torch_old, 265876 bytes, 10 tensors)

weight f4 [6, 3, 5, 5]
0	0x3daf1336	0.08548586
1	0x3df6f430	0.12058294
2	0x3e8709f3	0.26374778
3	0x3e33132c	0.17487782
4	0x3df5d942	0.12004329
5	0x3d9ab57f	0.07554149
6	0x3e78e2fd	0.24305339
7	0x3e90d4f7	0.2828748
8	0x3e8ff72e	0.2811827
9	0x3e8c1631	0.2736068
10	0x3e9b9a18	0.30391002
11	0x3e82958d	0.25504723
12	0x3e8f86b1	0.2803245
13	0x3e3e29b3	0.18570594
14	0x3e5c6362	0.21522287
15	0x3d8d8aa2	0.06911208
16	0x3e955e0e	0.2917332
17	0x3e0f5cef	0.14000295
18	0x3e225a77	0.15854822
19	0xbd2fc879	-0.042915795
20	0x3ca732ae	0.020409908
21	0x3e90f265	0.28309932
22	0x3df81858	0.12114018
23	0xbd876c6c	-0.06612477
24	0xbe42a8f7	-0.19009767
25	0xbe0f84f6	-0.14015564
26	0xbd94e64f	-0.072704904
27	0xbd94fd47	-0.07274871
28	0x3d0ecefe	0.034865372
29	0xbd0200e6	-0.031739138
30	0xbcf9c82c	-0.030490957
31	0xbe12bdc0	-0.14330196
32	0xbd6b9f5c	-0.057525024
33	0xbd41e381	-0.047336105
34	0xbe4f21d1	-0.20227744
35	0xbde05aca	-0.10954817
36	0xbe26b3e6	-0.16279563
37	0xbe3a6ade	-0.18204829
38	0xbe48095f	-0.19534825
39	0xbea0bafb	-0.31392655
40	0xbe134620	-0.1438222
41	0xbd8b4920	-0.06801057
42	0xbca3aa62	-0.019978706
43	0xbe52c272	-0.20581988
44	0xbe33b47e	-0.17549321
45	0x3d19bd67	0.037534144
46	0xbcc62ea5	-0.024192164
47	0xbdb1f656	-0.08689563
48	0xbeb24ef9	-0.34825876
49	0xbdec66b7	-0.11543029
50	0x3d519712	0.051169463
51	0xbdc28518	-0.09498042
52	0xbdc9f65d	-0.09861443
53	0x3cc6d402	0.024271015
54	0x3cbebe60	0.023284137
55	0xbe303951	-0.17209364
56	0x3cb3aa69	0.021931844
57	0xbe676384	-0.22596556
58	0xbd839d72	-0.06426515
59	0xbd173e1f	-0.036924478
60	0xbdc41005	-0.09573368
61	0xbda0f8f8	-0.07859987
62	0xbcc89b66	-0.024488162
63	0xbe49bdac	-0.1970126
64	0xbdd5cedf	-0.10439848
65	0x3db3d92a	0.08781655
66	0x3de64c80	0.1124506
67	0xbd850671	-0.06495369
68	0xbe1fe3ba	-0.15614215
69	0xbe5364d9	-0.20643939
70	0x3e0b3b10	0.1359675
71	0x3ea635ce	0.32462925
72	0x3d4860a9	0.048920307
73	0xbe0fd665	-0.14046629
74	0xbd0448b1	-0.032295886
75	0x3e3977bc	0.18112081
76	0x3d221747	0.03957298
77	0x3d5dc26b	0.05414049
78	0x3cae9e0b	0.021315595
79	0xbd61038e	-0.05493503
80	0x3d60468b	0.054754775
81	0xbd8047a6	-0.06263666
82	0x3d8bf75d	0.0683429
83	0x3debd9af	0.11516129
84	0xbd09cae5	-0.03364076
85	0xbdf630b5	-0.12021009
86	0xbe890935	-0.26764837
87	0x3d7cacab	0.061688107
88	0x3eb06338	0.34450698
89	0xbda3d6cc	-0.07999954
90	0xbdd52975	-0.10408298
91	0xbe947c52	-0.290011
92	0x3df91433	0.12162056
93	0x3ea9dfc4	0.33178532
94	0x3cb6067d	0.02221989
95	0xbe19b991	-0.15012194
96	0xbe5371de	-0.20648906
97	0x3cb6a6a2	0.022296254
98	0x3e857b2e	0.2607054
99	0xbd1011ea	-0.035173334
100	0xbdd31e32	-0.10308494
101	0xbe9e96c2	-0.30974394
102	0xbe42320a	-0.18964401
103	0x3cdb2a2a	0.026753504
104	0xbcfd5a0c	-0.030926727
105	0xbe8a7c40	-0.2704792
106	0xbe9f1a2c	-0.31074655
107	0x3d5da7cd	0.054115105
108	0x3e3ef62b	0.18648593
109	0x3c4374c5	0.0119296955
110	0xbeb617dc	-0.35565078
111	0xbea1f50e	-0.31632274
112	0x3d939f5a	0.07208128
113	0x3e9cf920	0.30658817
114	0x3d84444e	0.064583406
115	0xbe9a5ef5	-0.3015057
116	0xbed3d3ef	-0.4137263
117	0x3e5bc31a	0.21461144
118	0x3e9b4c1c	0.30331504
119	0xbd7d1b04	-0.061793342
120	0xbe8429b0	-0.25813055
121	0xbe97c5bb	-0.29643044
122	0x3dbbab7a	0.09163566
123	0x3e789168	0.24274218
124	0xbd600fe0	-0.05470264
125	0xbca270b6	-0.019829135
126	0xbc613cd4	-0.013747413
127	0x3dceb686	0.10093407
128	0x3da13bae	0.07872711
129	0x3d14956f	0.036275323
130	0x3cc88527	0.024477554
131	0xbe323a6d	-0.174051
132	0x3dbd1817	0.092331104
133	0x3eb740f0	0.3579173
134	0x3d778bf2	0.060436197
135	0xbe462302	-0.19349292
136	0xbe893e1b	-0.26805195
137	0x3e835e6f	0.25657985
138	0x3e8a66a7	0.27031443
139	0x3d7fc9b7	0.06244823
140	0xbe7bc409	-0.245865
141	0xbe2326e3	-0.15932803
142	0x3e25ad9d	0.1617951
143	0x3ed374de	0.413001
144	0x3d696166	0.056977652
145	0xbe3d96ba	-0.18514529
146	0xbe9d6575	-0.30741468
147	0x3d69446f	0.05695003
148	0x3e5fe070	0.2186296
149	0x3e1407f1	0.14456154
150	0x3d7e1354	0.06203015
151	0x3be026e8	0.0068405755
152	0xbdb1b725	-0.0867751
153	0xbe03a0a2	-0.12854245
154	0x3dec2db2	0.11532153
155	0xbcf68a91	-0.03009537
156	0xbe557e90	-0.20849061
157	0xbecd988c	-0.40155447
158	0xbebae8e4	-0.36505806
159	0xbdf3acd8	-0.11898202
160	0x3c59ff86	0.01330555
161	0x3d59932c	0.05311887
162	0xbe194e19	-0.14971198
163	0xbe3f919e	-0.18707892
164	0xbe219f8c	-0.15783519
165	0x3cfbd94b	0.030743262
166	0x3dba2a14	0.09090057
167	0x3ec14857	0.37750503
168	0x3e94d16d	0.2906603
169	0x3e597b25	0.21238382
170	0x3e3ab15a	0.18231717
171	0x3e53f3f2	0.20698527
172	0x3e8ba8a3	0.27277097
173	0x3e9f408f	0.31103942
174	0x3e813841	0.2523823
175	0x3d6b3bd4	0.057430103
176	0xbcda1914	-0.026623286
177	0xbd570010	-0.052490294
178	0xbe6aa933	-0.22916107
179	0xbe298996	-0.16556391
180	0x3ca192c0	0.019723296
181	0xbe7b2d4e	-0.24529001
182	0xbe9ab60f	-0.30217025
183	0xbebbe1df	-0.36695763
184	0xbe0fd9ec	-0.14047974
185	0xbd4cb36d	-0.0499758
186	0xbd51391f	-0.051079866
187	0xbe46afa5	-0.1940294
188	0x3b0f0444	0.002182261
189	0xbe119aea	-0.14219251
190	0xbe639a3f	-0.22226809
191	0xbd80c079	-0.06286711
192	0x3e406ebc	0.18792242
193	0x3e81c919	0.25348738
194	0x3e101dbb	0.14073841
195	0xbe158244	-0.14600474
196	0x3de9f1ef	0.11423098
197	0x3d723b9d	0.059138883
198	0x3e20789c	0.15671009
199	0x3e408022	0.18798879
200	0x3dcd8ae7	0.10036259
201	0x3e6d6ae6	0.2318531
202	0x3e2c8807	0.16848765
203	0x3c3cdaa2	0.0115267355
204	0x3d913373	0.07089891
205	0x3ddcb8e7	0.10777455
206	0xbe1e8cc1	-0.15483381
207	0xbe1b60fa	-0.15173712
208	0xbe7516cb	-0.23934476
209	0xbe0ab9ee	-0.13547489
210	0x3dcb7c70	0.09935844
211	0x3da68ea8	0.08132678
212	0xbd5cd755	-0.053916294
213	0xbdd0fb9e	-0.10204242
214	0xbcdadaa3	-0.026715582
215	0xbdfd8f51	-0.12380851
216	0xbd713510	-0.058888495
217	0x3e64d6b0	0.22347522
218	0x3e8bab0c	0.27278936
219	0xbc91789f	-0.017757712
220	0xbccb510c	-0.02481892
221	0x3e092c5c	0.13395828
222	0x3de705a9	0.112803765
223	0x3e5a9f6d	0.21349879
224	0xbd66d03e	-0.05635094
225	0xbe3bae15	-0.18328126
226	0xbd8a71b0	-0.067599654
227	0xbe08f53f	-0.13374804
228	0xbdef9194	-0.11697689
229	0x3d92b016	0.07162492
230	0xbe46cbf5	-0.19413741
231	0x3d9d5003	0.07681277
232	0x3de8d058	0.113678634
233	0xbed77853	-0.42083988
234	0xbdeef854	-0.116684586
235	0xbdae46bb	-0.085095845
236	0x3eb89190	0.36048555
237	0x3df01d7c	0.11724374
238	0xbf0c4abb	-0.5480153
239	0xbe290241	-0.16504766
240	0x3e1c62db	0.15272085
241	0x3edafa68	0.4276917
242	0xbe0de3a8	-0.13856375
243	0xbe7da822	-0.24771169
244	0x3da3df0d	0.08001528
245	0x3e7c8b13	0.24662428
246	0x3cc1e874	0.023670413
247	0x3d30e435	0.043186385
248	0x3dfc7e4a	0.12328775
249	0x3dd2d511	0.102945454
250	0x3d424851	0.047432248
251	0x3e47e1ff	0.19519804
252	0x3d14af51	0.036300007
253	0xbc26f108	-0.010189302
254	0x3e704229	0.23462738
255	0xbc8583cf	-0.016298203

bias f4 [6]
0	0xbe983c5a	-0.29733545
1	0xbeb1cb77	-0.34725544
2	0xbe6b1693	-0.2295783
3	0x3c5488d6	0.012972077
4	0x3ee9eb38	0.4568727
5	0xbef6f6fc	-0.4823531

weight f4 [16, 6, 5, 5]
0	0xbebadeb6	-0.3649804
1	0xbeb4d76a	-0.35320598
2	0xbeb0c10e	-0.3452229
3	0xbebaf137	-0.36512157
4	0xbea1c69c	-0.3159684
5	0xbe4978ea	-0.19675031
6	0xbdea705c	-0.11447212
7	0xbe4a04d4	-0.19728404
8	0xbe2bf2b7	-0.16791807
9	0xbe3001a7	-0.1718813
10	0x3e1931c3	0.14960389
11	0x3de81e05	0.11333851
12	0x3e4db98e	0.20090315
13	0x3e4bb616	0.19893679
14	0x3dbb094d	0.09132633
15	0x3e664c20	0.22489977
16	0x3ea02f51	0.312861
17	0x3eb22deb	0.34800658
18	0x3e75961a	0.2398304
19	0x3e3b7046	0.18304548
20	0xbc4d4e54	-0.012530882
21	0x3dc52284	0.09625724
22	0xbd14b595	-0.036305983
23	0xbc6574a2	-0.014004858
24	0x3ba08d8b	0.0048996857
25	0x3cf2ceb7	0.029639585
26	0xbe0b16a1	-0.13582851
27	0xbdc29d1d	-0.09502623
28	0xbd861c0d	-0.06548319
29	0x3d5e5ef4	0.054289773
30	0x3d3e71ad	0.04649513
31	0xbcd9407e	-0.02652001
32	0xbe573b2b	-0.21018665
33	0xbe7e0d08	-0.24809659
34	0xbdf5094a	-0.119646624
35	0xbbf393a0	-0.0074333698
36	0xbe40ecfe	-0.18840405
37	0xbe240173	-0.16016178
38	0xbe17eee0	-0.14837217
39	0xbe0752e9	-0.13215221
40	0xbe0fae63	-0.14031367
41	0xbd27134c	-0.040789887
42	0x3cd39ffa	0.025833119
43	0xbd6bdf41	-0.05758596
44	0x3db9def9	0.09075732
45	0xbdbc5340	-0.09195566
46	0x3dc4be27	0.09606581
47	0x3dbb3b8d	0.09142218
48	0x3da16c3e	0.07881974
49	0x3c8d1819	0.017223405
50	0x3e8504ba	0.2598017
51	0x3e8404e9	0.25784996
52	0x3e696430	0.22792125
53	0x3e109eb2	0.14123037
54	0xbba5e3de	-0.0050625643
55	0x3e7606eb	0.24026076
56	0x3e967e93	0.29393443
57	0x3e5e1702	0.21688464
58	0x3ddb0e2d	0.10696063
59	0x3e00825b	0.12549727
60	0x3d85a467	0.06525498
61	0x3cf88611	0.030337365
62	0xbe0c5023	-0.13702445
63	0x3d1d344d	0.038379956
64	0x3e14a16a	0.145147
65	0xbe40553b	-0.18782513
66	0xbe64cbdc	-0.22343391
67	0xbe555d48	-0.20836365
68	0xbe75b5c7	-0.23995124
69	0xbdbbc601	-0.091686256
70	0xbe8ed674	-0.2789799
71	0xbe42fe2a	-0.19042268
72	0xbddd8af1	-0.108175166
73	0xbe47e6b6	-0.19521603
74	0xbe89397a	-0.26801664
75	0xbccf57bb	-0.025310388
76	0xbc607151	-0.013698892
77	0x3e112b60	0.14176702
78	0x3df1b251	0.11801589
79	0x3d4222d6	0.047396503
80	0xbc0fa207	-0.008766658
81	0xbd0ebfd6	-0.034850918
82	0x3db866ac	0.09003958
83	0x3e1438bc	0.14474767
84	0x3e19af9e	0.15008399
85	0x3d09deb8	0.033659667
86	0xbd41dd7a	-0.047330357
87	0xbd08b2c2	-0.0333736
88	0xbb7d6899	-0.0038667081
89	0x3d905dd9	0.0704915
90	0xbde4f962	-0.111803785
91	0xbe500df8	-0.20317829
92	0xbe056f8b	-0.13030832
93	0xbe28927b	-0.16462128
94	0xbd0a390a	-0.033745803
95	0xbd82ab5d	-0.06380341
96	0xbe5d9760	-0.21639776
97	0xbe5ccf9b	-0.2156357
98	0xbd9f16e5	-0.07768039
99	0xbe36e9fe	-0.17862698
100	0xbd0f8e8b	-0.03504805
101	0x3c083685	0.00831378
102	0xbc5e069a	-0.013551379
103	0x3ddae0f7	0.1068744
104	0x3e0aa1de	0.1353831
105	0xbe0d3c06	-0.13792428
106	0xbd8a0fee	-0.067413196
107	0x3c733cf3	0.014846074
108	0x3e0c1253	0.13678865
109	0x3d78bc6b	0.060726564
110	0xbc816888	-0.015796915
111	0x3c37861e	0.01120141
112	0x3d94734d	0.072485544
113	0xbcd2668d	-0.025683666
114	0x3db792e8	0.08963567
115	0x3cb1b58f	0.02169302
116	0xbd856599	-0.06513519
117	0xbc27e05f	-0.010246365
118	0x3bf1f6a1	0.007384137
119	0xbbb92799	-0.0056504724
120	0xbc9ed139	-0.019386875
121	0xbe0526a9	-0.13003029
122	0xbe323d3d	-0.17406173
123	0xbdfd1d3e	-0.12359093
124	0xbdd2b2d9	-0.10288019
125	0x3e181b72	0.1485422
126	0x3dc6672f	0.096876495
127	0x3e5e37bb	0.21700947
128	0x3dad548e	0.08463393
129	0x3e259d2a	0.16173235
130	0xbd361ca3	-0.044460904
131	0xbc25c4b0	-0.010117695
132	0x3d149c15	0.036281664
133	0xbc0542e7	-0.008133627
134	0x3da1a00c	0.07891855
135	0xbe1abe45	-0.15111645
136	0x3c8fe84d	0.017566824
137	0x3d58c9de	0.05292689
138	0x3cff6571	0.0311763
139	0xbd39551c	-0.045247182
140	0x3cbf3a57	0.023343248
141	0xbd55f4a1	-0.05223525
142	0xbd57f5c5	-0.05272462
143	0xbd2d1b49	-0.04226235
144	0xbcbdffb5	-0.02319322
145	0x3c4665b3	0.012109208
146	0xbb0ccbe0	-0.0021483824
147	0xbdd717bf	-0.10502576
148	0xbc85c93f	-0.016331313
149	0xbd8ddbd4	-0.069266945
150	0xbb39c099	-0.0028343557
151	0xbdb7bb34	-0.08971253
152	0xbd63f041	-0.055649046
153	0xbdc62867	-0.09675675
154	0xbd1f0589	-0.038823638
155	0xbdc07298	-0.09396857
156	0xbe178ad9	-0.1479906
157	0xbdc327ba	-0.095290616
158	0xbe09fbcd	-0.1347496
159	0xbe4de57a	-0.2010707
160	0xbe02c3f2	-0.1277006
161	0xbd80fea1	-0.062985666
162	0xbe15e2ce	-0.146373
163	0xbe2d8284	-0.16944319
164	0xbe088a7a	-0.13334075
165	0xbc9d0b29	-0.01917036
166	0xbca3f3f0	-0.02001378
167	0xbda96e5d	-0.08273003
168	0xbd5509dd	-0.05201136
169	0xbd67debf	-0.05660891
170	0xbda61080	-0.08108616
171	0xbdcc2a53	-0.0996901
172	0xbdfc6517	-0.12323969
173	0xbe2236df	-0.15841244
174	0xbd9f4138	-0.07776111
175	0xbdda4c4a	-0.10659082
176	0xbdd465ef	-0.10371005
177	0xbcf4f8bc	-0.029903762
178	0xbde066aa	-0.109570816
179	0xbd9d6003	-0.076843284
180	0xbe2e029b	-0.16993181
181	0xbe061a09	-0.13095869
182	0xbd85ddfd	-0.065364815
183	0xbce21688	-0.027598634
184	0xbe03a28c	-0.12854975
185	0xbc9eb89a	-0.019375134
186	0xbd35bf66	-0.044371985
187	0xbdcee98c	-0.10103139
188	0xbe2b97f2	-0.16757181
189	0xbde9c894	-0.1141521
190	0x3e2b09ee	0.16703007
191	0x3d281b6f	0.041041788
192	0xbdc322bf	-0.09528112
193	0xbe067da0	-0.1313386
194	0xbe0c96e2	-0.13729432
195	0x3e2d546f	0.1692674
196	0x3db0edeb	0.08639129
197	0x3c6c4303	0.014420274
198	0xbe164cce	-0.14677736
199	0xbe5f45bd	-0.21803947
200	0xbc8df659	-0.017329382
201	0x3d7094fc	0.058735833
202	0xbdaddc66	-0.08489303
203	0xbb20e4e2	-0.0024550487
204	0x3dd87e01	0.10570908
205	0x3e054816	0.1301578
206	0x3d371bb0	0.04470414
207	0x3e293166	0.1652275
208	0x3ddf44fa	0.10901828
209	0x3de46c5d	0.11153481
210	0x3e381956	0.17978415
211	0x3e54afdb	0.20770209
212	0x3e0379b3	0.12839393
213	0xbbb10a4c	-0.005402839
214	0xbd9e11a2	-0.07718207
215	0x3d89cbab	0.067283
216	0x3d88d67a	0.06681533
217	0x3d54e8bb	0.05197976
218	0x3d2eb295	0.042650778
219	0xbced876f	-0.028995244
220	0x3e62f894	0.22165138
221	0x3dfa5658	0.122235
222	0xbb580f82	-0.0032968228
223	0xbdac63f1	-0.084175
224	0xbddb6463	-0.107125066
225	0xbdbf956a	-0.0935467
226	0xbdde37aa	-0.10850461
227	0xbd80cab0	-0.062886596
228	0xbe077050	-0.13226438
229	0xbe856d7c	-0.26060092
230	0xbcd21fbc	-0.025649898
231	0xbdbfbd68	-0.09362298
232	0xbdd8fa17	-0.10594576
233	0xbe5cd0b7	-0.21563993
234	0xbe1cc221	-0.1530843
235	0xbd48e297	-0.049044218
236	0x3cc37826	0.023861002
237	0xbdd8091b	-0.10548612
238	0xbdbe1165	-0.092806615
239	0xbe81abeb	-0.25326476
240	0x3c1fdf82	0.009757878
241	0xbdc2776f	-0.094954364
242	0xbd94de83	-0.07269003
243	0xbde578a5	-0.11204652
244	0xbdac00ff	-0.083986275
245	0x3e02797b	0.12741654
246	0x3d665014	0.056228712
247	0x3d627937	0.05529138
248	0xbc55bd3e	-0.013045607
249	0xbda0be53	-0.078488015
250	0x3d840b11	0.06447423
251	0x3d824bcc	0.06362113
252	0x3d7403fc	0.059574112
253	0xbd801605	-0.062542
254	0x3da6b06d	0.08139119
255	0x3cd77fb9	0.02630602

bias f4 [16]
0	0xbe1552ef	-0.14582418
1	0x3ed20d76	0.41025895
2	0x3e9b14db	0.3028935
3	0xbe14925f	-0.14508961
4	0xbec91d12	-0.3927999
5	0x3f6d859f	0.92782015
6	0x3e877e1d	0.26463404
7	0xbe8e2243	-0.27760515
8	0x3d99add5	0.07503859
9	0xbe40d12b	-0.18829791
10	0x3ed4bdb2	0.41550976
11	0xbf26d7a2	-0.6517278
12	0xbec53bea	-0.38522273
13	0xbc0b0be3	-0.008486721
14	0xbe1292b7	-0.1431378
15	0x3e385493	0.18001013

weight f4 [120, 400]
0	0xbc8906e5	-0.01672692
1	0x3dbbeeff	0.09176444
2	0xbbe3dd5f	-0.0069538797
3	0xbcf43884	-0.029812105
4	0xbd1f3ff0	-0.038879335
5	0xbd6d0fcf	-0.057876404
6	0xbdd377a1	-0.10325552
7	0xbdb1e711	-0.086866505
8	0xbd2a5736	-0.041587077
9	0xbd0b9d25	-0.03408541
10	0xbe0f5ecc	-0.14001006
11	0xbdd7f8bd	-0.1054549
12	0xbdbc845e	-0.092049345
13	0xbdb17c30	-0.08666265
14	0xbdc0922d	-0.09402881
15	0xbe029157	-0.12750755
16	0xbd40a36f	-0.047030862
17	0xbdad8dc0	-0.08474302
18	0xbc169f68	-0.009193279
19	0xbdd3b689	-0.1033755
20	0xbdcd7633	-0.1003231
21	0xbd656995	-0.056008894
22	0x3d06b367	0.032885935
23	0xbd3592ae	-0.044329338
24	0xbcb0df3f	-0.021590827
25	0xbdc5626a	-0.096379116
26	0xbdb7e1f4	-0.08978644
27	0x3d0d0a86	0.034433864
28	0x3d1a3355	0.03764661
29	0xbd4bd07e	-0.04975938
30	0xbc81f431	-0.01586351
31	0xbd82c8b9	-0.06385941
32	0xbb138651	-0.0022510479
33	0xbce55fd9	-0.027999805
34	0xbcf75b61	-0.03019494
35	0xbc03535d	-0.008015481
36	0xbd238a10	-0.03992659
37	0xbbdf3b24	-0.00681247
38	0xbc834ffc	-0.01602935
39	0x3d430284	0.04760982
40	0x3d4faeda	0.05070386
41	0x3b1a2dd2	0.0023525846
42	0x3d1d2f80	0.038375378
43	0x3cac37e0	0.021022737
44	0x3d41d5b3	0.04732294
45	0x3d81b669	0.0633362
46	0xbc169899	-0.009191656
47	0x3b0d9ed0	0.0021609552
48	0x3b477ddc	0.0030440008
49	0x3c96d603	0.018412596
50	0xbd59b899	-0.05315456
51	0xbcb4ad17	-0.022055192
52	0x3d8cb2cf	0.068700425
53	0xbd0c4ca3	-0.034252774
54	0xbd927330	-0.071508765
55	0xbd3799b3	-0.044824313
56	0xbd913b2a	-0.07091363
57	0xbd65dd21	-0.056119088
58	0xbdc54e86	-0.09634118
59	0xbca796a9	-0.020457583
60	0xbdb2d280	-0.08731556
61	0xbde48bc8	-0.11159474
62	0xbd699897	-0.057030287
63	0xbd4997bb	-0.049216967
64	0xbcf973e3	-0.030450767
65	0xbd7098e9	-0.058739576
66	0xbcaced7c	-0.021109335
67	0xbc7515af	-0.014958783
68	0xbdfaf934	-0.12254563
69	0xbdaac359	-0.08338041
70	0xbd7dabaa	-0.06193129
71	0x3c50d485	0.012745981
72	0xbd8da64d	-0.06916485
73	0xbd6776f4	-0.056509927
74	0xbd933800	-0.071884155
75	0x3c99ae06	0.018759739
76	0x3aaab343	0.0013023395
77	0xbcd420f9	-0.025894629
78	0xbd4090be	-0.047013037
79	0x3d8e706a	0.06955035
80	0x3dc0ae4a	0.09408243
81	0xbc292a26	-0.01032499
82	0xbbfc5af7	-0.0077012735
83	0x3c6d7eda	0.014495576
84	0x3cd894a1	0.02643806
85	0x3d364d97	0.04450759
86	0xbd1c1a0f	-0.03811079
87	0xbda79554	-0.08182779
88	0x3d220c94	0.039562777
89	0x3c4e070e	0.012574924
90	0x3d4c9390	0.049945414
91	0xbd147439	-0.03624365
92	0x3b4e7430	0.0031502359
93	0x3d1aa29f	0.037752744
94	0xbcf4d042	-0.029884461
95	0x3e5f62a7	0.21814977
96	0x3db1b0b1	0.08676279
97	0xbc83e5a0	-0.016100705
98	0x3db0db3e	0.08635567
99	0x3d338842	0.043831117
100	0x3db312d4	0.087438256
101	0x3d20b884	0.039238468
102	0xbc377eb7	-0.011199645
103	0x3c6c1a49	0.014410564
104	0xbc99c3b5	-0.018770078
105	0x3d9f8099	0.077882
106	0x3d08833f	0.03332829
107	0x3c996fa7	0.018729998
108	0x3cc41bd0	0.023939043
109	0xbd2b6bbd	-0.041850794
110	0x3ce92fe6	0.028465223
111	0xbca36584	-0.019945867
112	0x3cd43436	0.025903802
113	0x3dbacb2a	0.09120782
114	0x3dd12476	0.102120325
115	0xbda5da7c	-0.08098313
116	0x3c372e3d	0.011180458
117	0xbc7c4ca2	-0.01539913
118	0x3d285285	0.04109432
119	0xbb95caaa	-0.0045712786
120	0x3dc58dc4	0.0964618
121	0x3ce20fd4	0.027595438
122	0x3d9a5df7	0.075374536
123	0x3c9cbe06	0.019133579
124	0x3e11f755	0.14254506
125	0x3d50c4f2	0.05096907
126	0x3d3c2e67	0.04594269
127	0xbb094725	-0.0020946946
128	0xbce9277d	-0.028461212
129	0xbc45f091	-0.012081281
130	0x3d32de4d	0.043669034
131	0x3d4bc27f	0.049746033
132	0x3d42422d	0.04742639
133	0x3d36a545	0.044591207
134	0x3c6bbf85	0.0143889235
135	0xbd315953	-0.043298077
136	0x3d5bcd90	0.053662837
137	0x3d52ab30	0.05143279
138	0xbc651f6e	-0.013984544
139	0x3bbea9fc	0.0058186036
140	0xbc20b3ca	-0.00980849
141	0x3ba51474	0.0050378386
142	0xbcb0c10a	-0.021576423
143	0xbd69dc3d	-0.0570948
144	0xbc371dc0	-0.011176527
145	0xbddcb5b8	-0.107768476
146	0xbd9aefb1	-0.07565249
147	0xbd692682	-0.05692149
148	0xbdfef391	-0.124488
149	0xbca372db	-0.019952228
150	0x3d935ec0	0.071958065
151	0xbc4eccb2	-0.012622045
152	0x3dc4b944	0.09605649
153	0xbb8ad0b5	-0.0042363056
154	0x3dec7590	0.11545861
155	0x3c8dab73	0.017293667
156	0x3cc5bf59	0.024139093
157	0xbcea2ed5	-0.028586784
158	0xbd41466f	-0.04718631
159	0x3d34e2fd	0.044161785
160	0xbc9c2815	-0.019062081
161	0xbcd3ba9d	-0.02584582
162	0x3d444b61	0.04792345
163	0x3db6fd23	0.08935001
164	0x3dad2ee0	0.08456206
165	0x3d614ffb	0.055007916
166	0xbc595041	-0.013263763
167	0xbd605b88	-0.05477479
168	0x3d787ca4	0.06066574
169	0x3da6f14d	0.08151493
170	0x3e28ca6d	0.1648347
171	0x3d544119	0.051819894
172	0x3d25c37d	0.040469635
173	0x3d5ee961	0.054421786
174	0x3e3cdda6	0.18443927
175	0xbb42a650	-0.002970118
176	0xbd407c33	-0.046993446
177	0x3cbc4f8c	0.02298715
178	0xbdba700f	-0.09103405
179	0xbdc0ca72	-0.094136134
180	0xbcc9ea2f	-0.0246478
181	0xbcb97ab5	-0.02264152
182	0xbbcfad68	-0.0063378103
183	0xbbc884b2	-0.006119334
184	0xbc933c33	-0.017973041
185	0xbd09a5ea	-0.033605494
186	0xbd8eb599	-0.06968231
187	0x3d3f82d7	0.046755638
188	0x3d04e3a3	0.032443654
189	0xbd4461f7	-0.04794499
190	0x3d178855	0.03699525
191	0xbd05c374	-0.0326571
192	0xbc30783f	-0.010770856
193	0xbc58d544	-0.01323444
194	0xbc76476d	-0.015031678
195	0x3ce228c8	0.027607337
196	0xbcbd726a	-0.023125846
197	0x3ced9e94	0.02900628
198	0xbcf56a57	-0.029957933
199	0xbd2cb8c1	-0.042168383
200	0xbaf7549f	-0.0018869824
201	0x3c8afd74	0.016966559
202	0x3c8ec41d	0.017427498
203	0xbbb6a88c	-0.0055742916
204	0x3d77c3c0	0.060489416
205	0x3c9db443	0.019250995
206	0xbaf6589a	-0.0018794716
207	0x3d6c4c62	0.05769003
208	0x3d8d782a	0.06907685
209	0x3d2238dc	0.039605007
210	0x3d8dbc7a	0.06920715
211	0xbd8ff6ff	-0.07029533
212	0xbb191441	-0.002335802
213	0x3cb22264	0.021744914
214	0xbc2155ab	-0.009847085
215	0x3ce140a9	0.027496653
216	0xbd9f1d31	-0.0776924
217	0xbd970ea6	-0.07375841
218	0xbcb0936d	-0.021554673
219	0xbc1946cb	-0.009355257
220	0x3d3c43fe	0.04596328
221	0xbd3d895f	-0.046273585
222	0x3c85a780	0.016315222
223	0x3cd86a9d	0.026418025
224	0x3b209343	0.0024501837
225	0xbc82426a	-0.01590081
226	0xbc4c4f67	-0.012470103
227	0xbcc9e204	-0.024643905
228	0xbd2d7bb1	-0.04235429
229	0x3cfd5e33	0.030928707
230	0x3c852151	0.016251238
231	0x3d447e26	0.047971867
232	0x3d1d2ee0	0.03837478
233	0x3db6aa72	0.089192286
234	0x3d3a3400	0.045459747
235	0x3daabafc	0.08336446
236	0x3d8b420d	0.067997076
237	0x3d213328	0.039355427
238	0x3da78c32	0.08181037
239	0xbd356f04	-0.044295326
240	0x3dae755f	0.085184805
241	0x3d8e728e	0.06955443
242	0xbb59af41	-0.0033216032
243	0x3d992e4f	0.07479536
244	0xbcd05eca	-0.025435824
245	0x3de6dcaa	0.11272557
246	0x3e3ff37c	0.18745226
247	0x3de2fdbd	0.11083553
248	0x3da571b1	0.080783255
249	0x3d35b90c	0.044365928
250	0xbc71e1c1	-0.014763297
251	0xbd53257b	-0.051549416
252	0x3d303d5e	0.043027274
253	0x3dbf0208	0.09326559
254	0x3da94586	0.08265214
255	0x3ce61db9	0.028090345

bias f4 [120]
0	0x3e378985	0.17923553
1	0x3d1ccf38	0.038283557
2	0xbd403c8c	-0.046932742
3	0xbd0eaa93	-0.03483064
4	0x3dbfeb66	0.093710706
5	0x3c50deed	0.012748462
6	0x3dfa8bef	0.122337215
7	0x3e1cf856	0.15329108
8	0x3d95c5f2	0.07313146
9	0xbdcedc73	-0.10100641
10	0xbc9204ab	-0.017824491
11	0x3b86e068	0.004116107
12	0x3e4baf32	0.1989105
13	0xbbb3ad8c	-0.005483335
14	0xbe6eb6dd	-0.23311944
15	0xbd8ebfca	-0.069701746
16	0x3bd2cb3c	0.006432919
17	0x3c1bd0f7	0.00951027
18	0xbb4bc9e5	-0.003109568
19	0x3d5269c4	0.051370397
20	0xbc265bcc	-0.010153722
21	0x3eb12657	0.34599563
22	0x3daaf673	0.08347788
23	0xbdb3ffb7	-0.08789008
24	0x3da6fe30	0.08153951
25	0x3c6af4aa	0.014340559
26	0xbc3c9846	-0.011510914
27	0x3ccfc542	0.025362615
28	0xbdb200a1	-0.08691526
29	0x3d8f85c5	0.070079364
30	0x3db6dea9	0.08929188
31	0x3e027cd2	0.12742928
32	0x3c934656	0.017977875
33	0x3cb60da2	0.022223298
34	0xbd13f5e2	-0.036123164
35	0x3d2551bc	0.04036115
36	0x3cb189eb	0.02167221
37	0xbaf804bf	-0.0018922313
38	0xbd78ffaf	-0.060790714
39	0xbdeed182	-0.11661054
40	0xbd6d1872	-0.05788464
41	0x3da7e830	0.08198583
42	0x3dbf17cd	0.093307115
43	0xbd15f159	-0.03660712
44	0x3ae437e9	0.0017411682
45	0xbd4462e2	-0.047945864
46	0xbcfcccae	-0.030859318
47	0x3caab9fc	0.020840637
48	0x3e06739d	0.1313004
49	0xbdf5ee95	-0.120083965
50	0x3df4e82f	0.11958348
51	0x3cd1b81d	0.025600487
52	0xbc31d65a	-0.010854328
53	0x3cd538dd	0.026028091
54	0xbc7eb75e	-0.015546648
55	0xbd158b60	-0.03650987
56	0x3beab2ad	0.007162413
57	0x3e05ba2a	0.13059297
58	0x3d5fca80	0.05463648
59	0x3d2c368a	0.0420442
60	0xbd9c8369	-0.07642252
61	0xbd36ca6d	-0.044626642
62	0xbdfba3a1	-0.12287069
63	0x3d96b709	0.0735913
64	0x3cf9ac0a	0.030477542
65	0xb9cbac4b	-0.00038847546
66	0x3d8afe66	0.06786804
67	0xbc93b4f4	-0.018030621
68	0xbdab152b	-0.08353647
69	0xbd86b37b	-0.06577202
70	0x3e3892de	0.18024775
71	0x3e1efb15	0.15525468
72	0xbd1e912e	-0.038712673
73	0xbd0cd6e6	-0.03438463
74	0xbdb30110	-0.08740437
75	0xbc39e9e5	-0.011347269
76	0x3aa2410d	0.0012379006
77	0xbb31773c	-0.0027079126
78	0x3cbed336	0.023294073
79	0xbcddee54	-0.027091183
80	0x3dd76d3f	0.10518884
81	0x3d8a6475	0.06757442
82	0x3d87df2a	0.06634362
83	0xbd72fc78	-0.059322804
84	0xbd5052fa	-0.050860383
85	0x3e23a205	0.15979774
86	0x3cfa22d7	0.030534191
87	0x3dd0b8c9	0.10191495
88	0x3baeada0	0.0053307563
89	0x3d918899	0.07106132
90	0xbd9a9ada	-0.07549067
91	0xbdb3b9cc	-0.08775672
92	0x3d8aafd0	0.06771815
93	0xbdb12012	-0.08648695
94	0xbe0fdd7f	-0.14049338
95	0xbd83c059	-0.06433172
96	0xbce5b14c	-0.028038643
97	0x3d07b384	0.033130184
98	0xbc2d973a	-0.010595137
99	0x3e050830	0.12991405
100	0xbd8d05a7	-0.06885844
101	0x3b8a740f	0.004225261
102	0xbda394ef	-0.07987391
103	0xbceaad15	-0.028646985
104	0xbc2f5c55	-0.010703166
105	0x3cacbd34	0.021086313
106	0x3c8c75e3	0.017146057
107	0x3e501e68	0.20324099
108	0x3cad3e6c	0.02114793
109	0xbd4a1b16	-0.049342237
110	0xbd6246fc	-0.055243477
111	0xbc6c18ba	-0.014410192
112	0x3cfbf93c	0.030758493
113	0xbcdfae2f	-0.027304737
114	0xbc65e02b	-0.014030497
115	0x3cf0ded6	0.029403131
116	0x3c72e768	0.014825679
117	0x3ccca460	0.024980724
118	0x3e36eff5	0.17864974
119	0xbd32ba25	-0.043634553

weight f4 [84, 120]
0	0x3e025984	0.1272946
1	0xbd6df85d	-0.058098186
2	0x3cbcf966	0.023068141
3	0xbd2c6cf5	-0.042096097
4	0x3e0e2728	0.13882124
5	0xbcc5ea5d	-0.024159605
6	0x3a9ae1c0	0.0011816546
7	0xbc9bc413	-0.019014394
8	0x3d1bb4a8	0.038014084
9	0xbb216323	-0.002462574
10	0x3d20c1f9	0.039247487
11	0x3d79aa2d	0.060953308
12	0xbd08d5b1	-0.033406917
13	0xbd7ea53e	-0.062169306
14	0x3deeed4f	0.11666357
15	0xbb49c5e0	-0.0030788109
16	0x3c7258cb	0.014791678
17	0x3cbefc34	0.02331362
18	0xbd2776ab	-0.040884655
19	0x3d39bc3e	0.045345537
20	0xbd58ed5c	-0.05296074
21	0x3db3bc0e	0.08776103
22	0xbd20c5ed	-0.039251257
23	0xbd9d5ffb	-0.076843224
24	0x3d559cec	0.052151605
25	0xbbe971e5	-0.007124173
26	0x3d90d6b4	0.07072201
27	0x3da94d0b	0.08266648
28	0x3d3b66d2	0.045752354
29	0x3e1501ef	0.14551519
30	0x3d3739ac	0.044732735
31	0xbd1c7dcc	-0.038205907
32	0x3dd8e4ea	0.10590537
33	0xbdc322f8	-0.09528154
34	0xbd3affaa	-0.045653977
35	0xbc40a5a0	-0.011758238
36	0x3d9a9b94	0.075492054
37	0xbd2a4deb	-0.041578215
38	0x3d0432e5	0.0322751
39	0xbd873f62	-0.06603886
40	0x3d37e728	0.044898182
41	0xbc331a03	-0.010931495
42	0xbc2545f7	-0.010087482
43	0xbdc584a7	-0.09644442
44	0x3db08a73	0.08620157
45	0x3c5fa0f5	0.013649215
46	0x3e10666b	0.1410157
47	0xbc515793	-0.012777227
48	0xbda4e404	-0.08051303
49	0xbcae61d1	-0.021286877
50	0x3dc6944b	0.096962534
51	0x3e01264f	0.1261227
52	0xbd1ea7fd	-0.038734425
53	0x3d87acbf	0.066247456
54	0x3d1f6972	0.03891892
55	0x3ccc0885	0.024906406
56	0xbd67ba90	-0.056574404
57	0xbdeb9aaf	-0.11504113
58	0x3cfa977c	0.030589812
59	0x3c2b0fa9	0.010440745
60	0x3d230e24	0.039808407
61	0x3dc2f017	0.0951845
62	0x3d836168	0.06415063
63	0xbd645413	-0.055744242
64	0x3ca36099	0.019943522
65	0x3d389002	0.04505921
66	0xbde63a1a	-0.11241551
67	0xbe0a4cd6	-0.13505873
68	0xbd5d3954	-0.05400975
69	0xbdc9981e	-0.09843467
70	0x3dbbd895	0.09172169
71	0xbdb21ed9	-0.0869729
72	0x3d3fd7d1	0.046836678
73	0x3d802694	0.06257358
74	0xbd0c9044	-0.03431727
75	0x3cdaf8f6	0.026730042
76	0x3bf03965	0.0073310607
77	0xbd94f3c1	-0.07273055
78	0xbd8efc29	-0.069816895
79	0x3cb43019	0.021995591
80	0x3e06aedf	0.13152646
81	0xbd578a32	-0.052622028
82	0xbd40c101	-0.047059063
83	0xbd12ce81	-0.03584147
84	0xbd453ba4	-0.04815258
85	0xbd63c17f	-0.055604454
86	0xbdefa014	-0.11700454
87	0xbbad16d4	-0.0052822623
88	0xbc1db855	-0.009626468
89	0xbcd355f2	-0.025797818
90	0x3cc9ded7	0.024642391
91	0xbcf542f6	-0.029939156
92	0x3c3e3862	0.011610122
93	0xbd8a260d	-0.06745539
94	0xbd73ef5f	-0.059554454
95	0xbc958f59	-0.01825683
96	0xbd542219	-0.05179033
97	0x3d57dea7	0.052702572
98	0x3d471098	0.04859981
99	0xbe419bc2	-0.18907073
100	0xbd484c88	-0.04890111
101	0x3df29a29	0.1184581
102	0x3daf1f2b	0.08550867
103	0x3dc30e62	0.09524228
104	0xbd037e7f	-0.032103058
105	0x3d129c04	0.03579332
106	0x3d4ce63e	0.050024264
107	0x3cadaa2c	0.021199308
108	0xbd8801f8	-0.066410005
109	0xbc1658aa	-0.009176413
110	0xbd3fbe8d	-0.046812583
111	0x3d9b4b70	0.07582748
112	0x3ac40d08	0.0014957497
113	0xbc934baa	-0.017980415
114	0x3dbf4aca	0.09340437
115	0xbca2564d	-0.019816542
116	0xbd549619	-0.051900957
117	0x3d99a08b	0.07501324
118	0x3c6f386b	0.014600853
119	0xbd161741	-0.03664327
120	0xbce0915f	-0.027413068
121	0xbcea7a6f	-0.028622834
122	0xbd061c7c	-0.03274201
123	0xbd041bf1	-0.03225321
124	0xbc968978	-0.018376097
125	0xbdce5af2	-0.1007594
126	0xbe123801	-0.14279176
127	0xbd01b5cb	-0.031667512
128	0xbbcf3aa6	-0.00632413
129	0x3d8864ee	0.06659876
130	0x3d1c7231	0.03819484
131	0xbc0fd20a	-0.008778105
132	0xbe063688	-0.1310674
133	0x3cfbc411	0.03073314
134	0x3acc0044	0.0015564044
135	0xbc096818	-0.008386634
136	0x3cea800e	0.028625514
137	0xbdc786c8	-0.09742504
138	0xbccb6ea8	-0.024833038
139	0x3dba18d4	0.09086767
140	0xbc8bff04	-0.017089374
141	0xbdd07d51	-0.10180152
142	0xbdd3dff4	-0.1034545
143	0xbe1d8c60	-0.1538558
144	0x3d8f8afd	0.07008932
145	0xbe86b1d9	-0.26307562
146	0x3d938587	0.07203203
147	0xbaf86503	-0.0018951002
148	0xbda63df3	-0.081172846
149	0x3ce6439c	0.02810841
150	0xbdeb4f39	-0.1148972
151	0xbd779306	-0.060442947
152	0xbe011b9e	-0.12608191
153	0xbc9f1bd4	-0.01942245
154	0x3e261944	0.16220576
155	0x3d84976e	0.064741954
156	0xbd5a2991	-0.053262297
157	0xbd648c6f	-0.05579799
158	0xbdc09f5e	-0.09405397
159	0xbcbea425	-0.02327163
160	0xbcafd1c0	-0.021462321
161	0xbd61bd78	-0.055112332
162	0xbc422bcb	-0.011851261
163	0xbcfc8a8f	-0.030827789
164	0xbd4ef305	-0.05052473
165	0xbd992de4	-0.07479456
166	0xbd1870f6	-0.037217103
167	0xbcd71b78	-0.026258215
168	0xbb7147c4	-0.0036816457
169	0x3dae6006	0.08514409
170	0x3dbc7ed0	0.09203875
171	0x3d4c3a8b	0.04986052
172	0x3dea3b11	0.11437047
173	0xbdbe23dd	-0.09284184
174	0xbd61d2c0	-0.055132627
175	0x3d58efa8	0.05296293
176	0x3cb34121	0.021881642
177	0x3dafd9d6	0.08586471
178	0x3db5a8ae	0.08870064
179	0xbd97a8af	-0.07405221
180	0x3d7f709e	0.06236326
181	0x3d488378	0.048953503
182	0x3e2ff14e	0.17181894
183	0x3d27302b	0.04081742
184	0x3d62c955	0.055367786
185	0xbd436f65	-0.047713656
186	0xbcf688aa	-0.030094463
187	0xbcfa25c6	-0.03053559
188	0x3d9809e5	0.07423762
189	0x3d02f318	0.031970114
190	0x3ca852b5	0.02054725
191	0xbcda9344	-0.02668155
192	0x3c95934c	0.018258713
193	0xbc8ae2cb	-0.016953846
194	0xbd4daffc	-0.05021666
195	0x3da49627	0.08036452
196	0xbd0e4916	-0.03473767
197	0xbd9cfd16	-0.0766546
198	0xbc1403b0	-0.009034082
199	0x3d31a29e	0.043367974
200	0xb65bc48f	-3.2747955e-06
201	0x3cbab3f8	0.022790894
202	0xbcfaab47	-0.03059925
203	0x3cf3de3b	0.029769054
204	0x3c761e38	0.015021853
205	0x3c9ece1c	0.01938539
206	0xbc934a33	-0.017979717
207	0xbd28a511	-0.041173045
208	0x3c80f9a7	0.015744044
209	0xbdb3a142	-0.08770992
210	0xbe04b2c5	-0.1295882
211	0x3cd6a98e	0.026203897
212	0xbd01a839	-0.03165457
213	0x3d0e1af4	0.034693673
214	0x3e221749	0.15829195
215	0xbd8c635b	-0.06854888
216	0xbce9f43c	-0.028558843
217	0xbcc48249	-0.023987906
218	0x3d80bf02	0.06286432
219	0x3c0f55d1	0.008748488
220	0x3ded2593	0.11579432
221	0x3dc88add	0.09792111
222	0x3e09b083	0.1344624
223	0xbdecf97c	-0.11571023
224	0x3d40654a	0.046971597
225	0xbdebbf4a	-0.11511095
226	0x3c93db55	0.018048922
227	0x3db47253	0.08810868
228	0xbd9cbda7	-0.07653361
229	0x3da32d18	0.07967585
230	0xbd09f5ff	-0.033681866
231	0xbd9f7d9c	-0.0778763
232	0x3d620f1e	0.055190198
233	0x3ce94057	0.028473062
234	0xbb4c6969	-0.003119076
235	0xbd9ae214	-0.07562652
236	0x3d8c4a7f	0.068501465
237	0xbdcfad37	-0.1014046
238	0xbd7464d8	-0.059666485
239	0x3cfa7fa1	0.030578436
240	0xbd4af0b2	-0.04954595
241	0xbd7e5c13	-0.062099528
242	0xbd39eaf3	-0.04539008
243	0x3c5fdeb2	0.013663935
244	0x3d8a2227	0.06744795
245	0xbda0f231	-0.07858694
246	0xbd720fa6	-0.059096955
247	0x3d90c3ff	0.07068633
248	0x3bee325f	0.0072691883
249	0xbc6e661f	-0.014550715
250	0xbccbca34	-0.024876691
251	0x3cb3625e	0.021897491
252	0x3d3c2325	0.045931954
253	0xbd8097bd	-0.06278942
254	0xbdce6b35	-0.10079042
255	0x3d676ec0	0.056502104

bias f4 [84]
0	0x3d413ed7	0.04717907
1	0xbd2510e4	-0.04029931
2	0x3d99b327	0.07504874
3	0x3d4c2002	0.049835213
4	0xbd220029	-0.039550934
5	0xbcee5382	-0.029092554
6	0xbdbad499	-0.09122581
7	0xbdb4095a	-0.08790846
8	0x3eb6426b	0.35597548
9	0xbd187fa6	-0.03723111
10	0x3ea78436	0.32718056
11	0x3c31bbfb	0.010848041
12	0x3ca68796	0.020328324
13	0x3e1701bd	0.14746757
14	0xbbbccc85	-0.0057616853
15	0x3e423b2b	0.18967883
16	0x3d97837d	0.07398126
17	0xbe01eed0	-0.12688756
18	0x3e4b4941	0.19852163
19	0x3d72c3b1	0.059268657
20	0xbda56fc4	-0.08077958
21	0xbccc6df3	-0.024954772
22	0x3c3f8d18	0.011691354
23	0x3de7e8a4	0.113236696
24	0x3e0b0aa6	0.13578281
25	0x3d649fd9	0.055816505
26	0xbcd61e21	-0.026137413
27	0xbd81b59f	-0.063334696
28	0xbd69fa80	-0.05712366
29	0x3ccc2db7	0.024924142
30	0x3e210a45	0.15726574
31	0x3e2a3bda	0.16624394
32	0x3ebeb05c	0.37243927
33	0x3ecac0db	0.39600262
34	0xbd4df493	-0.050282072
35	0x3ea57dcc	0.32322538
36	0x3ddfc8a2	0.109269395
37	0xbdce609d	-0.10077021
38	0xbe6fad9c	-0.2340607
39	0xbe893380	-0.26797104
40	0xbd5405af	-0.051763233
41	0xbd8a221f	-0.06744789
42	0xbd284681	-0.041082863
43	0x3e736223	0.23767905
44	0x3d900e5a	0.07033987
45	0x3e338ee4	0.17534977
46	0xbe584789	-0.21121038
47	0x3df23756	0.11826961
48	0xbc307121	-0.0107691595
49	0xbd0e7bc8	-0.034786016
50	0x3d8e17cc	0.06938133
51	0x3e1007d2	0.14065483
52	0x3e91a547	0.2844641
53	0x3dd38cb7	0.103295736
54	0x3e40a675	0.18813498
55	0x3d92ee5a	0.07174368
56	0x3d2fb208	0.042894393
57	0x3e5d6461	0.21620323
58	0x3e1235c4	0.14278322
59	0xbc37f198	-0.011227034
60	0x3dfaa60a	0.12238701
61	0x3de462a3	0.11151626
62	0x3c1e6c8a	0.009669432
63	0x3e32e85b	0.17471449
64	0xbd5519e1	-0.052026633
65	0x3e1697bf	0.14706324
66	0x3d51c56f	0.051213678
67	0xbd067ac7	-0.032831933
68	0x3cd7bd3a	0.026335347
69	0x3e34911e	0.17633483
70	0xbe63ecfc	-0.22258371
71	0xbd9c3167	-0.0762661
72	0x3c51d3bb	0.012806828
73	0x3e1ce7cc	0.15322798
74	0xbe242b20	-0.16032076
75	0x3dfb8644	0.122814685
76	0x3e0566d8	0.13027513
77	0x3ce14709	0.027499693
78	0xbdb083ba	-0.08618875
79	0xbdae02ae	-0.08496605
80	0x3e913ae8	0.28365254
81	0x3e8d945a	0.27652246
82	0x3eb9a139	0.36255816
83	0x3e4f2f9e	0.20233008

weight f4 [10, 84]
0	0x3e0c2d31	0.13689114
1	0x3c0668b0	0.00820367
2	0x3c45de52	0.012076931
3	0xbd413ffa	-0.047180153
4	0x3d9376a3	0.072003625
5	0xbd1a7d5e	-0.037717216
6	0x3d6b364d	0.057424832
7	0xbd05f2e9	-0.03270236
8	0xbe21ccb2	-0.15800741
9	0x3e2994ef	0.1656072
10	0xbe3b75d1	-0.18306662
11	0xbdf6e42f	-0.12055241
12	0x3dea8847	0.11451774
13	0xbca29a4e	-0.019848969
14	0x3d2e7892	0.042595454
15	0x3e3fa610	0.18715692
16	0x3e3987a4	0.18118149
17	0x3e094bfa	0.13407889
18	0xbd73fb7d	-0.05956601
19	0xbdc05d2d	-0.09392772
20	0x3db1c18b	0.086794935
21	0xbdae99e6	-0.085254475
22	0xbd3fd073	-0.046829652
23	0x3e18110c	0.14850253
24	0x3e0330de	0.1281161
25	0x3d45877d	0.048224915
26	0x3dc8429d	0.097783305
27	0xbde528cf	-0.11189424
28	0x3de23d23	0.11046817
29	0xbdaa5b8e	-0.08318244
30	0x3d90a84a	0.070633486
31	0xbcc5ae0e	-0.024130847
32	0x3ea2889b	0.31744847
33	0xbe16b080	-0.14715767
34	0x3ca913e4	0.020639367
35	0xbe184bf5	-0.14872725
36	0xbe074ef7	-0.13213716
37	0x3d712690	0.058874667
38	0x3d21de35	0.039518554
39	0x3e0924a8	0.1339289
40	0x3dc751e3	0.097324155
41	0x3d79aec5	0.06095769
42	0xbde98022	-0.114013925
43	0xbdae02d8	-0.08496636
44	0x3d010bfc	0.03150557
45	0xbdd6f65a	-0.104962066
46	0x3e7821ce	0.24231645
47	0x3e652a06	0.22379312
48	0xbd05fcaa	-0.032711662
49	0x3d876d05	0.06612591
50	0xbddaacc9	-0.106774874
51	0xbe2da659	-0.16957988
52	0xbe80eb4f	-0.25179526
53	0x3cdada5f	0.026715456
54	0x3e92fae8	0.2870705
55	0x3e0b534d	0.13605995
56	0xbd8ed473	-0.06974115
57	0xbe2fa3fa	-0.17152396
58	0x3d31bb1a	0.043391325
59	0x3c53ba1e	0.012922792
60	0xbdeaa670	-0.11457527
61	0x3dc7af12	0.09750189
62	0xbca5cbea	-0.020238835
63	0x3db69558	0.08915204
64	0x3d80fb66	0.062979504
65	0xbe463e83	-0.19359784
66	0x3e5159d7	0.20444427
67	0xbd93a039	-0.072082944
68	0xbc911ce4	-0.017713971
69	0x3c9f6fa8	0.019462422
70	0x3e19972e	0.14999077
71	0x3d9dbe32	0.077022925
72	0x3e2fa9c9	0.17154612
73	0xbde59556	-0.11210124
74	0x3d27b9b7	0.040948596
75	0xbe049958	-0.12949121
76	0xbe060352	-0.13087204
77	0xbe1acaee	-0.15116474
78	0xbdad7942	-0.08470394
79	0xbd54a357	-0.051913586
80	0xbe0f9ebc	-0.14025396
81	0xbe1621a7	-0.14661275
82	0xbdf0deeb	-0.11761268
83	0x3df141b2	0.117801085
84	0x3d8ccd5f	0.06875109
85	0x3ec16de8	0.37779164
86	0x3de8fb41	0.11376048
87	0x3dbf76cc	0.093488306
88	0xbda78211	-0.08179105
89	0x3d7a482f	0.061103996
90	0xbdfe3caa	-0.124139145
91	0xbbb0a4c5	-0.005390736
92	0x3dbee191	0.09320367
93	0x3e60f8e5	0.21969946
94	0x3d4f0bf2	0.0505485
95	0x3b17dc4d	0.002317208
96	0xbdb9e655	-0.090771355
97	0x3d847c51	0.06469024
98	0x3e3fcdc0	0.18730831
99	0xbcd2a2f6	-0.025712471
100	0xbda64e32	-0.08120383
101	0xbca177f5	-0.01971052
102	0xbdbfa11c	-0.09356901
103	0x3da0e9b2	0.07857074
104	0xbda29fbd	-0.07940624
105	0x3e078a1e	0.13236281
106	0x3d97df49	0.07415635
107	0xbd2a3f94	-0.04156454
108	0x3df254f5	0.118326105
109	0xbd16157b	-0.03664158
110	0xbe2ba3b3	-0.16761665
111	0x3dc083a0	0.094001055
112	0xbce87bf4	-0.028379418
113	0x3d9c8349	0.07642228
114	0xbc85ee43	-0.016348964
115	0xbe8e8e9d	-0.2784318
116	0xbdb4128a	-0.087925985
117	0xbe315a65	-0.17319639
118	0xbe4e2248	-0.20130265
119	0x3d7de719	0.06198797
120	0xbe852ea4	-0.26012146
121	0x3e11f40e	0.14253256
122	0x3e76c690	0.24099183
123	0x3dedd265	0.11612395
124	0x3cc88d31	0.024481388
125	0xbe10f4bd	-0.1415586
126	0x3dd47527	0.103739075
127	0xbe8f74e1	-0.2801886
128	0x3e7d7892	0.24753025
129	0xbe81d7b7	-0.2535989
130	0x3e991f91	0.29906896
131	0xbe52f55a	-0.20601407
132	0xbce24d65	-0.027624795
133	0xbcd2ef5c	-0.025748901
134	0x3c07fe55	0.008300384
135	0xbd6fe5b9	-0.05856869
136	0xbe50c355	-0.20387013
137	0xbd95f252	-0.073216096
138	0x3c051ac3	0.008124056
139	0x3e331714	0.17489272
140	0x3c58ef1f	0.013240605
141	0xbdff19ee	-0.124561176
142	0xbd22b8ac	-0.039726898
143	0x3c47322c	0.012157958
144	0xbda7d162	-0.081942335
145	0xbe0b37c4	-0.13595492
146	0x3c80d41c	0.015726142
147	0x3dce17b5	0.100631155
148	0xbca4a413	-0.020097768
149	0x3e4084d0	0.18800664
150	0x3dead932	0.11467208
151	0xbb3d8f69	-0.002892459
152	0x3e151b2e	0.1456115
153	0x3d6e8310	0.05823046
154	0x3e057588	0.13033116
155	0xbd31c3f9	-0.043399785
156	0x3dbbf477	0.09177487
157	0xbe0011e5	-0.12506826
158	0x3ebb6871	0.3660312
159	0xbd42fce6	-0.047604464
160	0x3e00208f	0.1251242
161	0xbe12399a	-0.14279786
162	0x3d4b1c5e	0.0495876
163	0xbbad1c15	-0.0052828887
164	0xbe5d0482	-0.21583751
165	0xbe541d42	-0.20714286
166	0xbe56bc21	-0.20970203
167	0xbe78142f	-0.2422645
168	0xbe30e172	-0.172735
169	0xbe0fdd2f	-0.14049219
170	0x3db56c0c	0.08858499
171	0x3d2c0783	0.04199935
172	0xbc5e2512	-0.013558643
173	0x3d9ff959	0.07811231
174	0x3d9863f0	0.074409366
175	0x3cdfba13	0.027310407
176	0x3daea8d8	0.08528298
177	0xbdf68164	-0.12036398
178	0xbcb51c69	-0.022108274
179	0x3e2941dc	0.1652903
180	0x3d4b6a03	0.049661648
181	0xbd62ea8a	-0.055399455
182	0xbd9dd64f	-0.07706892
183	0xbdc36c10	-0.09542096
184	0x3dd26e43	0.10274937
185	0x3d1a2fc9	0.037643228
186	0x3d316694	0.043310717
187	0xbcd9092a	-0.026493628
188	0xbdc41d49	-0.09575898
189	0xbda520e1	-0.08062912
190	0xbe33cb12	-0.17557934
191	0xbd8654a4	-0.06559113
192	0x3dbea318	0.093084514
193	0xbd883534	-0.06650773
194	0x3e00ae20	0.12566423
195	0x3d1311e1	0.035905723
196	0x3dbc8feb	0.09207138
197	0xbce11196	-0.027474206
198	0xbe27d6e8	-0.16390574
199	0x3bf23a16	0.0073921783
200	0x3d8a3776	0.067488596
201	0x3e52c6af	0.20583604
202	0xbd6f75c4	-0.05846192
203	0xbd768001	-0.060180668
204	0x3e11587a	0.14193907
205	0xbdecbf07	-0.11559873
206	0xbd9e8e58	-0.07741994
207	0x3d8aee18	0.06783694
208	0xbdf1f211	-0.11813749
209	0x3d7253fc	0.059162125
210	0x3d95f9fc	0.07323071
211	0x3c2f217d	0.010689137
212	0x3e02264f	0.12709926
213	0x3e91b029	0.28454712
214	0x3ca1db26	0.019757818
215	0x3e8c72ee	0.27431434
216	0x3d45237a	0.048129536
217	0x3d47198f	0.04860836
218	0xbdc50e5a	-0.09621878
219	0x3e74e284	0.23914534
220	0x3e2bb9de	0.16770121
221	0xbd6daf98	-0.058028787
222	0x3c985604	0.018595703
223	0xbe2f8d9b	-0.17143862
224	0x3e389af1	0.18027855
225	0x3dd00644	0.10157445
226	0x3c0ab8d4	0.008466918
227	0x3d1f956e	0.038960867
228	0x3d59c88d	0.053169776
229	0x3cdadacb	0.026715657
230	0x3cb478ee	0.02203032
231	0x3de18c0b	0.11013039
232	0xbbeb1dd2	-0.0071751857
233	0xbe42663f	-0.18984316
234	0x3db2ff58	0.08740109
235	0xbd2f5448	-0.042804986
236	0xbdd2d2e8	-0.102941334
237	0xbe0c47b5	-0.13699229
238	0xbd92e4bc	-0.07172534
239	0x3ea2d051	0.31799558
240	0xbe4a3151	-0.19745375
241	0xbe109c01	-0.14122011
242	0xbcb8bf22	-0.022552077
243	0x3e563a78	0.20920742
244	0x3e0099c2	0.12558654
245	0xbd1e08b8	-0.038582534
246	0xbd9b8b64	-0.07594946
247	0x3d932e7f	0.07186603
248	0x3dec02e2	0.11523987
249	0x3e1e14b7	0.1543759
250	0x3dd37611	0.10325254
251	0x3e34c790	0.17654252
252	0x3e054675	0.13015158
253	0xbdf634fa	-0.12021823
254	0xbe2c5df5	-0.16832717
255	0xbca6bd66	-0.020353984

bias f4 [10]
0	0xbe8f5429	-0.27993897
1	0xbf2f593d	-0.6849554
2	0x3e969908	0.2941363
3	0x3ecac3b3	0.39602432
4	0x3f005f9c	0.5014589
5	0xbdfbe29e	-0.12299083
6	0x3e78692f	0.24258874
7	0xbe967f0e	-0.2939381
8	0x3ee18291	0.44044927
9	0xbe4dae75	-0.20086081
