models/v1.pt (torch_old, 263636 bytes, 10 tensors)

weight f4 [6, 3, 5, 5]
000000 6f ee 42 be bf cc 7e be 6c e1 6a be b1 9f 52 be
       -0.19036268 -0.24882792 -0.22937554 -0.2056873
000010 94 2d 84 bd 00 28 14 be 12 ae 93 be d7 41 a1 be
       -0.06454006 -0.14468384 -0.28843743 -0.31495544
000020 ce f8 2a be 36 8d bb bd e5 3c 83 bd c2 43 0e be
       -0.16696474 -0.09157793 -0.06408099 -0.13893035
000030 6a 90 db bb 46 5c d8 3a 2f d0 0b bc 12 a2 13 bc
       -0.006700565 0.0016506992 -0.008533522 -0.009010809
000040 18 bc 12 3d 29 87 97 3d e2 76 44 3d 72 4d b7 3d
       0.03582391 0.07398827 0.047964938 0.089503184
000050 f0 71 b7 3d b3 23 d2 3d c2 bf 1a 3e 5a d8 5f 3e
       0.08957279 0.10260715 0.15112212 0.21859875
000060 74 f9 5a 3e 2f 77 cf bd ed 5b f2 bd e1 ba 4b be
       0.21384221 -0.10130154 -0.1183394 -0.19895507
000070 2a 70 e9 bd 55 43 6a bd 5b b4 c2 bc cd c6 7c bd
       -0.11398347 -0.05719312 -0.02376764 -0.06171303
000080 d4 28 de bd eb 87 59 be dc 7e 45 be ba 82 00 be
       -0.10847631 -0.21243255 -0.19286674 -0.12549868
000090 c4 e2 a4 bd 91 65 30 3d 5a 3a 06 be fc 77 e1 bd
       -0.080510646 0.04306561 -0.13108197 -0.11009213
0000a0 5c 7c 9c bd 65 d7 c8 bd 5c 6f 63 3d 95 7d f2 3d
       -0.07640907 -0.09806708 0.055526122 0.11840359
0000b0 ed a3 05 3d 34 eb e9 bc f8 46 dd 3c 6f 55 cd 3d
       0.032627035 -0.028554536 0.02701138 0.10026061
0000c0 17 6c b2 bc c8 07 76 bc b1 90 21 3e 9f 52 aa 3d
       -0.021780057 -0.015016504 0.15777852 0.0831654
0000d0 81 71 d3 3c 1c 8d 00 3d f8 48 f8 3c 9b be 58 3e
       0.025810959 0.031384572 0.030308232 0.2116646
0000e0 44 39 3c 3e ef e3 35 3d bb 24 9d 3d 54 ad 36 3c
       0.1838122 0.044406828 0.076730214 0.011149723
0000f0 f9 9c 4a 3e ec 79 96 3e 3b 6b d4 3d d8 b1 24 3e
       0.19786443 0.29389894 0.10372015 0.16083467
000100 74 6a d4 3d 62 b0 0e 3e a3 fe 9b 3e 69 2e 8b 3e
       0.10371867 0.13934472 0.3046771 0.27183846
000110 75 f7 4e 3e 99 d0 b7 3d 52 2d 2a 3e 8c f7 1a 3e
       0.20211585 0.08975334 0.16618851 0.15133494
000120 d9 2d 27 3e 81 bb c9 3d 91 fe f6 3d e8 78 ea 3c
       0.16326083 0.09850217 0.120602734 0.028622106
000130 2a 45 b2 3d 39 5b 7d 3d 6c 92 05 3e d1 97 71 3e
       0.08704598 0.061854575 0.13044137 0.2359307
000140 45 c7 08 3e 14 c0 4f 3d 59 5d 43 be 98 58 ab bd
       0.13357265 0.05072029 -0.19078578 -0.08366507
000150 75 7f 9c 3e 33 4a af 3e 2b 0d 7f 3d a5 fe 90 be
       0.30565992 0.34236297 0.062268417 -0.28319278
000160 3d 46 ee bd c7 6f b4 3d 62 2b b3 3e 94 09 03 3b
       -0.11634491 0.08810382 0.34994036 0.0019994723
000170 5b e3 f2 be d2 04 8a bc 60 03 54 3e 84 cd 82 3e
       -0.47439083 -0.016848002 0.20704412 0.2554742
000180 5f 07 85 bd 71 e7 98 be 19 66 3e be 35 43 34 3c
       -0.064955465 -0.29864076 -0.18593635 0.0110023515
000190 4a ee 01 bd 40 f6 32 be a1 ad ac be 4e 31 25 be
       -0.03172139 -0.1747675 -0.33726218 -0.1613209
0001a0 c0 4a 09 be 5e 89 86 3e 35 e6 ba bd fd ea 8a be
       -0.13407421 0.26276678 -0.0912594 -0.27132407
0001b0 b4 81 92 be 70 1b 15 3e bb 1b b6 3e 80 ae 13 bd
       -0.2861458 0.14561248 0.35568032 -0.036055088
0001c0 12 f4 d1 be d2 ff a2 be ce 9f a3 3d 25 eb b3 3e
       -0.41006523 -0.318358 0.07989465 0.3514034
0001d0 03 f4 0a 3e 0c 34 e2 be 44 98 39 be 6d 9e 0c 3e
       0.13569646 -0.44180334 -0.18124491 0.1373231
0001e0 98 35 88 3e 89 7b 91 bb 92 bd a2 be 11 aa 59 3d
       0.2660339 -0.0044397754 -0.31785256 0.053140704
0001f0 3b ce aa ba ad a7 63 bd c5 fd a9 bd 61 af 1a be
       -0.0013031432 -0.05557983 -0.08300356 -0.15105964
000200 08 47 26 bd ee 23 12 be e7 81 59 3e e2 91 06 3e
       -0.040595084 -0.14271519 0.2124096 0.13141587
000210 cf e0 ff bd 06 5f 5d be 52 3c 52 3d 62 a0 e5 3e
       -0.12494051 -0.2161828 0.051327057 0.44848925
000220 89 8f 26 3e 30 14 d9 be 8a 15 03 be 0f 90 72 3e
       0.16265692 -0.42398214 -0.12801185 0.23687766
000230 3b ce fe 3e d8 d7 f0 3d ca eb ab be 38 5c cb bd
       0.49766716 0.11759919 -0.3357833 -0.09929699
000240 77 f5 0d 3d 0e 40 a8 3e ce 69 e2 3d c7 1b 83 be
       0.03465792 0.3286137 0.11055337 -0.2560713
000250 e0 79 a7 3d e5 d2 19 3d 8d c6 d9 3e 15 f0 1f 3f
       0.08177543 0.03755464 0.42534295 0.6247571
000260 14 54 d9 3e 4e c2 17 3f da a4 a1 3e 68 94 65 3e
       0.4244696 0.5928086 0.31571084 0.22419894
000270 75 45 89 3e ef 8c a8 3e 4d 98 eb 3e 63 89 82 3e
       0.26810804 0.32920024 0.46014634 0.25495443
000280 2e be ee 3d 63 05 51 3d 9a 22 ad 3d 90 40 40 bc
       0.11657368 0.051030528 0.08453865 -0.011734143
000290 42 f7 1e bd 8f bd 08 be 69 71 90 be 7a fc 4d be
       -0.038810022 -0.13353561 -0.28211525 -0.20115843
0002a0 f2 7e a8 be 78 66 4c be 50 b5 a9 be 8b ae 12 be
       -0.32909352 -0.19960964 -0.33146143 -0.14324395
0002b0 68 2c 46 be 8f 63 92 be 8f 28 af be 98 e3 1f be
       -0.19352877 -0.28591582 -0.3421063 -0.15614164
0002c0 e2 a7 c4 bd e9 8f ac 3c a8 37 29 bc 32 01 66 be
       -0.096023336 0.021064715 -0.010328211 -0.22461393
0002d0 d5 ab 95 be 70 02 8c be 92 c0 3a be 10 12 22 be
       -0.2923266 -0.2734561 -0.18237522 -0.15827203
0002e0 a4 e3 06 be 12 79 89 be 1b 2c 99 be 9e da 9f be
       -0.13172776 -0.26850182 -0.29916462 -0.3122148
0002f0 5a 04 0e be a9 5c 88 be 01 92 2a be 4e fd 8e be
       -0.13868847 -0.26633194 -0.16657259 -0.2792763
000300 3d 12 67 be b7 f8 47 be c9 5e 1c be 4a 54 3b bd
       -0.22565551 -0.19528471 -0.15270533 -0.04573468
000310 0e 2a 2b 3d 2b ef 78 3e 9e 92 41 3e e6 4e 48 3d
       0.041788153 0.24309985 0.18903586 0.04890337
000320 87 cc 28 be b7 f9 36 be 83 7e af bc bf ab 0b be
       -0.16484271 -0.17868696 -0.02142263 -0.13639735
000330 a6 68 89 be d1 b3 6c be 2a 1b df bc fb e3 83 3c
       -0.26837653 -0.2311547 -0.027234633 0.01609992
000340 cb db 46 bd a9 fe 10 be 23 45 4e 3c 3e 85 57 be
       -0.048549455 -0.14159645 0.012589726 -0.21046922
000350 ba 5b 8e bd 06 7b 36 39 6d 17 dc bc 4b 19 e7 3d
       -0.06951089 0.00017402702 -0.026866639 0.11284121
000360 ed fa 88 bd f6 67 04 3e 61 14 f5 3d 2f de 7e 3d
       -0.06688485 0.12930283 0.119667776 0.06222361
000370 13 23 93 3e 12 dd 76 3e 88 f6 c5 3e 41 60 9b 3e
       0.28737697 0.24107769 0.3866465 0.30346873
000380 5a 99 cc 3d a7 1f 82 3c ee 76 d0 be b6 75 3f bd
       0.09990187 0.015884234 -0.40715736 -0.046743117
000390 6b 5f 03 be 10 3f d3 bd fb 20 f5 be 87 fc a9 be
       -0.12829368 -0.103147626 -0.47876725 -0.33200476
0003a0 b8 cb 3d 3e c9 ee 62 3e 95 04 68 3d 1b e6 e5 be
       0.18534744 0.22161402 0.056644995 -0.4490212
0003b0 1e bc 66 3e d5 b3 c6 3e 4c 42 7d 3d ca 09 0b be
       0.22532699 0.38809076 0.061830804 -0.13577953
0003c0 6c 8d c7 3d 60 57 90 3e 2e 65 99 3d fd bc 9f bd
       0.09743771 0.28191662 0.074900016 -0.077997185
0003d0 20 12 14 3d 24 d6 ab 3e f0 ab 96 3e 1c 6b bc be
       0.036150098 0.33561814 0.29428053 -0.36800468
0003e0 48 a1 4e be 37 54 65 bc 7b 95 52 bc 7a 6c 9f be
       -0.20178711 -0.013997129 -0.012853022 -0.3113745
0003f0 3d c8 21 bd 96 97 44 3d dc 7f c1 3c 97 83 ab be
       -0.039497603 0.047996126 0.023620538 -0.33498833

bias f4 [6]
000000 62 c7 58 3d b0 3a 45 be 7f 9f 29 bf 3e 68 63 ba
       0.05292452 -0.19260669 -0.66258997 -0.0008674896
000010 a1 b0 73 be a3 bf 2e be
       -0.23797847 -0.17065291

weight f4 [16, 6, 5, 5]
000000 e8 4c 14 be 48 26 fc bd e8 1a 70 bd 27 36 b6 bd
       -0.14482462 -0.12311989 -0.05861941 -0.088970475
000010 bb df e5 bc 2d 0d 7c be 5d d8 f8 bd 10 e1 b8 bd
       -0.028060785 -0.24614401 -0.12150643 -0.09027302
000020 7d 7d a6 bc 3d 05 ea bd 57 b3 27 be ee 69 28 bd
       -0.02032351 -0.114267804 -0.16377006 -0.041116647
000030 8d a4 e1 bd 78 2a c3 bd 77 13 3e be 41 8d 23 bd
       -0.11017714 -0.09529585 -0.18562113 -0.039929632
000040 8e 1c a4 3d 42 34 93 3d 94 53 6e bc 8f 1e 0d bd
       0.08013259 0.07187702 -0.014546294 -0.03445297
000050 de f2 b2 bc fd 9b 8e bc 34 e5 1b 3c a1 f8 80 3d
       -0.021844324 -0.017408365 0.0095150955 0.06297422
000060 5c f5 0d 3d 68 0b 94 3d c2 58 13 3e 4b b3 22 bd
       0.03465782 0.07228738 0.14389327 -0.03972177
000070 c7 28 12 3e 5f aa c1 ba 36 0a b3 bb 43 41 42 3e
       0.14273368 -0.0014775506 -0.0054638637 0.18970208
000080 d5 c7 1e be 3f 0f ac 3e ec d4 2a be f6 01 ae bd
       -0.15505917 0.33605382 -0.16682786 -0.08496468
000090 f1 a0 56 3e a1 57 3e be 1f f1 03 3f d9 eb 52 be
       0.20959832 -0.18588115 0.51539797 -0.20597781
0000a0 82 fa 37 3d 79 0f f0 3d cf 62 07 be 54 d2 34 3e
       0.044916637 0.11721701 -0.13221286 0.17658359
0000b0 05 db 4b be 64 7b 41 bd 3a ae 1e be d4 07 4e be
       -0.19907768 -0.047236815 -0.1549615 -0.20120174
0000c0 87 6f aa bd 1d 31 93 be 49 41 4b 3e 50 b2 37 3d
       -0.083220534 -0.28748408 0.19849123 0.044847786
0000d0 eb a6 0d 3e 45 99 9c bc 9f b9 c1 3d 5b 9c aa 3c
       0.13833205 -0.019116053 0.094592325 0.02082651
0000e0 59 8d b6 bd 85 68 83 bd e3 fe 2d bc aa 02 79 3d
       -0.08913679 -0.0641642 -0.010619852 0.060793556
0000f0 b9 ca 0c bd 70 30 ce bd ad ed 2a bd d8 fc 0a be
       -0.03437302 -0.100678325 -0.04173057 -0.13573015
000100 df a8 9d bd a0 94 1c bd c5 a9 84 bb 35 28 fb 3c
       -0.07698225 -0.038227677 -0.0040485584 0.03065882
000110 f2 32 2e bc 6d 50 d0 3d a4 1d fe bd 2c f6 ac 3c
       -0.0106322635 0.1017159 -0.12407997 0.021113478
000120 4d 8c 92 3d 6a 6a e7 bc 8a 62 0f bd 42 89 60 3e
       0.071556665 -0.028248984 -0.035006084 0.2192736
000130 4a 97 24 3e 6e ea 57 3d de 99 b9 3d c6 c8 86 3b
       0.16073337 0.052713804 0.09062551 0.0041132895
000140 bf af 9b 3d 49 42 95 bb 6f e9 f4 bc d3 d9 97 bd
       0.0760188 -0.004555021 -0.029896466 -0.074145935
000150 77 01 c9 bc 77 e9 3c 3e 96 a1 60 be f1 3f 62 3d
       -0.024536831 0.18448435 -0.2193664 0.05523676
000160 40 41 81 be b4 54 41 3e 71 e2 71 3b 6e 23 84 bb
       -0.25245094 0.18879968 0.0036908651 -0.004032544
000170 7c cd 12 3e 53 78 ab be 77 a9 52 3e dd d8 c0 bd
       0.14336199 -0.33490238 0.20572458 -0.094163634
000180 14 57 98 3d 2a 44 ea 3d de 1d 0d be 49 f1 2c 3e
       0.07438484 0.114387825 -0.13780925 0.16888918
000190 50 40 cf bc 30 7a 67 bd 34 18 9f 3c a8 6a ac bd
       -0.025299221 -0.05651301 0.01942072 -0.084187806
0001a0 5f f6 de 3d 8b 8b 42 3d cb 82 15 3d 85 15 8c 3d
       0.10886835 0.04749636 0.036501687 0.06840042
0001b0 6f 3b e6 bc 0e 38 ca 3d b4 1b 65 bd 05 b9 3d 3c
       -0.028104512 0.09873973 -0.055934623 0.011579757
0001c0 87 b7 a0 bd d4 49 35 bd 06 90 8d bd df 95 e7 bd
       -0.07847505 -0.04425986 -0.06912236 -0.113078825
0001d0 38 20 4a 3d ce 7d 99 3c 28 91 dc 3b c7 7a 97 bc
       0.049347132 0.018736746 0.006731171 -0.018491162
0001e0 4d 68 68 be 6f c7 75 3d 1e 43 89 3d 85 e4 3b 3c
       -0.22696038 0.060004648 0.06702255 0.0114680575
0001f0 c6 b6 59 3d 69 a9 47 3e 25 c2 85 3d 23 de 3e 3e
       0.053152822 0.19498219 0.06531171 0.18639426
000200 7f 5c 43 3d bd 95 5b 3d 4b 24 08 3e c4 17 13 3e
       0.047695633 0.0536096 0.13295095 0.14364535
000210 c5 c3 e5 3d 31 76 ea 3d a6 01 8f bd 77 00 07 3c
       0.11218981 0.114483245 -0.06982736 0.008239857
000220 42 3a 80 3e 35 f2 c8 3b db 00 84 3d 11 fa d5 3d
       0.25044447 0.006132389 0.06445476 0.10448087
000230 78 ef f8 bc 82 2c 13 3e a1 c1 fa bd cb dd 3f be
       -0.030387625 0.14372447 -0.12243963 -0.18736951
000240 bf c6 a9 3d ff 22 70 be 14 c8 c9 bd ae bc 02 be
       0.08289861 -0.2345085 -0.09852615 -0.12767288
000250 5e 57 39 be 3b 6f 28 be 9c 4c 10 3d 1a d0 17 bd
       -0.18099734 -0.16448681 0.03522931 -0.037063695
000260 31 c7 0b be 61 3a 19 be ae 93 73 bd 6f 99 83 bd
       -0.13650204 -0.14963676 -0.05946701 -0.064257495
000270 b0 cf 08 be 92 a7 ed bd 7b b5 55 bd c7 09 b8 3c
       -0.13360476 -0.11604227 -0.052175026 0.0224656
000280 56 55 11 be ad 62 68 bd c5 d9 6a 3d 6f 35 36 bd
       -0.1419271 -0.05673473 0.057336587 -0.044484552
000290 8b 29 78 bd 91 39 99 3d 4d 0f 86 3c d4 11 34 bb
       -0.060586493 0.07481683 0.016364718 -0.0027476447
0002a0 07 bf a0 3d 39 d3 ae bd b1 04 f9 bc f8 9d bc bd
       0.078489356 -0.08536381 -0.030397745 -0.09209818
0002b0 2d aa 8e bd 2e 45 94 3c 23 ae 0c bd 37 20 a8 bd
       -0.06966052 0.018099394 -0.034345757 -0.082092695
0002c0 40 01 02 bd 7f 45 e6 bd 9d 2b b7 bc 09 1b 65 bc
       -0.031739473 -0.11243724 -0.022359664 -0.013983496
0002d0 bd 18 00 be 59 7b ba bd d2 91 33 be 65 8f ee bd
       -0.12509437 -0.09105558 -0.17536095 -0.11648444
0002e0 26 78 02 bb 0b a2 02 be c3 a6 0a be 76 0b 30 be
       -0.001990804 -0.12757127 -0.13540177 -0.17191872
0002f0 a5 15 f4 bd 6a 34 a3 bd 78 fe 19 be 16 5f 91 bd
       -0.11918191 -0.079689816 -0.15038478 -0.07098214
000300 0b d3 3d be 20 12 cd bd 62 3a 03 be d4 ff fc bc
       -0.18537538 -0.10013223 -0.1281524 -0.030883707
000310 ad fd 4a be 0d 9c 0f be 9d dc 2f be f2 dd 52 be
       -0.19823332 -0.14024372 -0.17174001 -0.20592478
000320 b4 a8 b5 bd ee 9a d4 bd 30 aa 1e bd 0d 6b 0d be
       -0.08870068 -0.10381113 -0.038736522 -0.13810368
000330 d5 04 1b be ab db ad 3c 23 1c 28 b8 4e 25 d0 bc
       -0.15138562 0.02122291 -4.0080526e-05 -0.025408413
000340 1b 00 a8 b9 94 ab 97 bd 59 7e 90 bd c7 af 2c 3d
       -0.00032043536 -0.07405773 -0.07055349 0.04215982
000350 b6 cb c8 bd 88 d8 ad bc 07 98 e1 bc 83 df e0 bc
       -0.0980448 -0.021221414 -0.027538313 -0.027450329
000360 3a 3e db 3d 7f 7b 01 bd b2 43 00 3e 7f 53 d1 3d
       0.10705228 -0.031611916 0.12525824 0.10221004
000370 6e d7 37 bd 44 07 94 bc bf b2 8f bc e3 ab 32 bd
       -0.044883184 -0.01806987 -0.017541287 -0.043620955
000380 5f 8e a9 39 79 ec 79 3e bc 21 2d 3d 72 e3 e5 3d
       0.00032340267 0.24406613 0.0422685 0.112250224
000390 9d a9 2a 3e 97 a9 5b 3d 39 98 3a 3e 64 02 81 3d
       0.16666265 0.05362853 0.18222131 0.06299284
0003a0 e1 7b 39 bb 39 aa ab 3d 68 5f 80 3d 1c 7a 54 3c
       -0.0028302597 0.08382077 0.06268197 0.012968566
0003b0 d1 02 d5 3c ab fd 0d 3e 8b 71 52 3d d2 b8 f9 3c
       0.02600232 0.13866298 0.051377814 0.030483637
0003c0 79 38 31 3d c6 b2 6e bc 8a 77 6c 3b f8 9e 73 3d
       0.043266747 -0.01456899 0.0036081993 0.059477776
0003d0 f5 67 66 3d b6 1a 2b 3d 30 69 9f 3d b8 90 a4 3c
       0.056251485 0.04177352 0.07783735 0.020088539
0003e0 1e de 54 3d 19 69 7c bc cd ac 9e 3d 5c 0f 82 bd
       0.05196964 -0.015405917 0.07747803 -0.06350586
0003f0 d2 99 02 be 05 13 fa bd 06 1b 29 bd 56 75 fd 3d
       -0.1275399 -0.12210659 -0.041285537 0.12375896

bias f4 [16]
000000 a4 99 99 be 5c f6 ab bc 74 d5 82 be d0 35 96 be
       -0.3000003 -0.020991497 -0.25553477 -0.2933793
000010 f3 5c ab be 8b 12 f7 3e a4 ef f6 bd 7a fd b2 bd
       -0.33469352 0.48256335 -0.120574266 -0.08739753
000020 15 96 2d bf d6 23 b2 3e 50 11 dc bd 31 23 5f 3e
       -0.6780713 0.34792966 -0.107454896 0.21790768
000030 f1 e4 c1 3e d2 5d 51 3f 3d 39 16 be a9 0b 64 3e
       0.3786998 0.81783783 -0.14670272 0.22270073

weight f4 [120, 400]
000000 7c 45 87 bd 62 08 14 3c db c0 03 bd b8 3f d1 bc
       -0.0660505 0.009035202 -0.032166343 -0.025543079
000010 e1 f6 c1 bc fd a5 2c bd 5c 26 cd 3b 13 30 28 3c
       -0.023677291 -0.042150486 0.0062606763 0.010265368
000020 c7 4f 05 ba bb 3d a6 bc 11 0b 85 bd 31 8f 78 bd
       -0.0005085435 -0.020293107 -0.064962514 -0.060683433
000030 4f 75 58 bb dc d2 6e bd 2c e3 68 3c 79 84 6e bd
       -0.0033028906 -0.05830656 0.014214318 -0.058231805
000040 fe fa 0b 3c 6d b2 d4 bc 50 d8 fb b8 19 8b a4 ba
       0.008543728 -0.025963986 -0.00012008904 -0.0012553661
000050 a1 ce 07 bd e4 fa 41 bd 77 f1 0b bd f5 4b 00 bd
       -0.03315604 -0.04735841 -0.034165826 -0.03132244
000060 6e c0 41 3d 99 76 63 3b 0e 59 e1 bc 5b 49 9f bd
       0.047302656 0.003470814 -0.027508285 -0.07777663
000070 74 c9 2c bd 0b b9 0a bd b0 fc 65 3b ba 30 09 3d
       -0.04218431 -0.033867877 0.003509324 0.033493735
000080 10 17 60 bd 5a a4 02 bd 12 7f 6c 3b 3d 9b 63 bd
       -0.054709494 -0.03189502 0.0036086482 -0.05556797
000090 cf 21 b6 bc 85 30 47 3c 1f 03 bd bc fd 84 09 3d
       -0.022232918 0.012157564 -0.023072777 0.033574093
0000a0 8b 35 96 3c 34 02 41 bb f4 51 4a 3c 4d 83 62 bd
       0.018336078 -0.0029450776 0.012348641 -0.055301
0000b0 06 3c d4 3c ae 47 9a 3c 82 b7 01 bd e5 40 b4 bc
       0.025907528 0.018833008 -0.031669147 -0.0220036
0000c0 c8 b7 bc bc ab d3 8c 3b 98 88 2e 3d 0b 5b 45 3b
       -0.023036852 0.0042976937 0.042610735 0.003011408
0000d0 56 19 84 bc b2 af c6 3c 5b 8a b3 3c b4 cf 98 bc
       -0.016125362 0.0242537 0.021916559 -0.018653728
0000e0 a5 a6 e5 3c b1 eb 4f 3c 73 e0 f3 3a fa a3 99 3d
       0.028033564 0.012690471 0.001860632 0.07501979
0000f0 b4 6d 19 bc e8 b9 03 bd 36 64 7b 3d ac a4 bf 3d
       -0.009364534 -0.032159716 0.061374865 0.093575805
000100 80 83 3b ba 4d 16 43 3d c1 e6 aa 3b eb 80 b6 bc
       -0.0007153079 0.04762869 0.0052154963 -0.02227827
000110 2d 77 cb 3d b0 b0 1f 3d be 72 6a 3d 9c c3 24 3c
       0.0993484 0.03898686 0.057238333 0.0100564025
000120 cc a8 6c 3d c3 bc f0 3b c7 20 b7 bc d3 3f 08 bd
       0.057778165 0.007346721 -0.022354497 -0.033263993
000130 14 31 11 3c 29 69 1e bd b7 07 cb bc 54 1a 75 3c
       0.008861799 -0.038674507 -0.024783952 0.01495989
000140 d0 57 f9 3c a6 42 38 3c a6 3b 57 3d 7b c3 30 3d
       0.03043738 0.011246359 0.05254712 0.043155175
000150 60 c6 8a 3c fc b0 88 3d 8a 18 07 bd e2 5e 53 3c
       0.016940296 0.06674382 -0.032982387 0.01290104
000160 94 58 ca bb d6 aa 3a ba f7 cb a1 b8 24 f3 20 bd
       -0.00617511 -0.00071207935 -7.71507e-05 -0.039294377
000170 c6 d3 df bc 0d 31 20 3d 0c 55 6f 3d 12 27 8c bc
       -0.027322661 0.03910928 0.058430716 -0.017108474
000180 ec 1d 6d 3c 0f 4a 93 3c e1 c2 1d 3d 81 19 74 3d
       0.014472466 0.01797965 0.03851593 0.059594635
000190 b0 a0 15 3d 39 de 56 3d 75 69 24 bd e5 a2 25 3d
       0.036530197 0.05245802 -0.040139634 0.04043855
0001a0 e5 11 b4 bc ee 38 1d 3d a4 6b b2 bc 8e 1c 3f 3d
       -0.021981189 0.03838437 -0.021779843 0.04665809
0001b0 0b 20 de 3c 12 da 23 bd ba 95 51 3d 86 c7 0d 3d
       0.027114889 -0.04000289 0.05116818 0.03461411
0001c0 89 3d f6 bc e3 c2 24 bd 14 97 25 bd 59 7a 18 bd
       -0.03005864 -0.04022492 -0.040427282 -0.037226055
0001d0 86 ac 1f 3d c0 cf 1f 3c 12 4d 21 3c 29 3a 68 bd
       0.03898289 0.009754121 0.009845035 -0.05669609
0001e0 63 7c 6d 3b 30 51 fa bc 95 7f 67 bc 0d 8a 92 3c
       0.003623747 -0.030556291 -0.014129539 0.017888093
0001f0 58 00 34 bb a1 34 8a 3c ea c7 95 3c 87 8b d7 bc
       -0.0027466025 0.016870799 0.018283803 -0.026311649
000200 27 ca 46 3d d9 5b 5a bd 07 9e 35 3c 13 5a 1a bd
       0.04853263 -0.05331025 0.01108504 -0.037683558
000210 34 af 0e 3c 12 ba b3 bc 06 7e 0d bc 37 36 f4 bc
       0.008708764 -0.021939311 -0.008636003 -0.029811008
000220 24 c6 39 bd 2b 58 8c bd c7 ee 52 3c 14 fb 38 bd
       -0.045354977 -0.06852754 0.012874312 -0.04516132
000230 61 94 52 bd c3 09 86 3c 38 ff ef bc 91 37 2a bd
       -0.051411036 0.016362077 -0.029296502 -0.0415569
000240 8d da 01 bd b6 ea d0 3c b0 a2 06 bd 60 0f 27 bd
       -0.031702567 0.025502544 -0.032869995 -0.040786147
000250 e2 12 4f bd a6 26 cd bc 36 ae 43 3c 78 69 e9 bb
       -0.050555117 -0.025042843 0.011943391 -0.0071231686
000260 0b de 0e bd b7 62 88 3c 16 78 0b bb 18 6b 93 3c
       -0.034879725 0.016648633 -0.0021281294 0.017995402
000270 51 77 a3 bb c3 a4 80 3c 65 80 f4 bc 63 b5 4f bd
       -0.004988589 0.015703565 -0.02984638 -0.050710093
000280 8c 20 23 bd aa 0d 9c bc b6 fe 15 bc 2a 6c 30 39
       -0.03982596 -0.019049484 -0.009154966 0.00016824962
000290 76 20 f9 3c 97 9b 69 bd c0 bb 28 3c a5 fc 04 bd
       0.030410986 -0.057033148 0.010298669 -0.032467503
0002a0 3d 4d 7f bd 18 0c 9e bb 6c 1e 3a bd aa 58 0c bd
       -0.06232952 -0.004823219 -0.04543917 -0.034264244
0002b0 0e e7 18 bd 07 2d ec bc c5 8d 87 3b b0 0f 26 3d
       -0.037329726 -0.028830064 0.0041367733 0.040542305
0002c0 11 02 aa bc 9b ae c8 3c 1b 49 d9 bc f4 37 c9 3c
       -0.020752938 0.02449732 -0.026524117 0.024562813
0002d0 24 e3 58 bd bf 0d 92 bc 89 44 64 bb 83 a3 4f bd
       -0.052950993 -0.01782882 -0.003483089 -0.050693046
0002e0 f5 44 00 bb cb b7 fd bc 2c 79 40 3d 98 d6 31 bd
       -0.0019572352 -0.030971428 0.04699056 -0.043417543
0002f0 63 6e e9 bc b7 c8 c0 bb 50 09 fe 3c bf c1 67 3d
       -0.02849502 -0.005883302 0.0310103 0.056581255
000300 ed d3 cb bc aa ba 2e 3d 1e 6c 2f 3d af a8 9e 3a
       -0.024881328 0.042658485 0.042827718 0.0012104715
000310 99 8b 80 ba 82 70 2d bd 66 df 2d 3c af 3c a6 bc
       -0.0009807228 -0.042343624 0.010612344 -0.020292608
000320 6a 7b 20 bd d1 e8 45 bd e3 0b 60 bc 83 f5 48 bd
       -0.039180197 -0.048317734 -0.013674709 -0.049062263
000330 db 9c 83 3c c2 b2 a8 3c cd c8 ce 3b cc 50 0b 3d
       0.016066005 0.02059305 0.0063105584 0.0340126
000340 0a 12 35 3d 86 03 14 3d 6f a9 5f 3b ee 69 61 3d
       0.044206657 0.036136173 0.003412809 0.055032663
000350 38 81 59 3d cd bc 7a 3d f8 ee 03 bd 75 82 c7 bc
       0.05310175 0.06121521 -0.03221032 -0.024354199
000360 0b 3f 1d 3c d8 14 8f bb f1 88 12 3c 98 8b 16 bc
       0.00959755 -0.0043664984 0.008943782 -0.009188555
000370 72 ef 3e bd a7 2c 7e ba ba b2 c7 bb ca af 84 bc
       -0.04661507 -0.0009695985 -0.006094304 -0.016197104
000380 4c 17 09 3c cf 8f 79 bd 07 92 27 bd 21 c6 02 bd
       0.008367371 -0.060928162 -0.040910747 -0.03192723
000390 3a 87 66 3c 61 21 a5 3b ce 9a 84 bd 6f df 31 bd
       0.014070326 0.0050393795 -0.06474839 -0.043425974
0003a0 32 f0 2d bc c4 4a fe bc ed b0 e0 3c 70 5b 64 bd
       -0.010616349 -0.03104151 0.027428115 -0.055751264
0003b0 25 f4 11 3c 5b 07 9d bc 4b cf 8c bd e1 9d 02 3a
       0.008908306 -0.019168546 -0.068754755 0.0004982632
0003c0 aa 3b 88 3c c7 d4 f7 bc a8 56 99 3a 80 fc e1 3c
       0.016630013 -0.030252827 0.0011698799 0.027586222
0003d0 c9 14 82 bc 52 19 a3 3c 55 cd 0c 3b 21 b3 db bc
       -0.015879052 0.019909535 0.0021484692 -0.026818814
0003e0 7a 60 4a 3c 99 93 50 bc e1 67 1d bc b5 b4 e6 3c
       0.012352103 -0.0127305025 -0.009607286 0.02816234
0003f0 2c 6f 35 bd 39 24 f0 3c fe b7 69 bc f4 f6 ba bc
       -0.044295475 0.029314147 -0.014265059 -0.022822835

bias f4 [120]
000000 c4 ff a1 3b d0 b2 d8 3d ac 2b aa bd b9 71 79 bd
       0.0049438197 0.10580981 -0.08309111 -0.06089947
000010 d5 80 72 3c 66 b5 1c 3e 6e 44 af bd f7 60 64 3e
       0.014801224 0.15303573 -0.08557974 0.22302614
000020 97 cb 5c be a6 00 e0 3c c9 50 18 bb 35 be 29 3d
       -0.21562038 0.02734406 -0.002324151 0.04144116
000030 80 6b d7 bd c9 79 82 bc 2f 30 b2 3d 36 51 7d 3d
       -0.10518551 -0.015927212 0.087005965 0.061845027
000040 53 b3 a4 3d 10 b8 1e 3d 21 03 9f 3b b0 cc 26 3d
       0.08042016 0.038749754 0.004852668 0.04072255
000050 09 14 cf 3d a9 62 49 3c bf b6 23 3d 95 08 5f bc
       0.10111243 0.012291589 0.039969202 -0.013612886
000060 74 e8 ed 3d 8e 99 07 bd e7 68 70 3c f7 f6 ad 3c
       0.116166025 -0.033105426 0.014673448 0.021235926
000070 5e 19 07 bd 2b 36 8a bd 07 f3 b0 bd f6 35 05 bd
       -0.032983176 -0.06748613 -0.08640104 -0.032522164
000080 72 d9 bf 3d 0e cd 58 bd 85 70 ae bc c1 e1 13 ba
       0.09367646 -0.05292993 -0.021293888 -0.0005641245
000090 43 02 66 bd a6 03 05 3d 5a 6d e6 3d e7 47 62 ba
       -0.0561545 0.032474183 0.11251326 -0.000863193
0000a0 38 36 23 bd 1e 01 fc bd e3 a1 f5 3c fe b0 3c 3c
       -0.03984663 -0.123049006 0.02998442 0.011516808
0000b0 c0 be b5 3c f9 c1 eb 3c 52 5b 51 3e 83 54 91 3b
       0.022185683 0.028779017 0.20444992 0.0044351234
0000c0 38 21 7f bd eb 13 1b bd 25 1e 60 bb 03 83 e5 3d
       -0.06228754 -0.037860792 -0.0034197655 0.11206629
0000d0 29 7b 1a bd be 06 6d 3c 8b ef 2f 3d da 1b 9a 3b
       -0.03771511 0.0144669395 0.042953055 0.004703027
0000e0 66 0f 66 bd ef 51 bf 3d 58 3c 2f 3e 96 c0 5b 3d
       -0.05616703 0.093417995 0.17112863 0.05365046
0000f0 1b 29 dd 3d 1e d4 3a ba 99 59 e3 3d 05 a7 dd 3a
       0.10798856 -0.0007126945 0.11101074 0.0016910738
000100 00 7b 2f 3c 01 44 00 3e c6 74 21 bd 68 67 8b bc
       0.010710478 0.12525941 -0.039418004 -0.017017081
000110 61 52 78 be 39 f4 aa bc 28 f2 89 3e 2d 90 f8 bc
       -0.24250175 -0.020868408 0.26942563 -0.030342186
000120 bd aa 57 3d bd 23 9b 3d 77 a6 c7 3c 9f b5 85 3e
       0.052653063 0.07575176 0.024371369 0.26115128
000130 37 29 71 bd 52 71 3b 3c 60 a6 fa 3b 8f c6 e7 3c
       -0.058877196 0.011440592 0.007649228 0.028292922
000140 5f 26 7d 3c f9 94 d5 3d 71 ea 16 3d f6 b6 9d bd
       0.015451043 0.10428805 0.036844674 -0.07700913
000150 74 50 ce 3c 45 dc f5 3c 39 31 7d 3c 8b 95 93 ba
       0.025184847 0.03001226 0.01545363 -0.0011259777
000160 d3 39 12 be dc d9 25 3e a8 51 a6 bb e8 48 20 3c
       -0.1427987 0.16196388 -0.005075652 0.009783007
000170 87 a5 31 3d 93 29 97 bd d1 ba 0a 3c 8d dc f4 3d
       0.04337075 -0.073809765 0.008467392 0.11956129
000180 35 81 6c 3d 1e 0b 3e 3d e4 41 0b 3c 84 08 68 bc
       0.05774041 0.04639732 0.008499596 -0.0141621865
000190 91 e1 a6 bb 9a f5 c7 bd 91 e5 b5 3b ad 82 e1 bc
       -0.0050928076 -0.09763642 0.005551048 -0.027528131
0001a0 26 80 7c 3d 0e 62 01 3d fa d8 d5 3c d9 8e e0 3d
       0.06164565 0.031587653 0.026104439 0.10964746
0001b0 1b 4f f3 bd ff 2a 24 3d 88 28 c8 3b 9b 73 1e 3d
       -0.118803225 0.040080067 0.0061083473 0.03868447
0001c0 44 86 26 3d fb 57 d8 ba ad e8 7f 3d d3 e1 9b bd
       0.04065539 -0.0016505712 0.062477756 -0.07611432
0001d0 df 25 62 3d 13 9f 3b 3e d8 49 ab bc 71 c2 a0 3c
       0.055211898 0.18322401 -0.020909235 0.019623967

weight f4 [84, 120]
000000 94 5c 4a bc 51 5f e7 bb c8 8f d1 bd 6e 3f 17 bd
       -0.012351174 -0.007060923 -0.10232502 -0.036925726
000010 8c 92 4d 3d fa 2d ff 3c 02 9c 89 3d c9 8b 62 3a
       0.050188586 0.031149853 0.06719209 0.00086420454
000020 55 db bc 3d 0a be 86 3b 77 6d 5f 3d dd cc a1 bd
       0.09221522 0.00411201 0.054547753 -0.07900403
000030 35 87 10 3d e5 57 d9 3c 92 33 17 3d 5f 5a 36 bd
       0.035285193 0.02653117 0.036914416 -0.04451978
000040 0e a0 33 bd 8c 76 0f 3c 32 6b 5b 3d e1 5a 3d bd
       -0.043853812 0.008756291 0.053569026 -0.046229247
000050 c0 85 da 3c f3 76 75 bd 2d cc bc bd ce ff aa 3d
       0.026675105 -0.059927892 -0.09218631 0.08349572
000060 a1 be ed bc 7a 26 a8 bd b8 66 b9 3d bc 1b af 3d
       -0.029021563 -0.08210464 0.09052795 0.08550212
000070 bc 25 b4 3d 07 b9 a3 bc 2a bb 28 bd 8f 5d b2 bd
       0.0879626 -0.019985689 -0.04119412 -0.08709251
000080 50 7e 22 3d 9a 7c bd bd ef 54 bd 3c c2 be 94 bd
       0.039671242 -0.092522815 0.023111789 -0.07262947
000090 d6 fa 3b 3c 7a fc 22 bc 3f f8 08 3e 55 97 05 bd
       0.011473378 -0.00994789 0.13375948 -0.032615025
0000a0 07 4f 59 bc 58 cf b0 bb 82 8e 29 3d 7b 93 ff bc
       -0.0132634705 -0.005395811 0.04139567 -0.031198254
0000b0 8d a5 22 3b 1d af 12 3c e4 f5 ca bd e0 0b 89 bd
       0.0024817914 0.008952883 -0.09910181 -0.06691718
0000c0 4e e2 9f 3d db fd 9e 3d 1f 60 16 bd 3b ab 9b 3d
       0.07806836 0.07763263 -0.036712762 0.07601019
0000d0 f9 7c f3 bc 0b 4d ce 3d 08 ed e2 bc cf e1 ce 3d
       -0.029722678 0.100732885 -0.027700916 0.10101663
0000e0 d6 06 1d bd 87 38 bb bd ac 11 8b bc 50 03 8b bd
       -0.038336597 -0.09141641 -0.0169762 -0.06787741
0000f0 1f e8 39 bc c6 a3 8c bc d2 5a ac 3d fa ab 9f bd
       -0.011346846 -0.017167937 0.0841576 -0.07796474
000100 90 6b 22 3d 37 72 c0 3d a6 5c 5e 3d f2 4e 21 bc
       0.03965336 0.09396785 0.054287575 -0.009845482
000110 60 7e 9c bd 12 9c 48 bd 3c 48 0c 3c 51 78 7c 3b
       -0.076412916 -0.048976965 0.008562144 0.0038523863
000120 80 75 3f bd d3 d0 aa bd ae 5e 06 3d f4 3c 90 3d
       -0.046742916 -0.08340611 0.032805137 0.07042876
000130 1a 4c d3 3a 8c e8 13 3d 33 f4 38 bd 4a 0f ab 3c
       0.0016120702 0.036110446 -0.04515476 0.020881314
000140 32 ad 2f bd fe 4a 77 3b c6 75 b3 3d af 13 b6 3c
       -0.04288978 0.0037733908 0.08762698 0.022226183
000150 13 11 7c bc c2 9c 34 bd 8a 99 a2 bd 86 93 b0 3d
       -0.01538493 -0.04409481 -0.079394415 0.08621888
000160 bf 5e 95 bc 1a 3d 12 3d 5b 5f d8 3c af 7d dc 3d
       -0.018233655 0.035702802 0.026412657 0.1076616
000170 6c 7f 35 3d 95 b6 b1 bd 36 a8 b1 bd 45 cb 73 bd
       0.044310972 -0.08677403 -0.08674662 -0.059520025
000180 7e 97 77 3c e6 4e 05 3d f9 52 1a bd 40 db e4 bc
       0.015111802 0.032545947 -0.037676785 -0.027936578
000190 52 0c 80 3d 49 11 92 3c df 3f 5e 3d 4f b5 b2 3d
       0.0625235 0.017830508 0.05426013 0.08725988
0001a0 5b 79 83 bd c8 ea 51 3c 26 57 9c bd 59 9d bc bc
       -0.06419631 0.012812324 -0.0763381 -0.023024248
0001b0 c4 f3 15 3d eb 5c 4b bd c4 e4 75 3d ef 18 49 3d
       0.036609426 -0.04964916 0.06003262 0.049096044
0001c0 0a c2 42 bd d3 07 44 bd 71 4d 95 bc e0 53 35 bb
       -0.04754833 -0.047859024 -0.018225404 -0.0027668402
0001d0 d3 6c d8 ba b2 eb 9e bd 41 af ab 3d 99 4c 4b bd
       -0.0016511924 -0.07759799 0.083830364 -0.049633596
0001e0 52 6f dc bd 9d 37 4d bd 52 bb 2b 3d 28 07 d8 bb
       -0.1076342 -0.050101865 0.04192669 -0.00659265
0001f0 9d 80 eb 3c 9f 2d b5 bd 06 d2 ca 3d 35 8c c6 3d
       0.028747851 -0.08846592 0.0990334 0.09694711
000200 7a 1a 54 bd 6f 1f 98 b9 a2 3e ff 3d 44 62 be 3d
       -0.051783063 -0.0002901512 0.12463118 0.092960864
000210 f5 ee a5 bd 05 17 35 bd e2 02 69 bd 02 eb 5c bd
       -0.08102218 -0.044211406 -0.056887515 -0.05393506
000220 f6 b3 d7 bd 08 00 fc bd 96 19 a5 3c 96 a8 52 3c
       -0.10532372 -0.123046935 0.020153802 0.012857577
000230 28 b4 1e bd f4 58 01 bd 9b 15 9d bc d1 a5 aa bb
       -0.03874603 -0.031578973 -0.019175341 -0.005207755
000240 34 78 ca bd ff da ef 3d e1 e9 ab bc db 36 7b bc
       -0.09886208 0.11711692 -0.020985546 -0.015332903
000250 a8 10 71 bd 51 35 fd 39 9c 1c 39 bd fb c3 8f 3d
       -0.058853775 0.00048295644 -0.0451933 0.07019802
000260 9b a2 3e 3d 16 1a aa bd eb d4 e2 bd b6 a0 95 bd
       0.04654179 -0.08305757 -0.11075767 -0.07306044
000270 65 c0 e0 bd c8 7c 9b 3d bc 79 91 3c a6 45 b0 3d
       -0.10974196 0.075921595 0.017758243 0.086070344
000280 8c 2b 8e 3d 38 ae 3d 3c ac e5 0f 3d 4e c5 5a bd
       0.069419 0.0115771815 0.03513114 -0.05341082
000290 81 0d 66 bd 66 f5 18 be 39 8a c5 3d de b9 7b bd
       -0.056165222 -0.14937362 0.096455045 -0.061456554
0002a0 85 13 84 bd 85 c4 cb 3c 5a 0f c9 bd 27 53 be bc
       -0.064490356 0.024873981 -0.09817381 -0.02323301
0002b0 82 e9 67 3b df 78 78 3d e3 55 a2 bd 49 2d 4d bd
       0.0035386984 0.060662147 -0.07926538 -0.050092015
0002c0 73 d3 ba bc 3a 5f b8 3d 82 74 1e 3e e3 d3 a8 bd
       -0.022805905 0.09002538 0.15474132 -0.08243539
0002d0 b9 20 79 3d b3 96 99 3c 8e 40 89 3d 7b 33 17 be
       0.060822222 0.018748617 0.06701766 -0.14765732
0002e0 87 99 f0 3d 23 ec f7 3d f0 5e c3 bd 12 4c 25 bd
       0.11748033 0.121055864 -0.09539592 -0.04035575
0002f0 7c 92 14 be ff e7 a7 bd 5f 09 ec bc 50 12 e5 bd
       -0.14509004 -0.081985466 -0.028813062 -0.111851335
000300 b3 b5 e9 bc 60 07 c6 3d 38 ea ff bc c3 b1 c3 bd
       -0.028529024 0.096693754 -0.031239614 -0.0955539
000310 3f 68 80 bc de 00 ae 3d a6 79 77 3c 8a 34 1e bc
       -0.015674708 0.08496259 0.015104687 -0.009656081
000320 87 f9 0a 3d 41 88 a0 bd 0c 9e c5 bd e7 13 91 bd
       0.033929374 -0.07838488 -0.09649286 -0.07083874
000330 4a 89 2d 3c 3c 1c bc bd 18 2b d5 3d 8b 23 61 bd
       0.010591814 -0.09185073 0.1040861 -0.054965537
000340 48 0a e1 3d 52 ad 07 bd fd 77 9f bd 23 f6 91 bd
       0.10988289 -0.033124276 -0.07786558 -0.07127025
000350 9c be b0 3d 43 8a 8a bd 24 37 d5 3c 97 a8 a7 bd
       0.08630106 -0.067646526 0.02602727 -0.08186453
000360 6c 9f a7 3d 4b b9 11 bd f3 d4 8d 3d 14 5b 71 bd
       0.08184704 -0.0355771 0.069253825 -0.05892475
000370 ef 81 18 ba 7d 46 90 3c dc 51 e4 3d bb b2 2c 3d
       -0.00058177015 0.017611736 0.11148426 0.04216264
000380 60 aa a9 bd 98 ba 98 3d 8e 31 ab bd f0 4c 18 bd
       -0.082844496 0.07457465 -0.08359061 -0.03718275
000390 95 70 cb 3c f6 f2 62 bd 84 c7 91 bd b2 37 53 3d
       0.024833957 -0.055407487 -0.07118133 0.051566787
0003a0 bb c4 bf bd c5 66 e0 bd e2 dd a9 3c d1 2c 64 bc
       -0.09363695 -0.10957102 0.020735685 -0.013926701
0003b0 04 1d de 3d 03 1f 4f bd 08 ca 12 bd cc e6 bb 3b
       0.10845378 -0.050566684 -0.035837203 0.0057343002
0003c0 6e 0c 69 bd de a4 3c 3c 90 ea d6 3d 25 7b 39 bc
       -0.05689662 0.011513917 0.10493958 -0.011320864
0003d0 c9 50 01 bd 67 e9 04 bd 24 03 28 3c 54 77 1d 3d
       -0.031571183 -0.032449152 0.010254655 0.03844388
0003e0 a8 7c 90 3d 6a 02 92 3d 59 6a 73 3c cb b5 25 bd
       0.07055026 0.07129367 0.014856898 -0.040456574
0003f0 8f e1 34 3c c4 9b fd 3c e9 19 db bd e2 ea 08 bd
       0.0110401055 0.030958064 -0.10698301 -0.033427127

bias f4 [84]
000000 81 cb 93 bd a7 02 f6 3c 61 b9 b3 bd 30 96 27 3d
       -0.0721655 0.030030562 -0.087755926 0.040914714
000010 01 2c 60 3b 46 ae ad 3d f4 cf 33 3e 7e 1f 39 3e
       0.0034205916 0.08480506 0.17559797 0.1807842
000020 13 21 32 3d 05 cb 6a bc 98 cf 5b bd a9 7f 7f 3e
       0.043488573 -0.01433063 -0.053664774 0.24951042
000030 bb 4d ec bc 86 ec ff bc dd 29 84 3d b5 e9 5f bd
       -0.028845659 -0.031240713 0.06453297 -0.05466624
000040 97 bf 9e 3e 0b 7a ca 3d 6d 6b 3a bc 68 1c 9d 3d
       0.31005546 0.09886559 -0.011378151 0.07671434
000050 2d a3 11 3e 1a 02 89 3e a4 fc 08 3e f8 f0 72 3d
       0.14222403 0.26759416 0.13377625 0.059311837
000060 97 29 1f 3e 5b 6b 8a 3e b2 c4 78 3e c1 2c ae bd
       0.15543209 0.2703503 0.24293783 -0.0850463
000070 fa 71 ac 3c af 86 41 bd 68 c7 75 bd 58 38 7a 3d
       0.021050442 -0.047247585 -0.06000462 0.06108889
000080 40 8f 2d be 1b ed e8 3c 79 31 a5 bd f0 1e fb bc
       -0.16949177 0.028433373 -0.08066077 -0.0306544
000090 ac 8a b5 3d 52 45 20 be cc a4 b2 3c 10 0c 7f bc
       0.0886434 -0.15651444 0.021807097 -0.015566841
0000a0 39 54 b2 3d b5 23 a2 3e 90 b6 f5 3d a5 12 4b bc
       0.087074704 0.31667867 0.11997712 -0.012394582
0000b0 7e ac a9 3e 02 55 f4 3c 4a 57 bd bc fb e5 b4 3e
       0.33139414 0.029825691 -0.023112912 0.3533171
0000c0 16 13 5c 3e 1e 0e 58 be 83 31 ab bd 61 85 b4 3d
       0.21491656 -0.21099135 -0.08359053 0.088145025
0000d0 f1 b7 29 3e 3b 19 e6 bd d0 62 25 3e 75 f5 2c be
       0.16574074 -0.11235281 0.16150975 -0.1689051
0000e0 9a ad 9f bc 3d b9 02 be ed 62 26 bc a8 1f 22 3d
       -0.01949196 -0.12765975 -0.010155422 0.03958097
0000f0 f3 5d 18 3e 05 94 0d bd f6 4a ed 3d 63 5d 55 bd
       0.14879589 -0.03456499 0.11586563 -0.052091014
000100 7f 57 90 3e 77 d8 5f 3e fb 11 20 3e c8 83 28 bd
       0.28191754 0.21859919 0.15631859 -0.0411413
000110 24 90 d2 bc 21 c8 53 3e 2e a6 18 bd e3 fd c1 3e
       -0.025703497 0.20681812 -0.037267856 0.37889013
000120 29 b9 68 3d 6a bb 04 bd e4 87 df 3d 31 b2 89 3e
       0.056817207 -0.032405294 0.10914591 0.26893762
000130 4d d3 93 bd f1 16 5c bb 5e 08 7f 3d a0 89 55 bd
       -0.07218037 -0.003358301 0.06226384 -0.052133203
000140 22 54 4e 3e 92 14 39 3e 12 04 74 bd 11 52 9f bb
       0.20149282 0.18074253 -0.059574194 -0.004862078

weight f4 [10, 84]
000000 5c 21 10 3e f8 4e b6 bd 83 bd b7 3d 6e 4f ad bd
       0.14075226 -0.08901781 0.08971693 -0.08462416
000010 da 95 10 3e 65 48 ba bd 22 5a 84 be 38 63 fe 3d
       0.14119664 -0.090958394 -0.25850016 0.12421268
000020 fa ee d7 bc 55 35 7b bd fb a2 a0 bd 4f 72 01 3e
       -0.02635907 -0.06133016 -0.07843586 0.12641262
000030 ba 51 a6 bd f7 69 a9 3d a5 96 b4 bd 07 bc c7 3d
       -0.08121057 0.08272164 -0.08817796 0.0975266
000040 f6 ff 88 be 19 8b a3 3d 8b 34 a0 3d eb 50 93 bc
       -0.26757783 0.07985515 0.07822522 -0.01798292
000050 77 d9 91 3e 58 79 c6 3d a2 fa 5c bd d5 00 a4 bd
       0.28486225 0.09691113 -0.05394996 -0.08007971
000060 c7 15 a5 bd 5b 99 47 be 67 29 3b be 17 b1 d1 3d
       -0.08060794 -0.19492094 -0.18277512 0.10238855
000070 48 73 17 3e 70 b9 00 3e d7 85 a0 bd 61 78 b3 be
       0.1479007 0.12570739 -0.07838028 -0.3505278
000080 99 4f 2b be 62 f8 b2 3d d6 e3 b2 bc c1 3e 6b bc
       -0.16729583 0.087387815 -0.021837156 -0.014358223
000090 46 14 18 3c 76 f6 2c 3d f6 89 65 be 04 27 a8 3d
       0.009282177 0.04222723 -0.22415909 0.08210567
0000a0 14 23 0b bd a0 01 8c 3e 8d 76 e4 bd fa 9f 90 bd
       -0.033969 0.2734499 -0.11155424 -0.07061763
0000b0 fa 1d 26 be 6b 4c 96 3d 9b 4f 77 3c 60 52 14 be
       -0.16222373 0.07338794 0.015094663 -0.14484549
0000c0 ad 6d 9e 3e 7e ef 1b 3e ad 1f c3 3d 94 8f 9b bd
       0.3094305 0.15228078 0.09527526 -0.07595745
0000d0 b4 c3 5c ba db d1 3e 3e fd ab ad 3c b1 b4 ae bc
       -0.0008421496 0.18634741 0.021200174 -0.021326395
0000e0 86 4c 3b bd df 6e bf 3d 75 40 84 3d 36 12 d8 bd
       -0.045727275 0.09347319 0.06457607 -0.105503485
0000f0 5d f0 a9 bc b6 7d 8a bd f9 5d 6e be e5 5b f4 3c
       -0.020744497 -0.06762259 -0.23278035 0.029828975
000100 04 9e 8a 3d 14 14 69 3d 8d 1a 82 3d ac 66 f3 3d
       0.0676842 0.056903914 0.063527204 0.118848175
000110 7a d4 53 3d 05 96 89 bc a8 df 1c 3e e8 f1 0e 3d
       0.051716305 -0.016795168 0.15319693 0.03489867
000120 20 b7 5a 3e 6b f0 64 bc 54 dc e0 3c a3 43 c0 3d
       0.21358919 -0.013973336 0.02744881 0.09387901
000130 c9 4e 8f bc 7c b9 34 be 5e 85 3e 3e 33 be b5 3d
       -0.017493622 -0.17648882 0.18605563 0.08874168
000140 3e 69 96 3d 26 cb b4 bc 08 3d 6e 3d 86 81 91 3e
       0.07344292 -0.022069525 0.058163673 0.2841913
000150 be 69 9f 3c 97 c6 1c bc 0e 18 99 bd 69 87 17 3d
       0.019459601 -0.009568832 -0.07475291 0.03699437
000160 27 21 a5 3d 63 3e f4 3d e7 27 d1 3d 05 8c 22 be
       0.08062964 0.11925962 0.10212689 -0.15873726
000170 99 5e c3 bb d0 c0 f6 3b d7 2e 4f bd ea 0a 92 be
       -0.0059622047 0.0075303093 -0.05058178 -0.28523952
000180 b7 c5 59 3e ce a1 c5 3d 26 29 ca bd 46 31 7a 3e
       0.21266828 0.096500024 -0.0987113 0.24432859
000190 cc 35 1c be 67 ae 05 bd c3 b8 23 bd b2 d4 8e bd
       -0.15254897 -0.032637026 -0.039971124 -0.06974162
0001a0 aa 86 e7 3e aa 94 13 be 69 59 03 be 55 ad e8 bd
       0.45219928 -0.1441218 -0.12827076 -0.113611855
0001b0 62 48 38 be ff cc 04 be 9b a0 75 be 2e d2 c6 bc
       -0.17996362 -0.12968825 -0.23987047 -0.024270143
0001c0 90 d6 95 bd 5d 08 02 3c 57 42 01 bd 90 c9 c3 bd
       -0.07316315 0.007936564 -0.031557407 -0.09559929
0001d0 0c 29 31 3e 9b 17 d5 3d 22 c9 31 3e e5 d4 16 be
       0.17300814 0.10404893 0.17361882 -0.1472965
0001e0 48 4e be bc ca 75 c9 3d 73 c6 e4 bd 5d df c3 3d
       -0.023230687 0.098369196 -0.11170664 0.095640875
0001f0 ba 8f 84 3d 33 53 f3 bc 7c ca d6 bd 3f ac 61 3e
       0.06472726 -0.029702758 -0.104878396 0.22038363
000200 c4 ca 73 be c3 80 03 3d d4 d3 a8 bd 95 0b 91 be
       -0.23807818 0.03210522 -0.08243528 -0.2832915
000210 ff b4 83 be 28 5a be bd 49 c8 50 bb ba 03 49 bd
       -0.25724027 -0.0929454 -0.003185766 -0.04907582
000220 9c 10 b4 bd 9d ce 78 3e df 29 dc bd 74 d8 56 3e
       -0.087922305 0.24297567 -0.10750174 0.20981008
000230 79 cf a2 bd cf 70 42 3e 7b e9 84 bd 65 90 fa ba
       -0.079497285 0.18988346 -0.06489845 -0.0019116519
000240 8a 54 72 3b 03 59 cf bc 45 a6 02 be f2 ce 68 bd
       0.0036976659 -0.025310999 -0.1275874 -0.056837983
000250 86 db 87 be 0c 70 ab bd 0b 30 b6 3e a3 93 06 be
       -0.2653467 -0.083709806 0.3558353 -0.13142256
000260 7f ea 24 3d 12 b2 5a be f5 37 b4 3d 4d 33 73 be
       0.040262695 -0.21356991 0.087997355 -0.23750038
000270 16 66 90 3e 31 37 af 3d b6 ee 19 3d 8d d0 97 be
       0.28202885 0.08555449 0.037581168 -0.296513
000280 d1 b1 5f bd 50 33 1f 3e 70 64 93 bd e4 ce a6 bd
       -0.05461294 0.15546918 -0.07196891 -0.0814493
000290 cc a0 19 bd f1 41 17 bb 7d 9f ab 3c a7 22 23 be
       -0.037506863 -0.0023080076 0.020950073 -0.15931188
0002a0 17 54 0f 3e a3 38 1c 3e d8 79 e2 3d 80 10 66 bc
       0.13996921 0.1525598 0.11058396 -0.01404202
0002b0 90 fb b0 bd ec 54 f9 bd ad 82 0d 3d 54 b4 58 3e
       -0.08641732 -0.12174401 0.03454845 0.2116254
0002c0 0a 06 bd bd 19 3b ba 3d 1b 90 24 be 95 a2 04 3e
       -0.092296675 0.09093303 -0.16070597 0.12952645
0002d0 ac 0b 89 3b 03 53 fe 3c f1 c1 d1 3c b2 ae 13 bd
       0.0041822996 0.031045442 0.025605174 -0.036055274
0002e0 03 c6 bb 3d 5c 39 05 3e e5 94 1b bd 96 e5 2f 3c
       0.09168627 0.13010162 -0.037983794 0.01073589
0002f0 cb f9 7d bd f2 21 10 be ad 5b 82 3d 9d 6d bd 3d
       -0.0620058 -0.14075449 0.06365142 0.09249423
000300 57 12 b5 3d 41 d1 30 3e 2e 84 59 3e 9e ec 3c bd
       0.08841389 0.17267324 0.21241829 -0.046124093
000310 88 94 ab 3d 4e 75 25 3d 98 db c7 bd 2e 1b b1 3d
       0.083779395 0.040395074 -0.09758681 0.08647762
000320 da c4 68 3d 5c f4 6c 3d 27 ff 15 be ea eb 93 bd
       0.056828357 0.057850227 -0.14648114 -0.072227314
000330 88 4d ba bc ba 3d bb 3d e8 57 98 3d af 43 35 bd
       -0.022742048 0.09142633 0.07438642 -0.044254
000340 46 27 2a 3e be 14 91 3e d0 9e ec 3d 86 07 05 be
       0.16616544 0.28336138 0.115537286 -0.12991151
000350 8f 69 76 3e 17 69 d9 bd 34 06 b8 bd 23 4d 87 3d
       0.24063705 -0.106157474 -0.08985558 0.066065095
000360 2e 02 2f bd 0c fc e2 bd 19 9a 5e bd 30 d3 e0 bc
       -0.042726688 -0.110832304 -0.054346178 -0.027444452
000370 38 64 c2 bd 16 ee a8 3d f2 b1 df 3d 6e b6 de 3d
       -0.094917715 0.08248536 0.10922612 0.108746395
000380 db cd d4 3a 91 52 53 be 25 e5 83 3c 95 d1 6f 3c
       0.0016235666 -0.20636965 0.016100476 0.014637371
000390 fa af 2e 3e 36 f8 5f 3d bb 9e dc 3d d7 63 f1 bc
       0.17059317 0.05468007 0.10772463 -0.029466553
0003a0 57 0e a7 3e 41 56 14 be 22 30 29 be 46 a5 21 3e
       0.32628128 -0.14486028 -0.16522267 0.15785703
0003b0 18 72 8c bd c4 03 de bb 73 fa eb bd 0e 99 59 3e
       -0.06857699 -0.0067753512 -0.11522379 0.21249792
0003c0 ce 63 0f be f8 f1 0d 3d 28 63 f2 3c a2 7b b1 3e
       -0.14002916 0.034654588 0.029588297 0.34664637
0003d0 ab 72 2f bd f9 62 21 bd 25 d7 53 3b c5 df e6 3a
       -0.042833965 -0.03940103 0.003232428 0.0017614296
0003e0 62 a3 07 bd 3c 16 64 3d 30 4b d1 3b 21 fd 0c 3d
       -0.0331148 0.055685267 0.006387137 0.03442109
0003f0 61 ae b7 3d 01 24 a5 bc 37 b2 a0 bd de 9d ac 3d
       0.08968807 -0.02015877 -0.07846492 0.08428548

bias f4 [10]
000000 a7 11 fd bc 4a e3 18 bf 9d aa 01 3e 20 46 c6 3e
       -0.030892206 -0.59721816 0.1266274 0.38725376
000010 02 e3 7a 3e cd b1 c2 bd 1d cc 78 3d 8e 1e db be
       0.24500659 -0.09506569 0.060741533 -0.4279675
000020 a0 05 33 3f 31 1b b6 be
       0.6993046 -0.3556762
