models/v1.pt (torch_old, 265876 bytes, 10 tensors)

weight f4 [6, 3, 5, 5]
0.53046745 0.42507973 0.2079625 0.09324231 0.08604209 0.2809539 0.14988464 0.17360301
0.048757255 0.06711033 0.2323433 -0.115702 -0.08430232 -0.15282643 -0.05991916 -0.109293394
-0.35314497 -0.18826702 -0.14064142 -0.24339597 -0.19780256 -0.33158043 -0.14113486 -0.24333248
-0.18355635 0.10985594 -0.302378 -0.29196215 -0.4223858 -0.35183015 0.17133056 -0.42152753
-0.3791179 -0.37406492 -0.09103785 0.105620064 -0.3077442 -0.24203563 -0.08282672 -0.19633648
-0.0047333525 -0.27196342 -0.036596134 -0.04992931 0.11348332 0.050114345 -0.072617665 0.14581539
0.225878 0.14833696 0.07408018 -0.04690066 -0.27740774 -0.15217671 -0.119575225 0.1904028
-0.14338283 -0.19603536 -0.04583061 0.028401567 0.13810462 -0.15952413 -0.15548421 0.008627041
0.035927575 0.10468792 -0.059552398 0.030779123 0.25024894 0.2378048 0.13108659 0.14138694
0.36461964 0.36735252 0.22649628 -0.032813653 0.072985485 0.08906626 -0.23388956 0.031444646
0.2170037 0.054078262 -0.53326166 -0.24782704 0.2773588 0.09193179 -0.6047361 -0.51211506
0.46118745 0.22607478 -0.1745935 -0.40123686 0.37885624 0.6853467 -0.01590413 -0.022287609
0.095395915 0.3971823 -0.014867452 -0.21048056 0.08861117 0.16121489 0.15265146 -0.14849131
-0.064803414 0.31669733 0.091268174 -0.5082469 -0.17138493 0.21828581 0.19527805 -0.5441379
-0.37374887 0.49800864 0.19698761 -0.21307816 -0.39790353 0.4851181 0.53404933 -0.18532841
-0.045774303 0.044191737 0.25072715 -0.19142722 -0.19790228 -0.12383211 0.13526607 -0.098891445
-0.15292558 -0.013787077 0.19146991 0.005818507 -0.37295893 -0.17541017 0.35581753 0.10226631
-0.5778439 -0.50643975 0.5368814 0.15883115 -0.26488242 -0.308366 0.3482359 0.56409156
-0.11000393 -0.1278776 0.07422378 0.40974352 0.00016936919 -0.12972559 0.033140365 0.12591936
0.39634264 -0.014709812 -0.1218571 -0.29408613 -0.6268591 -0.5786486 -0.21060205 -0.19573985
-0.32079932 -0.5486554 -0.70593286 -0.5473787 -0.18904702 0.5282271 0.5600711 0.5185036
0.29063502 0.25419733 0.09297774 0.3562243 0.41606814 0.35169274 0.27983332 0.21151023
0.30569458 0.66588 0.26010382 0.13860387 0.07239188 -0.2526663 -0.054708622 -0.101223536
0.09403008 -0.24841711 -0.35660163 -0.5536821 -0.31175077 -0.17874321 0.23016593 0.49534908
0.38904563 0.31752184 0.04532203 -0.2810891 -0.08661886 -0.0979887 -0.13067713 -0.275456
0.07179023 0.057134014 0.49679896 0.19630235 0.11486924 0.07834076 -0.10328815 0.07641042
-0.024336182 0.2689675 -0.18215118 -0.25826025 -0.5366083 -0.21863312 -0.050626367 0.15675595
0.36428666 0.22842866 0.18142058 0.08719555 -0.2577656 -0.2431185 -0.09227791 -0.13552365
-0.33704078 -0.036869396 -0.15532777 -0.11611338 -0.111510545 0.06544639 -0.21385331 -0.2813732
-0.25900334 -0.16073996 -0.09952477 -0.26468658 -0.28192377 -0.22857746 -0.16390571 -0.099237174
-0.091522425 -0.19009072 -0.3076596 -0.11800419 0.0009977513 -0.058595434 -0.06845304 -0.088321805
-0.007878126 0.030868951 -0.040444735 -0.06696923 -0.09827442 -0.0069715804 -0.076035686 0.067672454
00000000: b7cc 073f 0da4 d93e 1ff4 543e d3f5 be3d
00000010: d636 b03d 31d9 8f3e 5c7b 193e fdc4 313e
00000020: b0b5 473d 2471 893d 67eb 6d3e 2cf5 ecbd
00000030: b2a6 acbd 887e 1cbe cb6d 75bd 37d5 dfbd
00000040: 6bcf b4be 12c9 40be 4e04 10be cb3c 79be
00000050: c18c 4abe e9c4 a9be a885 10be 262c 79be
00000060: 32f6 3bbe 27fc e03d 4ad1 9abe 107c 95be
00000070: f442 d8be 1523 b4be 4771 2f3e 75d2 d7be
00000080: be1b c2be 7085 bfbe 0d72 babd 554f d83d
00000090: a690 9dbe 30d8 77be 0ea1 a9bd 6e0c 49be
000000a0: 3d1a 9bbb ca3e 8bbe d4e5 15bd ad82 4cbd
000000b0: f169 e83d b344 4d3d 92b8 94bd a150 153e
000000c0: 904c 673e a5e5 173e 59b7 973d e81a 40bd
000000d0: 6308 8ebe 36d4 1bbe dbe3 f4bd f4f8 423e
000000e0: f3d2 12be 7ebd 48be e1b8 3bbd 67aa e83c
000000f0: 4c6b 0d3e 4b5a 23be 4137 1fbe 6f58 0d3c
00000100: cb28 133d 9f66 d63d 37ed 73bd 8024 fc3c
00000110: a120 803e 1a83 733e 903b 063e bdc7 103e
00000120: 6daf ba3e a115 bc3e a4ee 673e 9c67 06bd
00000130: 6a79 953d 5f68 b63d bf80 6fbe 1acc 003d
00000140: 3836 5e3e 2b81 5d3d d683 08bf 5fc6 7dbe
00000150: f901 8e3e bc46 bc3d fccf 1abf f919 03bf
00000160: c320 ec3e 2680 673e a3c8 32be eb6e cdbe
00000170: 72f9 c13e e272 2f3f 6149 82bc 8194 b6bc
00000180: ef5e c33d 7a5b cb3e 9d96 73bc 3788 57be
00000190: c679 b53d 8415 253e aa50 1c3e 1b0e 18be
000001a0: a7b7 84bd 2726 a23e cfea ba3d 781c 02bf
000001b0: 887f 2fbe 5186 5f3e f8f6 473e 9f4c 0bbf
000001c0: 035c bfbe fdfa fe3e 1fb7 493e 2931 5abe
000001d0: 03ba cbbe 6661 f83e 75b7 083f bbc6 3dbe
000001e0: d67d 3bbd 6502 353d 4f5f 803e 7f05 44be
000001f0: e5a6 4abe b09b fdbd 3083 0a3e 9987 cabd
00000200: 8698 1cbe 31e3 61bc b010 443e 2da9 be3b
00000210: 79f4 bebe b99e 33be b72d b63e 0071 d13d
00000220: 94ed 13bf 09a6 01bf 0f71 093f a2a4 223e
00000230: ab9e 87be 26e2 9dbe fa4b b23e 4e68 103f
00000240: be49 e1bd 58f2 02be a302 983d e7c9 d13e
00000250: b298 3139 c9d6 04be 31be 073d 01f1 003e
00000260: 6ced ca3e 6c01 71bc 3790 f9bd 7592 96be
00000270: d779 20bf 5122 14bf 10a8 57be 0770 48be
00000280: cf3f a4be ae74 0cbf 04b8 34bf 0321 0cbf
00000290: 8b95 41be e439 073f d260 0f3f a7bc 043f
000002a0: 1dce 943e 2726 823e 1d6b be3d 0863 b63e
000002b0: e206 d53e 1211 b43e 5046 8f3e 2396 583e
000002c0: 0084 9c3e 1d77 2a3f 542c 853e 2cee 0d3e
000002d0: 3242 943d 7a5d 81be 2616 60bd 494e cfbd
000002e0: d892 c03d 0e61 7ebe 7d94 b6be 1cbe 0dbf
000002f0: cc9d 9fbe 7608 37be 9eb0 6b3e 659e fd3e
00000300: fd30 c73e 3992 a23e 98a3 393d e9ea 8fbe
00000310: 3b65 b1bd 4dae c8bd 3ad0 05be 9208 8dbe
00000320: c206 933d 5b05 6a3d 6f5c fe3e 7c03 493e
00000330: 9040 eb3d 1f71 a03d bd88 d3bd 117d 9c3d
00000340: ac5c c7bc 1cb6 893e d785 3abe b03a 84be
00000350: 295f 09bf 5ce1 5fbe 985d 4fbd a284 203e
00000360: c883 ba3e 34e9 693e 51c6 393e 9593 b23d
00000370: daf9 83be 0ef4 78be 33fc bcbd b6c6 0abe
00000380: 9c90 acbe 5d04 17bd 3e0e 1fbe dacc edbd
00000390: a45f e4bd c208 863d 5dfc 5abe 2610 90be
000003a0: 169c 84be 0499 24be a5d3 cbbd 0085 87be
000003b0: 5058 90be 3610 6abe e6d6 27be dc3c cbbd
000003c0: 1c70 bbbd 24a7 42be 8f85 9dbe 2eac f1bd
000003d0: fac6 823a c401 70bd 1c31 8cbd 10e2 b4bd
000003e0: 4113 01bc e2e0 fc3c 61a9 25bd 2a27 89bd
000003f0: 1944 c9bd db71 e4bb 99b8 9bbd db97 8a3d

bias f4 [6]
-0.14052048 -0.032143615 -0.2008439 0.8769029 0.60590047 -0.12830783
00000000: 9ae4 0fbe 06a9 03bd 06aa 4dbe b57c 603f
00000010: 4b1c 1b3f 2163 03be

weight f4 [16, 6, 5, 5]
-0.026934102 -0.06734858 -0.12927644 0.0597128 0.043957714 0.16183156 -0.033143222 -0.073895365
-0.08065656 -0.00577974 0.080732055 0.13162786 -0.010336285 -0.12158868 -0.074015796 -0.13233404
0.039676912 0.040419176 0.019608263 0.028242297 -0.02415294 -0.05539612 0.08991977 -0.012436563
-0.03366989 0.048089918 -0.11192863 -0.09859902 -0.012924506 -0.024554009 -0.1878793 -0.22564545
-0.028642697 0.0018642832 -0.020609934 -0.12690105 -0.11984234 -0.2469715 -0.07634405 -0.13807929
-0.09260373 -0.14217359 -0.11218617 -0.1877808 -0.07606961 -0.07399045 -0.11965039 -0.15320571
-0.16428643 -0.2805147 0.02305607 -0.015177797 0.062460717 0.101914264 -0.016690958 0.07091866
0.14950368 -0.09206869 -0.038221207 -0.0021700186 -0.08460528 0.25612298 0.07893538 -0.015007752
-0.018996608 -0.20129248 -0.20995323 0.12909158 0.2200236 0.10588128 -0.12987131 -0.02314754
-0.052394204 0.075274415 0.23521693 -0.06501436 0.01956947 0.016194163 0.047623616 -0.023265643
-0.035527226 -0.08053169 -0.02559612 0.10810661 0.0019813702 0.08682107 -0.030254833 -0.064684644
0.053835776 -0.0065230406 0.03988891 0.05612938 0.0032858683 -0.04508476 -0.124752976 0.09471102
0.022533515 -0.0028183986 0.037320912 -0.1548752 0.36919367 -0.005770789 -0.22235167 0.20363356
-0.041011322 -0.0061999536 0.54748726 0.010283408 -0.23730575 0.021018673 -0.4532461 0.04416013
0.51638657 0.14779261 -0.20663011 -0.056163523 -0.20338441 -0.01640631 0.26122677 0.117499754
-0.05570839 -0.023382533 -0.12944219 -0.20519194 0.039498243 0.20996873 0.21736605 -0.097114846
0.0900827 0.017548623 -0.26435784 0.22690521 0.35563472 -0.06697999 0.08998877 0.1313166
-0.17191891 0.2402509 0.36340594 0.1446945 0.31735665 0.11562196 -0.19358535 0.039821237
0.2983306 0.10690447 0.05088526 -0.0081309695 -0.073965244 0.021412432 -0.18146428 -0.14457706
-0.011388874 0.123339206 0.011169819 -0.082433395 0.042853855 0.086685784 -0.053431362 -0.16550732
0.06575461 -0.038961954 -0.065593034 -0.111883886 -0.025380427 0.044347327 -0.05043197 -0.07875819
-0.10262068 -0.17368905 -0.004392907 -0.06928149 -0.027539777 -0.06354601 -0.18977343 -0.101492025
0.08757275 0.29302213 0.35133907 0.2309261 0.026419014 0.4083149 0.28451633 0.2940443
-0.032266304 0.15727684 0.35417396 0.28935874 0.06201298 0.002438862 0.2061078 0.2895666
0.07078813 0.017601168 0.009115201 0.2242317 0.1577971 0.06681032 -0.015044126 0.02672348
-0.046742782 -0.15360689 -0.108607285 -0.050643664 0.116036214 0.025783848 -0.047745295 -0.104437836
-0.039597422 0.141284 -0.0016352292 -0.14335735 0.0031928825 0.024666797 0.116174124 0.044684798
-0.04302682 -0.03394615 0.06295568 0.115121685 -0.008045468 -0.10817677 0.06185497 0.18355136
0.11984804 0.10284766 0.15672202 -0.10515344 -0.055004206 0.03630441 0.13920102 -0.062507816
-0.17634046 -0.108012185 0.13695349 0.026318178 -0.13920493 -0.15100005 -0.052968226 0.041254126
-0.1333193 -0.1360949 -0.13069071 0.027301824 0.03135547 -0.17689195 -0.19488102 -0.10667196
-0.02808904 0.05335181 -0.016394049 -0.051336907 -0.089164674 0.014303705 -0.07158234 -0.06892314
00000000: e8a4 dcbc 0dee 89bd 0b61 04be 6995 743d
00000010: 010d 343d 2cb7 253e 30c1 07bd 7456 97bd
00000020: 442f a5bd f963 bdbb d956 a53d 74c9 063e
00000030: 8659 29bc 7c03 f9bd 9895 97bd 9382 07be
00000040: 4284 223d 948e 253d 82a1 a03c 645c e73c
00000050: 63dc c5bc 0be7 62bd db27 b83d bac2 4bbc
00000060: 70e9 09bd eff9 443d d63a e5bd 48ee c9bd
00000070: 4fc1 53bc 7d25 c9bc 6e63 40be 9a0f 67be
00000080: 17a4 eabc f75a f43a 2ad6 a8bc 59f2 01be
00000090: e76f f5bd 19e6 7cbe 455a 9cbd a864 0dbe
000000a0: 06a7 bdbd f495 11be ddc1 e5bd 9c49 40be
000000b0: 62ca 9bbd 4e88 97bd 440b f5bd f5e1 1cbe
000000c0: b43a 28be 9f9f 8fbe 15e0 bc3c 4bac 78bc
000000d0: cfd6 7f3d 6db8 d03d 7abb 88bc cd3d 913d
000000e0: 7e17 193e 828e bcbd d78d 1cbd df36 0ebb
000000f0: 8845 adbd 8d22 833e dfa8 a13d 13e3 75bc
00000100: c69e 9bbc 9e1f 4ebe fbfd 56be 9530 043e
00000110: de4d 613e 49d8 d83d fcfc 04be e99f bdbc
00000120: 4e9b 56bd 7929 9a3d b5dc 703e 4026 85bd
00000130: 2750 a03c 9fa9 843c fb10 433d 9797 bebc
00000140: ff84 11bd cced a4bd f4ae d1bc 0067 dd3d
00000150: e0d9 013b 3fcf b13d fcd8 f7bc 6279 84bd
00000160: e782 5c3d 3bbf d5bb 8e62 233d ece7 653d
00000170: b957 573b ccaa 38bd 7d7e ffbd daf7 c13d
00000180: 3598 b83c e2b4 38bb d0dd 183d 9b97 1ebe
00000190: f406 bd3e e318 bdbb 28b0 63be 5185 503e
000001a0: 7dfb 27bd fb28 cbbb 2028 0c3f bd7b 283c
000001b0: 4700 73be 5a2f ac3c df0f e8be 41e1 343d
000001c0: e931 043f f256 173e d896 53be b90b 66bd
000001d0: 0144 50be 8766 86bc 84bf 853e b6a3 f03d
000001e0: 7b2e 64bd ba8c bfbc 7e8c 04be d61d 52be
000001f0: e9c8 213d 0b02 573e 3595 5e3e 26e4 c6bd
00000200: 477d b83d 21c2 8f3c e959 87be d759 683e
00000210: c115 b63e ce2c 89bd 084c b83d dc77 063e
00000220: 830b 30be 5504 763e 5810 ba3e cc2a 143e
00000230: 927c a23e 35cb ec3d 3d3b 46be 981b 233d
00000240: cabe 983e bbf0 da3d 106d 503d c237 05bc
00000250: 177b 97bd 2069 af3c c6d1 39be 020c 14be
00000260: 6698 3abc 4499 fc3d 9e01 373c d7d2 a8bd
00000270: 8687 2f3d 5188 b13d d8da 5abd c07a 29be
00000280: 5aaa 863d 9296 1fbd a455 86bd 6123 e5bd
00000290: 9dea cfbc 8ba5 353d c191 4ebd f94b a1bd
000002a0: cb2a d2bd 8bdb 31be 60f2 8fbb 74e3 8dbd
000002b0: 199b e1bc 6924 82bd f753 42be 0ddb cfbd
000002c0: 5859 b33d ff06 963e b7e2 b33e e477 6c3e
000002d0: b06c d83c a70e d13e 20ac 913e f98c 963e
000002e0: ac29 04bd 2e0d 213e 4a56 b53e d426 943e
000002f0: 5301 7e3d 51d5 1f3b ec0d 533e 1342 943e
00000300: 5ef9 903d 5330 903c ed57 153c ff9c 653e
00000310: 9095 213e d9d3 883d a37b 76bc 33eb da3c
00000320: 5c75 3fbd 204b 1dbe 7f6d debd bb6f 4fbd
00000330: 65a4 ed3d a638 d33c 9290 43bd 81e3 d5bd
00000340: e830 22bd c1ac 103e 3055 d6ba 45cc 12be
00000350: ae3f 513b 0612 ca3c b3ec ed3d 6807 373d
00000360: e43c 30bd 1e0b 0bbd e8ee 803d ebc4 eb3d
00000370: 23d1 03bc c88b ddbd a35b 7d3d e3f4 3b3e
00000380: e472 f53d cba1 d23d bd7b 203e b05a d7bd
00000390: 174c 61bd efb3 143d b68a 0e3e 1904 80bd
000003a0: 9892 34be 7e35 ddbd 893d 0c3e 3899 d73c
000003b0: bd8b 0ebe c29f 1abe 36f5 58bd 16fa 283d
000003c0: db84 08be 765c 0bbe c9d3 05be 13a8 df3c
000003d0: 986e 003d 2a23 35be e48e 47be d476 dabd
000003e0: fd1a e6bc 6d87 5a3d d04c 86bc a646 52bd
000003f0: f89b b6bd 165a 6a3c c399 92bd 9327 8dbd

bias f4 [16]
-0.48002645 0.017599175 0.6724154 0.08898969 0.36974955 -0.7143292 -0.053865142 -0.32542026
-0.04106978 -0.15490305 0.3653476 0.47481605 0.25490737 0.11398584 0.22517143 -0.32646832
00000000: 07c6 f5be 252c 903c 6a23 2c3f 3a40 b63d
00000010: d04f bd3e 47de 36bf b2a1 5cbd 7c9d a6be
00000020: c938 28bd e89e 1ebe d70e bb3e 171b f33e
00000030: 3883 823e 6871 e93d 5793 663e db26 a7be

weight f4 [120, 400]
-0.06697088 0.0032800697 0.04234038 0.054654483 0.016743109 -0.11847822 -0.041564994 0.017606115
-0.021770447 -0.025123695 -0.06709225 0.054150034 -0.0108608445 0.0041834456 -0.027222062 -0.013417731
0.045536272 -0.036101513 -0.031675667 0.027419169 0.071714625 0.036724787 -0.02169715 0.012190854
0.047369387 0.06291436 0.016178802 0.021953551 0.035231784 -0.02101315 -0.020614982 -0.0077535002
-0.021878548 -0.05311841 -0.06812134 -0.031005017 -0.023506304 -0.021653863 -0.12024835 -0.111427665
-0.04839343 -0.049055528 -0.027150162 -0.061854612 -0.014591467 0.040293045 -0.005772311 0.002818874
0.021450333 0.018038968 -0.02248333 -0.0013383364 -0.0037864915 -0.009192224 0.009110642 -0.0075763366
0.023237951 0.029678838 -0.022557858 -0.067717806 0.054445732 0.06093345 0.04907187 0.024229681
0.018210778 -0.037902262 0.06696319 -0.046749018 -0.010417619 0.0041462076 0.037829604 0.13441719
0.00705407 0.06391419 0.06195728 0.031595774 -0.040657014 -0.12578778 -0.0212086 -0.007976193
0.024582911 -0.04654088 -0.043197725 0.011056719 -0.003963792 -0.006529702 -0.10105757 -0.05402045
-0.01979753 -0.00083927583 -0.0025544353 -0.044342257 -0.057633102 -0.014836165 0.12568435 0.011722246
-0.030100504 -0.02490382 -0.04004213 0.043370128 0.027786823 0.068361856 0.06151765 0.029864466
0.021982877 0.09277221 0.07531879 0.07444834 0.012464837 0.016240865 -0.023657354 0.028328499
0.02814911 0.0562762 0.04904584 -0.007072229 0.06524024 -0.009111489 0.007335634 -0.027439725
0.015584628 0.039762583 -0.03477391 -0.02472742 -0.05086162 -0.043433428 0.008814483 0.067389496
0.023471644 0.010864696 -0.029222662 0.048125416 0.05549377 0.09458058 -0.06818988 -0.06304278
-0.026071645 0.013376901 0.085686445 0.039729234 0.03758741 0.008197221 0.059888013 0.041512463
-0.022076366 -0.07134427 0.0064523295 -0.034880485 0.081866786 0.007664456 0.0012430935 -0.029027907
-0.0023990117 0.042425163 -0.052610755 0.027574528 -0.013415744 0.005149064 0.040488705 -0.045178995
-0.064738914 -0.009332741 0.051770426 0.065127276 -0.039479364 -0.006889818 0.037890654 0.050793003
0.024206126 -0.031481683 0.056496758 0.054771144 0.020250345 -0.025016757 -0.019539936 0.026361598
0.12213639 0.14707816 0.119765185 0.061664123 0.0054666535 0.009421237 -0.02437606 0.028526768
0.026477944 -0.031922422 -0.03418547 -0.0066911327 -0.03781105 -0.025757387 -0.009181399 -0.017177338
-0.029410042 -0.007887977 -0.018786667 -0.0806239 -0.048303198 -0.05835543 -0.06829071 -0.07352402
0.06771576 -0.027376723 0.027973123 0.009593014 0.023515915 -0.0073367595 -0.05016329 -0.072996676
-0.037533235 0.041635104 -0.04115281 0.03813337 -0.0032403553 0.0046071364 0.04777787 0.042488538
0.05937999 0.040212873 0.015225256 -0.017004346 0.07621925 0.024643434 -0.028752685 0.021000752
0.001208522 -0.08236751 -0.14132357 -0.06768406 0.03244192 0.051278964 -0.058020927 -0.23542409
-0.16717497 -0.030633453 0.06470025 -0.016175153 -0.0876393 -0.080021985 0.014744252 0.0338447
0.058521472 -0.032719593 -0.0027583237 -0.048147954 -0.0005725348 -0.036172245 -0.0023688937 -0.062429804
0.02485453 0.0027719336 0.04657503 0.0036805216 -0.046260457 0.048440516 -0.09895924 -0.04435997
00000000: 0728 89bd 70f6 563b 1b6d 2d3d 61dd 5f3d
00000010: d828 893c b6a4 f2bd 0e40 2abd b33a 903c
00000020: f057 b2bc 35d0 cdbc a967 89bd 6dcc 5d3d
00000030: aff1 31bc 4915 893b cd00 dfbc 0bd6 5bbc
00000040: 3e84 3a3d 2edf 13bd 58be 01bd 2a9e e03c
00000050: 1edf 923d bb6c 163d 39be b1bc 26bc 473c
00000060: 6706 423d 3ed9 803d 6889 843c efd7 b33c
00000070: 344f 103d c523 acbc c0e0 a8bc 1311 febb
00000080: a43a b3bc b192 59bd 3383 8bbd 3cfe fdbc
00000090: 4b90 c0bc 7163 b1bc c444 f6bd 3034 e4bd
000000a0: 3038 46bd 73ee 48bd 046a debc 435b 7dbd
000000b0: 0c11 6fbc 520a 253d a725 bdbb dcbc 383b
000000c0: 9cb8 af3c 75c6 933c f62e b8bc 1e6b afba
000000d0: c926 78bb fb9a 16bc cd44 153c eb42 f8bb
000000e0: 845d be3c 0921 f33c 42cb b8bc a2af 8abd
000000f0: 7d02 5f3d 5a95 793d 96ff 483d 537d c63c
00000100: c52e 953c 673f 1bbd ff23 893d e67b 3fbd
00000110: a9ae 2abc e9dc 873b 37f3 1a3d a9a4 093e
00000120: d425 e73b 71e5 823d ebc6 7d3d 926a 013d
00000130: f887 26bd 83ce 00be a8bd adbc 94ae 02bc
00000140: 1a62 c93c a6a1 3ebd 19f0 30bd 3e27 353c
00000150: b3e2 81bb 1cf7 d5bb 45f7 cebd 8c44 5dbd
00000160: 6e2e a2bc d902 5cba 5068 27bb 3aa0 35bd
00000170: b010 6cbd 6313 73bc 66b3 003e aa0e 403c
00000180: 5595 f6bc 1903 ccbc 3703 24bd e0a4 313d
00000190: 31a1 e33c 4d01 8c3d eef9 7b3d 53a6 f43c
000001a0: 6f15 b43c 5bff bd3d bd40 9a3d 5f78 983d
000001b0: 5139 4c3c 900b 853c 11cd c1bc 2b11 e83c
000001c0: f698 e63c df81 663d 4ae4 483d 28be e7bb
000001d0: ad9c 853d 5b48 15bc c25f f03b 46c9 e0bc
000001e0: ab56 7f3c 17de 223d 166f 0ebd 2991 cabc
000001f0: 4654 50bd 40e7 31bd 9f6a 103c 8103 8a3d
00000200: 9b47 c03c d701 323c 5d64 efbc 281f 453d
00000210: 6f4d 633d 77b3 c13d 23a7 8bbd 931c 81bd
00000220: 3494 d5bc ca2a 5b3c 607c af3d 1fbb 223d
00000230: 42f5 193d a34d 063c 224d 753d f908 2a3d
00000240: 7fd9 b4bc f21c 92bd 106e d33b d7de 0ebd
00000250: c6a9 a73d 1e26 fb3b 4cef a23a efcb edbc
00000260: bd38 1dbb 02c6 2d3d 607e 57bd fae3 e13c
00000270: b5cd 5bbc 7bb9 a83b 7cd7 253d 9c0d 39bd
00000280: d695 84bd 5ae8 18bc 3a0d 543d 7361 853d
00000290: 1db5 21bd fbc3 e1bb 3b33 1b3d 530c 503d
000002a0: ed4b c63c f0f2 00bd 2569 673d b557 603d
000002b0: 0de4 a53c f1ef ccbc 3712 a0bc 47f4 d73c
000002c0: a522 fa3d a89b 163e 7347 f53d 8593 7c3d
000002d0: 9d21 b33b 885b 1a3c 4eb0 c7bc f8b0 e93c
000002e0: 46e8 d83c 16c1 02bd 1006 0cbd 4a41 dbbb
000002f0: c2df 1abd 2801 d3bc 946d 16bc 7db7 8cbc
00000300: 54ed f0bc 933c 01bc 7fe6 99bc 251e a5bd
00000310: 93d9 45bd 1a06 6fbd 00dc 8bbd c393 96bd
00000320: 8fae 8a3d 2645 e0bc e427 e53c 042c 1d3c
00000330: 73a4 c03c 3369 f0bb 0678 4dbd 487f 95bd
00000340: 73bc 19bd 9289 2a3d d98f 28bd bd31 1c3d
00000350: 245c 54bb 76f7 963b bab2 433d 7608 2e3d
00000360: 6f38 733d 41b6 243d 5a73 793c b34c 8bbc
00000370: d718 9c3d 07e1 c93c c08a ebbc c509 ac3c
00000380: 4567 9e3a 4cb0 a8bd 20b7 10be f19d 8abd
00000390: d2e1 043d e409 523d 5aa7 6dbd 0313 71be
000003a0: ea2f 2bbe 02f3 fabc 9181 843d c181 84bc
000003b0: 3c7c b3bd 91e2 a3bd e091 713c bda0 0a3d
000003c0: 36b4 6f3d fb04 06bd fec4 34bb ca36 45bd
000003d0: 2916 16ba 5929 14bd 713f 1bbb 65b6 7fbd
000003e0: ba9b cb3c 54a9 353b 75c5 3e3d e834 713b
000003f0: 9b7b 3dbd 9069 463d 24ab cabd cdb2 35bd

bias f4 [120]
-0.03918198 -0.008918803 0.10622794 -0.15956138 -0.051997565 -0.0051608128 0.009841977 -0.068422556
0.021761017 -0.010286716 -0.086432464 0.042001918 -0.046238326 0.016379148 -0.05230325 0.07689769
-0.017334497 -0.015867814 0.050864026 0.024251115 0.15502323 -0.050428104 -0.031953678 0.041888867
0.08376211 0.08824203 0.05244771 0.03509216 0.040249668 -0.04514682 -0.24943213 -0.014809399
0.05491965 0.046273567 -0.008853923 -0.034699973 0.032166272 0.030090153 0.092734106 0.16253513
0.10846472 -0.072230056 0.04078026 0.15628426 0.0058327555 0.05617999 0.0362893 0.0031513742
0.10631733 0.052596297 -0.11445644 0.022952415 -0.051446695 -0.029260946 0.104367174 0.09768026
-0.05188837 -0.027098987 0.08884224 0.084401466 -0.1329762 0.044666965 0.030002357 -0.047575295
0.0052779648 0.04415343 0.08538335 0.12973423 0.17750466 -0.06772693 -0.019821241 0.01868412
0.09000843 -0.024105493 -0.038870238 0.008096973 0.036467817 -0.055725288 -0.026090924 0.11598653
0.01010006 -0.022380613 -0.13676797 0.04009525 -0.06898583 0.049043853 -0.10915685 0.0031238496
0.055256337 0.02244263 0.10980907 -0.010818912 0.001241725 0.041090347 0.07650029 0.09284629
0.057397775 -0.015258861 0.052293777 0.0124807535 0.05268378 -0.010067181 0.1570586 -0.03868265
-0.01994636 -0.020749733 -0.075714536 0.12156394 -0.05183768 0.015796563 0.08304488 0.09131529
0.16240548 0.012297916 -0.05099575 -0.045950342 0.045216806 0.085933395 0.031327967 0.003814051
00000000: 497d 20bd 2c20 12bc 098e d93d 0f64 23be
00000010: 66fb 54bd 091c a9bb 3e40 213c 2021 8cbd
00000020: 2944 b23c 9d89 28bc 8103 b1bd 340a 2c3d
00000030: 6664 3dbd 902d 863c ef3b 56bd 897c 9d3d
00000040: 1301 8ebc 38fd 81bc cc56 503d 46aa c63c
00000050: 69be 1e3e b38d 4ebd dce1 02bd a993 2b3d
00000060: 788b ab3d 3db8 b43d 69d3 563d ccbc 0f3d
00000070: d6dc 243d dfeb 38bd 236b 7fbe 1fa3 72bc
00000080: 6df3 603d 5a89 3d3d 0b10 11bc 8f21 0ebd
00000090: c8c0 033d a07f f63c 61eb bd3d 9c6f 263e
000000a0: c022 de3d 5aed 93bd 3409 273d fb08 203e
000000b0: b320 bf3b fd1c 663d 17a4 143d 4987 4e3b
000000c0: e6bc d93d 376f 573d 2368 eabd b406 bc3c
000000d0: c5b9 52bd a7b4 efbc 75be d53d 970c c83d
000000e0: e688 54bd b2fe ddbc ecf2 b53d adda ac3d
000000f0: ea2a 08be b5f4 363d 81c7 f53c 50de 42bd
00000100: c7f2 ac3b 3ada 343d 77dd ae3d 0dd9 043e
00000110: c8c3 353e 6bb4 8abd 2860 a2bc 710f 993c
00000120: 5756 b83d e278 c5bc 6636 1fbd 2ba9 043c
00000130: 475f 153d 3340 64bd a2bc d5bc 598a ed3d
00000140: b97a 253c 8c57 b7bc e70c 0cbe eb3a 243d
00000150: 7148 8dbd 35e2 483d a08d dfbd 80b9 4c3b
00000160: 7854 623d 9bd9 b73c 94e3 e03d ce41 31bc
00000170: 61c1 a23a 5a4e 283d 2fac 9c3d 3226 be3d
00000180: ee19 6b3d 4d00 7abc 0032 563d 137c 4c3c
00000190: f3ca 573d d1f0 24bc f8d3 203e b371 1ebd
000001a0: 8c66 a3bc 58fb a9bc 3910 9bbd 84f6 f83d
000001b0: bf53 54bd cb67 813c 6f13 aa3d 8303 bb3d
000001c0: 9f4d 263e 337d 493c ebe0 50bd 6d36 3cbd
000001d0: 4235 393d d9fd af3d c151 003d 28f5 793b

weight f4 [84, 120]
-0.028657045 -0.008729324 0.12842566 -0.103534445 -0.029599989 -0.10839933 0.04471795 -0.076243035
0.047398344 0.030721178 -0.035349082 0.013281909 -0.016618202 -0.023330195 -0.14724568 0.080303326
-0.078503184 0.0062686745 0.06441759 0.016704414 0.012711723 -0.10262022 0.014624738 0.077631235
0.0044339695 -0.018732853 0.057278328 0.013068779 -0.020902706 -0.07334524 -0.07981215 0.073139645
-0.037014924 0.013564291 0.06699889 -0.11958992 -0.026642736 0.06583493 0.114162035 0.04933942
0.009288488 0.13911372 0.05513471 -0.041177507 -0.050263297 0.11822543 -0.05898319 0.0131547
0.054115288 0.052183032 -0.10753046 -0.097942315 -0.02798202 -0.05497663 -0.059649017 0.022200845
0.10351454 0.10414582 0.15137586 0.06686642 0.035418525 -0.006741798 -0.09165073 -0.13570361
0.091312796 -0.054883953 0.15506344 -0.0876034 -0.027995348 0.01838919 -0.0029800718 -0.016146304
0.044781618 0.017646523 0.023860069 -0.102511354 -0.0505809 0.03462612 0.08308718 -0.056426708
0.062123347 0.06334668 0.02612265 0.070843734 0.07381684 -0.060377907 -0.04174543 0.2366595
-0.054769326 -0.15728772 0.103485644 -0.06230879 0.095046446 0.031645548 -0.074833214 0.03968125
0.07903909 -0.07530601 0.014923583 -0.10042938 0.075141385 -0.04312381 -0.0077468124 -0.043628555
-0.002409151 0.023323055 -0.10265394 -0.04198524 -0.012199854 -0.00887816 0.07987515 -0.03239019
-0.026284589 -0.032258272 -0.116453186 0.061212152 -0.05849964 -0.12282599 -0.043891877 0.07327806
-0.1329174 0.15526529 -0.008801009 -0.12146671 -0.020939702 -0.064570114 0.074840926 0.016292635
0.15227802 0.11149133 -0.05862177 -0.02295896 -0.068798624 0.01829808 0.058142934 -0.14220585
-0.0003623279 0.18926395 -0.0010219401 -0.046402484 -0.077343985 -0.06803881 -0.096640505 0.09913562
0.016763117 0.018994901 -0.108005315 0.007190212 0.034307953 -0.007007194 -0.052386872 0.07630138
0.0459912 0.1594651 0.016986096 -0.03230068 -0.04946688 -0.08888273 0.07601561 0.1244935
-0.011081856 -0.0041581867 0.053355873 -0.069197804 -0.071907096 0.11576342 -0.08153625 -0.07308853
-0.019351093 -0.13649423 0.019242447 -0.028892823 -0.03215908 -0.13358116 0.04822362 0.03224046
0.023739247 0.0932484 0.06735753 0.11500104 -0.12592308 0.034065522 0.14916618 -0.013791024
0.0037755857 0.078789026 0.07756368 -0.001646583 0.11634689 -0.12603056 0.1218948 -0.05041399
0.012825597 -0.07495421 -0.0015129893 0.0006253133 -0.14473465 -0.011531287 -0.05524796 -0.031555142
0.109063186 -0.015460012 0.09050028 -0.04036813 0.04063391 0.08204902 -0.012258778 0.04795366
-0.030477835 -0.11583564 0.119686425 -0.064753324 0.016367014 0.07867282 -0.082428664 0.015891159
-0.008857493 -0.040554963 0.059637446 0.0693235 0.0032954656 0.047697466 -0.007348531 0.0838438
-0.014209744 -0.10341093 -0.1260431 -0.08577778 -0.03631056 0.09284284 0.07760847 0.09087121
-0.04909134 -0.0002791168 0.073721685 -0.0010896688 -0.06383113 -0.16478015 0.020398278 -0.08154392
-0.06657188 -0.16450126 0.06690648 -0.06408246 0.10498448 -0.075727135 -0.07708426 -0.10447998
0.044114344 -0.056488965 0.063632764 -0.058024984 -0.017961534 0.1044274 -0.022869477 -0.0014611233
00000000: 2ec2 eabc 7005 0fbc 0482 033e de09 d4bd
00000010: ad7b f2bc 7800 debd 2b2a 373d 4f25 9cbd
00000020: c424 423d fbaa fb3c 33ca 10bd 5d9c 593c
00000030: e522 88bc f71e bfbc 92c7 16be 1276 a43d
00000040: 47c6 a0bd 7469 cd3b 5fed 833d b2d7 883c
00000050: d544 503c 8d2a d2bd 999c 6f3c 20fd 9e3d
00000060: d54a 913b a475 99bc ae9c 6a3d 6f1e 563c
00000070: 273c abbc 0736 96bd 8d74 a3bd 3dca 953d
00000080: f69c 17bd c33c 5e3c b736 893d 8feb f4bd
00000090: de41 dabc 77d4 863d c9cd e93d 2218 4a3d
000000a0: be2e 183c d473 0e3e efd4 613d bfa9 28bd
000000b0: e3e0 4dbd 2d20 f23d 5c98 71bd d086 573c
000000c0: fea7 5d3d e0bd 553d ee38 dcbd fb95 c8bd
000000d0: 8d3a e5bc 2d2f 61bd 8752 74bd 8cde b53c
000000e0: 6eff d33d 674a d53d 4602 1b3e 43f1 883d
000000f0: 0413 113d 4dea dcbb 61b3 bbbd e3f5 0abe
00000100: 3402 bb3d ffcd 60bd f3c8 1e3e 6969 b3bd
00000110: 8056 e5bc eda4 963c 4f4d 43bb 4145 84bc
00000120: ee6c 373d 718f 903c 3176 c33c 79f1 d1bd
00000130: eb2d 4fbd 1ed4 0d3d 9d29 aa3d b11f 67bd
00000140: 0d75 7e3d e7bb 813d 2bff d53c 8516 913d
00000150: 492d 973d d34e 77bd 42fd 2abd de56 723e
00000160: cd55 60bd 0810 21be 48f0 d33d 8037 7fbd
00000170: b6a7 c23d c39e 013d 2842 99bd ce88 223d
00000180: 3fdf a13d 0a3a 9abd 0b82 743c ebad cdbd
00000190: bae3 993d 98a2 30bd f9d8 fdbb dbb3 32bd
000001a0: d9e2 1dbb fe0f bf3c 3b3c d2bd b7f8 2bbd
000001b0: e5e1 47bc b475 11bc 9595 a33d 93ab 04bd
000001c0: c752 d7bc 4021 04bd 027f eebd 98b9 7a3d
000001d0: 529d 6fbd 318c fbbd f8c7 33bd cf12 963d
000001e0: 801b 08be ddfd 1e3e 1b32 10bc 8ac3 f8bd
000001f0: bd89 abbc 563d 84bd 3346 993d 2278 853c
00000200: c5ee 1b3e 9155 e43d 621d 70bd 6e14 bcbc
00000210: 4be6 8cbd dbe5 953c 4927 6e3d 699e 11be
00000220: d4f6 bdb9 69ce 413e 9ff2 85ba 8810 3ebd
00000230: 8666 9ebd ee57 8bbd 75eb c5bd 9e07 cb3d
00000240: ce52 893c 329b 9b3c e431 ddbd df9b eb3b
00000250: 7f86 0c3d 9b9c e5bb 9e93 56bd e643 9c3d
00000260: 4561 3c3d d24a 233e 6d26 8b3c b84d 04bd
00000270: c89d 4abd 2608 b6bd 12ae 9b3d 73f6 fe3d
00000280: ac90 35bc 6641 88bb b08b 5a3d 94b7 8dbd
00000290: 0744 93bd 5f15 ed3d 7afc a6bd 70af 95bd
000002a0: 2f86 9ebc 25c5 0bbe 56a2 9d3c a4b0 ecbc
000002b0: 3db9 03bd 80c9 08be 2186 453d 930e 043d
000002c0: cf78 c23c 04f9 be3d bff2 893d aa85 eb3d
000002d0: fbf1 00be 4a88 0b3d 05bf 183e bff3 61bc
000002e0: d16f 773b 245c a13d b5d9 9e3d 28d2 d7ba
000002f0: 4747 ee3d 280e 01be fba3 f93d e67e 4ebd
00000300: 7422 523c 9881 99bd 7f4f c6ba 11ec 233a
00000310: 5235 14be b9ed 3cbc af4b 62bd f73f 01bd
00000320: 855c df3d fd4b 7dbc 3658 b93d 0d59 25bd
00000330: be6f 263d 5109 a83d 0bd9 48bc 0f6b 443d
00000340: a7ac f9bc 3c3b edbd 281e f53d 649d 84bd
00000350: 1e14 863c 371f a13d 5cd0 a8bd 2d2e 823c
00000360: 051f 11bc f61c 26bd 6546 743d 7bf9 8d3d
00000370: bdf8 573b 6b5e 433d f2cb f0bb 4cb6 ab3d
00000380: fccf 68bc 1cc9 d3bd 7111 01be 43ac afbd
00000390: 62ba 14bd 6324 be3d 31f1 9e3d af1a ba3d
000003a0: 0014 49bd 6c56 92b9 65fb 963d 38d3 8eba
000003b0: e5b9 82bd 21bc 28be 4a1a a73c 8000 a7bd
000003c0: d656 88bd 0573 28be 4406 893d aa3d 83bd
000003d0: 1a02 d73d d416 9bbd 5ade 9dbd 9af9 d5bd
000003e0: 3eb1 343d f960 67bd e551 823d 9bab 6dbd
000003f0: 1124 93bc 08de d53d c558 bbbc 2a83 bfba

bias f4 [84]
0.13567692 0.08720574 0.23532975 -0.09875167 0.31501335 -0.010586044 0.22058952 -0.033416625
0.014917619 0.07147575 0.086393334 0.037660833 -0.12522304 0.16324705 -0.1456492 -0.073611364
0.14397155 0.14033288 0.08371511 -0.030905295 0.057505827 -0.036097024 -0.10423601 0.03943187
0.070463896 0.22918719 0.12478091 -0.12848914 -0.001281501 0.04496044 0.09576616 0.085959695
0.06354993 -0.011499664 0.17946176 0.08485399 0.4075339 -0.016377369 0.4067134 0.05177822
0.23925894 -0.08575866 -0.13259807 -0.0035529402 0.010215553 -0.065813385 0.12561232 0.020956432
0.06241739 -0.17470819 -0.028839178 0.20869796 0.036045846 -0.1409211 -0.051649865 -0.17280276
0.03083245 -0.011740203 0.08072682 0.025961896 0.0883665 0.08951578 -0.13933717 0.16242184
-0.0906518 0.09470814 0.23666583 0.019433456 0.105075836 0.25287658 -0.005185208 0.10644223
0.23267148 -0.20388423 0.0019250034 -0.18598308 0.124793135 -0.07755313 0.042630196 0.09482566
-0.04841661 0.17323457 0.18596542 0.15888482
00000000: e4ee 0a3e ec98 b23d 48fa 703e 513e cabd
00000010: 6e49 a13e 1671 2dbc 38e2 613e dfdf 08bd
00000020: 0769 743c e161 923d fdee b03d 3f42 1a3d
00000030: 783a 00be 3c2a 273e 1025 15be 8ec1 96bd
00000040: 476d 133e 6cb3 0f3e d472 ab3d 1a2d fdbc
00000050: 3b8b 6b3d 79da 13bd b079 d5bd 5083 213d
00000060: 604f 903d 0cb0 6a3e 228d ff3d a892 03be
00000070: 0af8 a7ba 7028 383d 0c21 c43d a30b b03d
00000080: 7726 823d 1669 3cbc d3c4 373e eec7 ad3d
00000090: 49a8 d03e d529 86bc bd3c d03e 6615 543d
000000a0: 4c00 753e 3da2 afbd cac7 07be 72d8 68bb
000000b0: 235f 273c 2bc9 86bd 84a0 003e d3ac ab3c
000000c0: 61a9 7f3d b4e6 32be 2440 ecbc ebb4 553e
000000d0: cfa4 133d 9f4d 10be cf8e 53bd 35f3 30be
000000e0: 5694 fc3c fb59 40bc 1a54 a53d 0bae d43c
000000f0: 7ff9 b43d 0d54 b73d 67ae 0ebe e951 263e
00000100: a7a7 b9bd 57f6 c13d 8758 723e e932 9f3c
00000110: 0032 d73d 0a79 813e ade8 a9bb 62fe d93d
00000120: 6f41 6e3e 07c7 50be 6550 fc3a 5972 3ebe
00000130: 8b93 ff3d 2dd4 9ebd 009d 2e3d f533 c23d
00000140: 7f50 46bd 6764 313e b86d 3e3e b4b2 223e

weight f4 [10, 84]
-0.13165338 0.055796042 -0.13912559 0.094506286 0.10867577 0.04690517 0.2723454 0.19877563
0.058114316 0.24027528 0.3553179 0.18429458 0.20921384 -0.10603423 0.04733517 -0.03404747
-0.020636879 0.02328275 0.10228364 -0.040396716 -0.026567249 -0.24673425 -0.050488506 -0.008990861
0.046181686 -0.13073033 -0.014067515 -0.11066432 -0.18751462 0.22784545 -0.15576336 0.12944089
-0.08842545 0.14881077 -0.033698034 -0.071993664 -0.31640315 -0.16377167 -0.20707367 -0.09029037
0.36842686 0.23883314 -0.0075890147 0.16473347 -0.10676426 -0.029983114 0.14828114 -0.031409107
0.19113758 0.17916846 0.02041009 0.3187831 -0.24253848 -0.016353087 0.03508334 0.14305185
0.25259143 -0.13496168 -0.21562366 -0.15609579 0.18934761 0.1012111 -0.15482493 -0.25895774
-0.13388726 -0.15905388 0.09094731 -0.16823138 -0.15041108 -0.21564645 -0.11561903 0.038914744
-0.24367528 -0.074628994 0.045309965 0.10297987 0.09581739 0.1988161 -0.19977215 0.12793048
0.115469 0.13172953 -0.018201735 -0.26299375 0.21618555 0.08398625 -0.09054488 0.055243213
-0.04172225 0.008805865 0.038366433 -0.009712775 -0.008440352 -0.16408572 -0.3350256 0.05180182
-0.08024371 -0.18020758 0.087499 -0.07629083 -0.22444881 0.3590346 0.14655535 -0.024115685
-0.0070331916 -0.07888069 0.15845737 -0.21704395 -0.021351742 -0.16132636 0.2483112 -0.13371314
0.1416637 -0.17989075 -0.21465419 -0.14703274 0.048776954 -0.06206338 0.016932474 -0.1717112
-0.16579208 0.14686391 -0.30674866 -0.060337532 -0.33872128 -0.002575729 0.070987 -0.18552448
0.042924106 0.050747365 0.16311163 0.22629812 -0.09481219 0.32609546 0.22930692 -0.026025154
0.2010832 0.33147082 -0.08369359 0.05627688 0.23483588 -0.21678758 -0.12373668 0.3159882
-0.07480028 0.24247381 0.1915131 -0.14548723 -0.1424305 0.1433231 -0.36426124 -0.022989558
-0.022671869 -0.26119614 -0.0488289 -0.07789874 -0.05580088 0.21604575 0.022151932 0.37140673
-0.04693461 -0.0718626 0.04285417 0.062470075 -0.09741866 -0.3406301 -0.18591277 -0.16621089
-0.16225222 0.026492937 -0.08627345 0.07237756 -0.12998942 0.0659484 0.0399311 -0.11508345
0.1982448 0.22179906 0.2475591 -0.29420283 -0.05112685 0.22326301 0.057455044 -0.109613545
0.11459148 -0.11843179 -0.19492108 -0.15751174 0.18475455 -0.097719364 0.13954146 -0.11033987
0.15644452 -0.15986972 0.13406053 0.3104909 -0.0068608685 0.3074948 -0.014344347 0.018262956
-0.047087383 -0.015773624 0.040532485 -0.09938446 -0.15428197 -0.19647859 0.2535978 0.46492812
0.087836765 -0.14530994 0.124846846 -0.095811546 0.110760495 0.085260876 -0.029791512 -0.107615806
-0.038166955 -0.27531493 0.15100802 -0.06487257 -0.06303285 0.055810086 0.027085392 0.14501867
-0.092326194 0.07291021 -0.16128899 -0.1080599 0.05045439 -0.13466862 -0.12678865 -0.1811737
0.30119732 -0.25873998 0.051329013 0.009572917 0.07280915 -0.0958649 -0.043078203 -0.0515639
0.3754468 -0.030083422 0.099892356 0.2572073 -0.10912511 -0.0016169461 0.0025282514 0.1898741
-0.0188951 0.12534903 0.12871006 -0.07810568 0.13451965 -0.010237027 -0.17009926 -0.11185688
00000000: 25d0 06be 648a 643d f076 0ebe 838c c13d
00000010: 6791 de3d a31f 403d db70 8b3e d78b 4b3e
00000020: 4709 6e3d b90a 763e 3aec b53e b8b7 3c3e
00000030: 273c 563e 7928 d9bd 86e2 413d 5c75 0bbd
00000040: ac0e a9bc 77bb be3c 167a d13d 0777 25bd
00000050: 8fa3 d9bc e7a7 7cbe 09cd 4ebd 674e 13bc
00000060: 0229 3d3d 2cde 05be 6f7b 66bc faa3 e2bd
00000070: d503 40be 5150 693e 6e80 1fbe 278c 043e
00000080: 6718 b5bd da61 183e f306 0abd 6a71 93bd
00000090: 98ff a1be c3b3 27be 1f0b 54be 28ea b8bd
000000a0: 72a2 bc3e ad90 743e 45ad f8bb e4af 283e
000000b0: 38a7 dabd 269f f5bc 03d7 173e d6a6 00bd
000000c0: 92b9 433e f077 373e 1033 a73c 8a37 a33e
000000d0: 025c 78be e9f6 85bc 8cb3 0f3d 2f7c 123e
000000e0: aa53 813e 6533 0abe 73cc 5cbe 93d7 1fbe
000000f0: 57e4 413e c447 cf3d 6d8a 1ebe 1c96 84be
00000100: be19 09be 05df 22be 9542 ba3d d944 2cbe
00000110: 5d05 1abe 6cd2 5cbe acc9 ecbd 1165 1f3d
00000120: 0386 79be 16d7 98bd f196 393d 1ce7 d23d
00000130: e83b c43d 7396 4b3e 1291 4cbe 3500 033e
00000140: 037b ec3d 1be4 063e ce1b 95bc 1ea7 86be
00000150: bf5f 5d3e fc00 ac3d 986f b9bd b546 623d
00000160: f3e4 2abd 7a46 103c 1f26 1d3d 5522 1fbc
00000170: 6749 0abc 1606 28be 7a88 abbe 252e 543d
00000180: d056 a4bd 5688 38be ad32 b33d 5e3e 9cbd
00000190: e9d5 65be 62d3 b73e 9b12 163e 428e c5bc
000001a0: b076 e6bb 338c a1bd a642 223e c540 5ebe
000001b0: d9e9 aebc bd32 25be 4b45 7e3e 19ec 08be
000001c0: 4a10 113e 4835 38be 4fce 5bbe c08f 16be
000001d0: 58ca 473d 2c36 7ebd f9b5 8a3c 10d5 2fbe
000001e0: 66c5 29be 7e63 163e 290e 9dbe 7d24 77bd
000001f0: e06c adbe 90cd 28bb a261 913d 21fa 3dbe
00000200: 30d1 2f3d 78dc 4f3d bc06 273e b2ba 673e
00000210: e52c c2bd fcf5 a63e 6fcf 6a3e b432 d5bc
00000220: c1e8 4d3e 8bb6 a93e 8b67 abbd 9682 663d
00000230: d178 703e 90fd 5dbe a869 fdbd 35c9 a13e
00000240: e430 99bd 0e4b 783e 031c 443e 9bfa 14be
00000250: 4dd9 11be 4ac3 123e 7380 babe 9954 bcbc
00000260: 5bba b9bc 80bb 85be d000 48bd 6089 9fbd
00000270: 778f 64bd 193b 5d3e f877 b53c 0629 be3e
00000280: 813e 40bd b32c 93bd db87 2f3d 9fe0 7f3d
00000290: 6f83 c7bd 1267 aebe eb5f 3ebe 3033 2abe
000002a0: 7225 26be b707 d93c 22b0 b0bd b03a 943d
000002b0: f21b 05be f40f 873d cb8e 233d dfb0 ebbd
000002c0: af00 4b3e 4b1f 633e 2280 7d3e c1a1 96be
000002d0: 636a 51bd 0f9f 643e fb55 6b3d 117d e0bd
000002e0: f0ae ea3d 5e8c f2bd 6499 47be c24a 21be
000002f0: 4c30 3d3e 1721 c8bd f5e3 0e3e dff9 e1bd
00000300: fe32 203e e3b4 23be 2a47 093e aaf8 9e3e
00000310: 23d1 e0bb f56f 9d3e 8d04 6bbc 329c 953c
00000320: b3de 40bd b037 81bc 6405 263d 148a cbbd
00000330: 18fc 1dbe af31 49be 92d7 813e 0f0b ee3e
00000340: c3e3 b33d 21cc 14be b4af ff3d d838 c4bd
00000350: 66d6 e23d 419d ae3d 540d f4bc ad65 dcbd
00000360: f454 1cbd 14f6 8cbe d9a1 1a3e e9db 84bd
00000370: 5e17 81bd 1e99 643d 2fe2 dd3c c67f 143e
00000380: 8415 bdbd f351 953d f128 25be 824e ddbd
00000390: 43a9 4e3d 92e6 09be e2d4 01be 9985 39be
000003a0: 8936 9a3e 9179 84be 5f3e 523d b9d7 1c3c
000003b0: f71c 953d d154 c4bd c572 30bd ab34 53bd
000003c0: 903a c03e 8271 f6bc 5d94 cc3d adb0 833e
000003d0: fc7c dfbd b5ef d3ba 05b1 253b 5b6e 423e
000003e0: e6c9 9abc 7f5b 003e 92cc 033e dff5 9fbd
000003f0: 85bf 093e 34b9 27bc 802e 2ebe 3815 e5bd

bias f4 [10]
-0.15326968 -0.7213887 -0.048107173 0.23841538 0.5182071 -0.057467822 0.037512552 -0.2412493
0.34199524 -0.15845257
00000000: baf2 1cbe eeac 38bf 070c 45bd 2923 743e
00000010: 38a9 043f 6163 6bbd c3a6 193d 0e0a 77be
00000020: 001a af3e 6441 22be
