models/v2.pt (torch_old, 268079 bytes, 14 tensors)

weight f4 [6, 3, 3, 3]
000000 3f c0 83 be 51 b2 ca be 61 a3 17 be 19 b2 26 3d
       -0.2573261 -0.3958917 -0.14808418 0.04069719
000010 82 a8 cf be ac ca 4e bd 47 4b a0 3e ac 3a f7 3d
       -0.4055825 -0.05048625 0.31307432 0.12071738
000020 d6 1f 55 3c 12 ce b3 3e 8b 1e a8 bd ce 37 06 3b
       0.013008079 0.35118157 -0.082089506 0.002048004
000030 04 53 b0 bd 9d 1a a0 be 89 4f 51 3e 4b 2a 95 3e
       -0.08609584 -0.31270304 0.20440497 0.2913383
000040 3f 0a 9b 3e d6 21 9b 3e c3 36 54 3e 5d b7 85 bd
       0.30281255 0.30299252 0.20724015 -0.065291144
000050 76 5f 54 3e 39 48 84 be 5d e5 73 be bb 26 57 be
       0.2073954 -0.25836352 -0.23817964 -0.21010868
000060 fc 3f 45 3e bf d7 78 3e 43 f0 38 be 25 90 80 be
       0.1926269 0.2430105 -0.18060403 -0.25109974
000070 43 d4 8f 3e ba 73 8c be 52 e8 84 be 31 5b 0b 3f
       0.2809163 -0.27432042 -0.25958496 0.5443602
000080 a2 87 87 3e 47 42 08 bf 64 91 8e 39 51 08 37 bd
       0.26470667 -0.5322613 0.00027192675 -0.044685666
000090 87 84 8b be 53 c8 1e 3e a6 fc 74 be 32 a9 64 be
       -0.27249548 0.15506105 -0.23924503 -0.22330168
0000a0 da 21 18 3f 4e 9e 52 3e 39 29 cf bd a1 e6 a7 3e
       0.59426653 0.20568201 -0.101152845 0.32793143
0000b0 2f 79 81 3e a0 84 aa be d3 b4 c5 bd e0 41 a0 be
       0.25287768 -0.3330431 -0.0965363 -0.3130026
0000c0 99 b5 90 be ca 63 f3 3d 64 0a 9a 3e cf 3c 96 be
       -0.28263548 0.11884268 0.30086052 -0.29343268
0000d0 53 6d ca bb 77 ba 9c 3d d9 7c f5 3d f8 c9 bc 3d
       -0.0061775832 0.07652753 0.119867034 0.0921821
0000e0 a7 92 92 bd 20 18 08 bf e0 cd e6 3e 78 36 4a 3e
       -0.07156878 -0.5316181 0.45078945 0.1974734
0000f0 e1 3a ca be 78 e1 9c bc 0d fe 7e be f9 ab b6 3d
       -0.39498046 -0.01915048 -0.249016 0.0891952
000100 19 63 78 3e da 22 f2 bd 69 45 b9 be d5 cb 53 3f
       0.24256553 -0.11823054 -0.36185768 0.827329
000110 35 8d a2 3e 2e 93 bd be 59 bd b7 3e 60 49 37 3e
       0.31748357 -0.37026352 0.35886648 0.17899084
000120 63 a7 39 3c 1d 0f db bc 95 35 11 be db d7 0e bf
       0.011331412 -0.026740605 -0.14180596 -0.5579812
000130 1c 33 14 3f 2e a0 48 3e 21 e8 02 bf a0 10 fb bd
       0.57890487 0.19592354 -0.5113545 -0.1225903
000140 ba 21 ea bd b2 fe a6 be 58 90 8a be 29 8d 01 bf
       -0.11432214 -0.32616192 -0.2706325 -0.5060602
000150 cf b0 1a bf a3 fb b8 bd 84 18 67 be 92 9f 50 be
       -0.6042604 -0.09032371 -0.22567946 -0.20373371
000160 5d 14 99 3e c2 49 b2 3e 7c 00 65 3d 28 8d 15 3f
       0.29898348 0.34821898 0.055908665 0.5841851
000170 52 a5 59 be 10 4b da be 7b e5 ad 3e aa 1c 5e 3e
       -0.21254471 -0.42635393 0.33964142 0.21690622
000180 c1 af c0 bc 23 21 83 3e 53 46 03 be 0d cb c8 3e
       -0.023521306 0.2561122 -0.12819795 0.39217415
000190 53 35 1b 3f 7d b5 f5 3d de 7f 9f 3c 30 78 a2 3e
       0.6062824 0.11997507 0.019470152 0.3173232
0001a0 c0 fd 01 3e ad f4 67 be b7 5b 11 bd bb 65 0a bd
       0.12694454 -0.2265193 -0.035487857 -0.033788424
0001b0 c8 b4 ce 3e 45 e8 1d 3c 61 03 87 bd 10 34 c9 3e
       0.403723 0.009637897 -0.06592441 0.39297533
0001c0 b2 67 70 be 39 96 28 bd a0 ac a7 3b a6 8a 31 be
       -0.23477057 -0.04115889 0.005117014 -0.17338046
0001d0 a6 5c 9a 3d db 4a 72 3d 53 3b a0 be 59 c2 5f be
       0.075372025 0.05915342 -0.3129526 -0.21851481
0001e0 7f 7f 85 3e 1c 16 4a be a6 8a 76 be 57 27 86 be
       0.26073834 -0.19734997 -0.24076328 -0.2620189
0001f0 7b 1e d8 be 14 90 33 bd 0a 6d 99 3e 5b e8 13 3e
       -0.42210755 -0.043838575 0.29966003 0.14444105
000200 5c 09 80 3e d8 89 01 3e aa 43 83 be 7b 26 0c 3e
       0.2500714 0.1265024 -0.2563756 0.13686554
000210 f8 3d c7 bc 92 75 c9 bd b6 f1 9a 3e c5 0d 92 bd
       -0.024321541 -0.09836878 0.30262536 -0.071315326
000220 51 60 51 be a0 08 17 bf 51 43 4e 3e 2d ed 0b 3f
       -0.20446898 -0.58997536 0.20142867 0.54658777
000230 ab 7f b2 3c 01 8c 50 3e e1 a7 41 3e 67 66 8d 3d
       0.021789392 0.20365907 0.18911697 0.06904297
000240 75 88 6c 3d 04 08 03 3e e1 99 73 3d 5d 3a 57 3e
       0.057747323 0.12796026 0.059472922 0.21018358
000250 16 7f af 3e 81 bb 80 3e 1b 8c 23 be 71 f8 0a 3e
       0.34276646 0.25143054 -0.15971415 0.13571335
000260 9b d0 9a ba 7f a7 c7 bd c0 f8 55 be e5 b3 7b be
       -0.0011811437 -0.09748744 -0.20895672 -0.24580343
000270 64 ab 4a 3d 0d 6a 4a 3e b3 87 92 bd 38 40 94 be
       0.049479857 0.19767018 -0.07154789 -0.28955245
000280 6a 2b 4c 3e 16 cd 80 bd
       0.19938436 -0.06289117

bias f4 [6]
000000 b2 6c b1 3d 58 04 de bd ff c5 85 bd d8 95 86 3e
       0.0866331 -0.10840672 -0.065319054 0.26286197
000010 f9 d4 5b 3c d5 dc 8e 3d
       0.013417476 0.06975714

weight f4 [6, 6, 3, 3]
000000 da 40 da 3e cd 09 04 3f 97 20 80 3e 0f a1 75 be
       0.42627603 0.51577455 0.25024864 -0.2398722
000010 9a b1 af be 42 97 f0 be bb 27 1e be ac 0d f2 bc
       -0.34315187 -0.469904 -0.15444843 -0.029547535
000020 02 2b 6f 3e d0 37 93 3d 4a d9 15 3c 64 eb e3 bc
       0.2335625 0.0718838 0.009146044 -0.027822204
000030 5e 24 b2 3e 8d 22 c1 3e f0 df 96 3d b4 f1 b8 be
       0.3479337 0.37721673 0.073669314 -0.36121905
000040 95 b8 b9 be 1c 35 1f bd c8 80 6f be a7 b3 e0 bd
       -0.36273637 -0.03886901 -0.2338897 -0.10971766
000050 be fb ba bd ca 4e d1 3e eb bf bc 3e 2d 57 19 be
       -0.09130047 0.40880424 0.36865172 -0.14974661
000060 f2 5a a8 be fc 32 8c be 0c 1b 65 3d dd 8c 75 3e
       -0.32881886 -0.27382648 0.055933997 0.23979516
000070 80 98 02 3d de a5 f1 3c f7 fe 4f be da 81 95 be
       0.031883717 0.029498037 -0.20312105 -0.2920063
000080 26 1f 78 be aa b8 99 bd 41 6d 8c bc 6f cc c1 3e
       -0.24230632 -0.07505925 -0.01714194 0.37851283
000090 39 23 67 3c 20 55 ae be 3d 75 35 be ac 12 0f be
       0.014107519 -0.3404932 -0.17720504 -0.13971967
0000a0 4a 6e 82 bd 06 5b 69 3e 77 b8 9a 3d c7 21 a7 3e
       -0.06368692 0.22788629 0.07554715 0.32642958
0000b0 4d 8b cc 3a 5c b8 82 3e 17 bf 84 3e 0d d6 9c 3d
       0.001560548 0.2553128 0.2592704 0.076580144
0000c0 30 be 36 3e e9 4c 9a 3d 31 b5 35 3c a6 f0 ed be
       0.17845988 0.07534201 0.011090563 -0.46472663
0000d0 83 24 e3 be 74 a2 7c bd f8 5b 85 3e 25 02 e2 3d
       -0.44363794 -0.061678365 0.2604673 0.11035565
0000e0 e7 49 49 bd e5 78 da 3d 40 7c e9 3d 89 71 39 3d
       -0.049142744 0.1066759 0.11400652 0.04527429
0000f0 53 94 c8 bd 72 c4 c6 bd 7e 64 66 be 04 82 d5 bd
       -0.097939156 -0.09705438 -0.22499272 -0.10425189
000100 1f 51 2a bc d9 1f a4 bd 2f d1 25 be bf e4 86 bc
       -0.010395317 -0.08013887 -0.16193078 -0.016466497
000110 b1 d3 33 be 50 aa 43 3c 47 f8 81 bd df 43 5a 3d
       -0.17561223 0.011942461 -0.06346183 0.053287383
000120 dc 8d 09 3d 8a 8d d0 3d bc 3f 6d bd 33 34 d9 bd
       0.033582553 0.101832464 -0.05792211 -0.10605659
000130 80 80 87 bd b3 46 49 bc f7 46 e3 bd d2 37 30 3e
       -0.06616306 -0.012284922 -0.1109752 0.17208794
000140 85 3e 1a 3b fe 01 9f 3e b2 cf f8 3e ad bd de 3e
       0.00235358 0.31056207 0.4859596 0.43504086
000150 1c 14 d1 3e f4 db 96 3e 6a 99 51 3e 5d 59 28 be
       0.40835655 0.29464686 0.20468679 -0.1644034
000160 a6 e7 1f bd 30 0f 78 be de 36 4e 3d 5d 79 1f be
       -0.039039277 -0.24224544 0.050345294 -0.1557364
000170 70 d1 81 3d fe 78 09 3e c0 81 c1 bc 93 9b c4 bc
       0.06338775 0.13425061 -0.02362144 -0.023999965
000180 7d e1 ee 3d 8f 30 04 3e 2b 7e 0d bd 1e 6f 97 bd
       0.11664102 0.12909149 -0.03454415 -0.07394241
000190 73 24 bf 3b 5b 90 35 be 4c 91 0f 3e 61 17 24 be
       0.0058332025 -0.17730848 0.1402027 -0.16024543
0001a0 f2 3f 0c 3c e7 17 00 be f6 07 a6 3d 0b 96 c4 bd
       0.008560168 -0.12509118 0.08106987 -0.09598931
0001b0 10 1b 01 3e 4b 1f 70 be 45 3d 08 bd 80 50 47 3e
       0.1260798 -0.23449437 -0.033261556 0.19464302
0001c0 d5 1c 87 be 75 70 de bd 0f 26 d8 3d 51 c7 58 bc
       -0.26389185 -0.10861293 0.10554134 -0.0132311145
0001d0 84 2c a3 3e 7e 8f af be 85 16 cc 3e 46 76 04 bd
       0.318699 -0.34289163 0.3986093 -0.032339357
0001e0 df 52 9b be a9 8b ca 3e bc cb 39 be fc 4c c2 bd
       -0.30336663 0.39559677 -0.18144125 -0.0948734
0001f0 b9 44 b6 3e fa f0 a4 be 09 0c ba be 73 65 4d 3e
       0.35599306 -0.322151 -0.36337307 0.20058231
000200 a0 6d 4e be 48 cf 67 be b8 4a 03 3f 93 d4 6c be
       -0.20159006 -0.22637665 0.51285887 -0.23127966
000210 29 32 8b bc 46 9c 07 3f b5 86 c0 be b1 b2 93 be
       -0.016991692 0.5297283 -0.37602773 -0.28847268
000220 ef f8 8f 3d ad 90 09 bd 0d c0 91 be 64 46 ae 3e
       0.07029902 -0.03358524 -0.28466836 0.3403808
000230 38 f6 02 be 7a 88 10 be 6a 02 fd 3e c6 3a 4c be
       -0.12789237 -0.14114562 0.49415904 -0.19944295
000240 ac 9f b6 3d 64 bd 8d be e4 28 f9 3d 88 87 a3 3c
       0.08917174 -0.27683556 0.121660024 0.019962087
000250 b6 74 86 be 3b 5b 86 3e a8 d9 23 3e dc 2b 8f be
       -0.26260918 0.26241478 0.16000998 -0.2796315
000260 bf bd 35 3e 3d 49 e1 bc 7a b4 50 bc d0 a3 20 3d
       0.17748164 -0.027500743 -0.012738341 0.039218724
000270 97 a7 ba 3d c9 a8 bb 3d e0 07 6f 3c 7c ee 47 be
       0.091139965 0.091630526 0.01458928 -0.19524568
000280 ab 5c 23 3d 15 6a f7 bd 18 ec db 3d e4 70 8a bd
       0.039883297 -0.120807804 0.10738391 -0.067598134
000290 26 f4 04 be 99 f1 90 3c 1e c1 28 bd ac 36 81 3d
       -0.1298376 0.017693328 -0.041199796 0.06309256
0002a0 ca 01 b6 bc b4 c3 6c 3e 78 ba 77 3e 96 12 a3 be
       -0.02221765 0.2312153 0.24192226 -0.31850117
0002b0 7a 82 83 3b 62 c0 ae 3d 45 9d 83 be fb 2d cf bd
       0.0040133568 0.08532788 -0.25705925 -0.10116192
0002c0 c6 cf 0c 3e 40 fc f9 bd d5 46 98 bd 2a b7 0d be
       0.13751134 -0.12206316 -0.07435385 -0.13839403
0002d0 41 b0 0b be f8 3e 49 bd 79 2c 6a 3e de de 8a be
       -0.13641454 -0.049132317 0.22868527 -0.2712316
0002e0 0f ca 86 be c5 a1 c9 3d 36 21 19 bd c1 10 d0 be
       -0.26326033 0.09845308 -0.037385188 -0.40637782
0002f0 45 99 92 be a6 c2 4a bd 65 7b cf bc 7b 39 c0 bd
       -0.2863256 -0.049502037 -0.025327394 -0.093859635
000300 12 e1 4a 3d b3 79 15 bd bd b7 61 be 3a 66 2f 3e
       0.04953105 -0.036493015 -0.22042747 0.1712884
000310 1c 3a 53 bd 8a ed fd bd 3c 9c 56 3d 64 dd 9b 3d
       -0.05156909 -0.123988226 0.05239509 0.07610586
000320 b8 2b 3e bb ba 4c 8b 3d 96 7b a8 bd 66 58 95 3d
       -0.0029017758 0.06801744 -0.08226697 0.07292251
000330 13 2a af 3b f5 8e 56 3d b0 d4 96 bc 99 88 8e bd
       0.005345592 0.05238243 -0.018411964 -0.06959648
000340 26 73 00 be 51 f2 25 be 07 98 80 3e 45 39 4b bd
       -0.12543926 -0.16205718 0.25115988 -0.049615163
000350 55 75 60 be 4b 79 c0 3e 6b b2 85 3e 3b ad ae bd
       -0.21919759 0.3759254 0.26112685 -0.08529135
000360 38 b7 26 be b1 ca 89 bd 5c 88 37 3e 72 3f 44 3e
       -0.1628083 -0.067281134 0.1792311 0.19164827
000370 b8 71 29 be bf 40 08 3e 7c 7a 9c 3d 3b bf 42 bd
       -0.16547287 0.13305949 0.076405495 -0.047545653
000380 fe 33 9d bd 24 8c bb 3e 3e 9d e4 3d 5b 95 be bd
       -0.07675932 0.36630356 0.11162804 -0.09305831
000390 fc 7a 4e bd 22 95 db 3e 3f a7 f5 bc aa 54 82 be
       -0.050410256 0.42887217 -0.029986976 -0.2545522
0003a0 f7 17 24 be 4e 03 d1 bc 87 10 9e 3e fe 05 1f 3e
       -0.16024767 -0.025514271 0.30871984 0.1552963
0003b0 d2 91 aa be 35 57 07 bf 21 1a c3 3e 82 fe 67 bd
       -0.33314377 -0.5286744 0.38105872 -0.056639202
0003c0 65 26 12 bd 77 e6 2c be 48 80 cd 3e 85 2f 80 3e
       -0.035681147 -0.1688479 0.40136933 0.25036255
0003d0 20 42 0e 3d cd e9 6a be 0d f9 85 bd a5 4a 99 3e
       0.03473103 -0.2294075 -0.06541643 0.29939762
0003e0 a9 51 23 be 3c c2 4b be fd 6e 46 3d 7f 35 20 3e
       -0.1594912 -0.19898313 0.04844569 0.15645407
0003f0 3c 02 49 3c d7 63 f6 3d f3 59 87 be fa f6 92 3d
       0.012268599 0.12030762 -0.26435813 0.07176013

bias f4 [6]
000000 00 92 5a be b1 11 fc 3d 7b 4c 78 bd 42 e2 b3 3d
       -0.21344757 0.12308062 -0.060619812 0.0878339
000010 e6 ad 1a 3e 02 6c 1d 3e
       0.151054 0.15373233

weight f4 [16, 6, 3, 3]
000000 1e 0b 56 3e 16 fa 68 bd e2 3e d4 bb b5 69 2d 3e
       0.20902678 -0.056879126 -0.006477223 0.16934855
000010 74 58 a8 bd 92 33 25 3d 17 7a 07 3d 0b e3 ce 3d
       -0.08219996 0.040332384 0.03307542 0.10101899
000020 fc 09 67 3e 4d 7e 7b bd ca e2 17 3e 6d bb ce bc
       0.22562402 -0.061399747 0.14832607 -0.025235856
000030 20 b1 09 3e 4f bc 72 3e cf 50 6c 3e b2 c5 96 be
       0.13446474 0.23704647 0.23077701 -0.29447705
000040 ea af 37 be 6e 81 cb bc 17 49 90 3e 60 43 10 3e
       -0.179382 -0.02484199 0.28180763 0.14088202
000050 a7 9b 95 3e 6b 1a e3 3c 6e 76 c1 3d c0 f6 8d 3e
       0.29220316 0.027722558 0.09446417 0.27727318
000060 64 e2 06 3e 85 20 31 3d 48 c4 13 3d c3 c4 1a be
       0.13172299 0.043243904 0.03607586 -0.15114121
000070 50 bd a2 3d 98 bb d6 3d 45 c1 36 be 55 a3 f5 bd
       0.07946265 0.104849994 -0.17847164 -0.11994044
000080 ae 5d 11 bd 89 51 cf bd fb 99 92 be 0c 46 56 be
       -0.03548973 -0.101229735 -0.28633103 -0.20925158
000090 98 fe 62 bc 94 d5 45 be fc a3 51 bd 7a 40 d7 bc
       -0.013854645 -0.19319755 -0.05118178 -0.026275862
0000a0 04 d6 32 3d 02 37 e3 3d 0c 59 a7 be a1 c4 af be
       0.043661132 0.11094476 -0.32685125 -0.34329703
0000b0 a8 a3 ec 3c 47 0f 07 3e 95 aa 19 3e 75 5d 56 3e
       0.028886631 0.13189422 0.15006478 0.20934089
0000c0 ec b9 9b bd 99 55 89 3e 77 9b 22 3e 69 d8 23 3c
       -0.07603821 0.26823118 0.15879618 0.010000327
0000d0 12 34 84 3e 7e 28 90 3d 3b 8c c6 bd 6e 35 72 be
       0.25820976 0.07038973 -0.096947156 -0.23653194
0000e0 a3 8a 69 be 10 84 9d be 6b 35 cd bd ef f0 5d be
       -0.22806792 -0.30764818 -0.10019954 -0.2167394
0000f0 04 c4 05 3e a8 c2 cb bd 13 cc af 3d 11 19 fd bd
       0.13063055 -0.09949237 0.08583846 -0.12358297
000100 ee b0 88 bd 76 96 35 bc f1 7f 20 be b8 b7 c0 bd
       -0.06674372 -0.011083236 -0.15673806 -0.094100416
000110 22 0e 2e 3e 0f c6 7a be ad 4d d3 bd bb ae 4f 3e
       0.16997579 -0.24489616 -0.1031755 0.20281498
000120 db d5 1e 3e b3 85 9d 3d 07 2d c2 bc de 5d d1 3d
       0.15511267 0.07691517 -0.023703111 0.10222982
000130 8a 82 c8 3c b5 a1 0c bd 2e cd 46 bd a5 e1 9e bd
       0.024476308 -0.034333903 -0.04853552 -0.07757882
000140 e3 e6 94 3d b0 32 1c 3e bd 37 e0 bd ed d5 ab 3d
       0.07270601 0.15253711 -0.10948131 0.083904125
000150 a5 7e 9c 3e 7c 9a 14 3e e6 11 03 bb 17 e7 9e 3e
       0.30565372 0.14512056 -0.0019999682 0.31035683
000160 5d e9 41 3e 51 0f be 3e d1 5b a2 3d 39 00 ca 3d
       0.18936677 0.3712106 0.07927669 0.09863324
000170 bc 7c d4 3d 03 9a 3a 3c f5 7a 73 bc ce 50 38 3d
       0.10375354 0.011389258 -0.014860858 0.044998936
000180 e8 b8 51 be 17 b3 1a be 67 db 42 bd 15 c8 99 3a
       -0.20480692 -0.1510738 -0.04757252 0.0011732603
000190 6e 36 46 3e 45 2f d6 3d bb 8a 92 bd 00 16 e1 3c
       0.19356701 0.10458235 -0.07155367 0.02747631
0001a0 b8 fa 1d 3d 46 da 80 bd 01 21 18 3e 43 40 87 3e
       0.038569182 -0.06291632 0.1485634 0.26416215
0001b0 58 ba 8c 3c 3d 95 36 bd 54 f5 89 bc 43 57 ff bd
       0.0171787 -0.04457592 -0.016840614 -0.12467816
0001c0 5e 21 15 3c 6f 16 e1 3d 8b d5 20 3d fa 8b fb 3d
       0.009102194 0.10990607 0.03926615 0.12282558
0001d0 c4 1e 03 3e 99 0d b9 3d a8 c4 b2 3d 9b 6c 50 be
       0.12804705 0.09035797 0.087289155 -0.2035393
0001e0 2c 5b aa 3d 96 db 11 3e 1a 9e 87 bd bc 33 73 bd
       0.08318171 0.14243922 -0.06621952 -0.05937551
0001f0 50 06 de 3b 15 54 0d be fd 90 55 3d 0e b3 39 3e
       0.006775655 -0.13801606 0.052140225 0.1813471
000200 01 65 cc bc b5 6b 1b 3e 21 c4 eb bc 9e 77 02 3e
       -0.024950506 0.15177806 -0.028780045 0.12740943
000210 65 96 fd bb 9c 50 32 3e 15 26 06 3d a1 e1 6e be
       -0.0077388757 0.17413563 0.03275116 -0.23328258
000220 f8 bf e4 bd de 78 2f 3e 8b ac 88 be 18 3f aa bd
       -0.11169428 0.17135951 -0.2669414 -0.083128154
000230 15 ab 97 bd 0f 9b 1c 3d 3e db c0 bd f2 32 06 bb
       -0.07405678 0.038233813 -0.09416817 -0.0020477143
000240 bb 62 28 3e df 22 28 3e 09 ff 3f 3e 04 8d 8c 3e
       0.16443913 0.16419552 0.18749632 0.27451336
000250 68 60 59 3e ad cf 47 3d 13 24 3c 3e eb 30 5e 3d
       0.21228182 0.04878204 0.18373136 0.05424587
000260 e5 88 8c 3e 28 91 37 bd 38 2c e3 bd 20 64 8c be
       0.27448192 -0.044816166 -0.110924184 -0.2742014
000270 73 b8 5d bd 2c 97 88 be 3d ed 68 bd d8 29 1c be
       -0.054130983 -0.26677835 -0.056866873 -0.15250337
000280 0a 1f 1c be 5c b5 28 3d de fe 8b bd bc 45 86 be
       -0.15246215 0.041188583 -0.068357214 -0.26225078
000290 c6 83 33 be ab 9a 81 be 24 a9 60 be 3f c8 84 be
       -0.17530736 -0.25313315 -0.21939522 -0.25934026
0002a0 1d 53 0e 3e b9 ab 9d 3d bd 73 8b bc 61 42 f6 bd
       0.13898893 0.07698769 -0.017022962 -0.120243795
0002b0 66 48 4c 3d 7d 35 06 be d5 bb ed 3d b2 f0 68 3d
       0.049873732 -0.13106342 0.11608092 0.05687017
0002c0 8f e4 25 3e 17 2d 17 3d 6d 75 a6 bb 70 4f 2c 3e
       0.1620047 0.036908235 -0.005079916 0.16827178
0002d0 7f bf 43 3e 0e dd 1a 3e 2e 2d ec bc 60 48 19 3e
       0.19116019 0.15123388 -0.028830137 0.14969015
0002e0 11 1b 1d 3e d2 2b 19 3e 14 70 a9 3e 9a f9 62 3e
       0.15342356 0.14958122 0.3309332 0.22165528
0002f0 d7 97 3b bd 79 36 8c be 71 18 30 be 57 cb 2a be
       -0.045799103 -0.2738531 -0.17196824 -0.1667913
000300 60 25 86 be 62 73 55 be 2b e1 7d bd bc af 3f bd
       -0.2620039 -0.20844796 -0.061982315 -0.046798453
000310 64 50 21 bd 12 fd 5d be 6b 3b d9 bc 45 9c 5f 3d
       -0.039383307 -0.2167857 -0.02651759 0.05459239
000320 3c 11 b6 bc 7c e5 22 3e 8b e0 df 3d 96 12 a7 bd
       -0.022225015 0.15907854 0.109315 -0.08157842
000330 01 29 78 3e 45 1e 06 3b 78 b8 e8 3b 88 a4 fa 3d
       0.24234392 0.002046482 0.0071020685 0.12238413
000340 df c9 fa 3c 6a c3 18 be 80 48 06 3e 96 fd f5 3c
       0.030613838 -0.14918295 0.13113594 0.030028146
000350 01 33 f1 bd 76 53 2f 3e 5d d9 cb bd 1b bd 47 bd
       -0.11777306 0.17121682 -0.09953568 -0.04876433
000360 69 d6 33 3d 5b df f8 3d f6 d8 6e bd 59 11 c3 3d
       0.04390565 0.12151977 -0.05831238 0.09524793
000370 f0 5a 0e 3e 60 3f ca bc 02 66 1f 3c 59 25 a9 bd
       0.13901877 -0.024688423 0.00972891 -0.082590766
000380 3f c8 1a be 6e 19 61 be 0b c8 1d be 4d 30 28 bc
       -0.1511545 -0.21982357 -0.15408342 -0.010265422
000390 fe 43 c1 bd 22 38 0c 3e c9 b5 d2 3d f9 64 53 be
       -0.094367966 0.13693288 0.10288579 -0.20643987
0003a0 65 65 12 be 95 50 89 bd db 9f 9c 3e b8 ad 99 3e
       -0.14296491 -0.06704823 0.3059071 0.3001535
0003b0 af 90 a4 3e 41 a6 a6 3e 98 5f 57 3e b3 ae 34 3e
       0.32141635 0.32548717 0.2103256 0.17644767
0003c0 b9 7b 96 bd 6c 28 85 3d e1 93 1e bd 47 f4 2f 3d
       -0.07347817 0.065018505 -0.038715247 0.04295757
0003d0 d4 9c cc bd e8 b1 85 bc 26 4d 01 3e f6 29 7e 3c
       -0.0999085 -0.016320184 0.12627086 0.015512934
0003e0 b2 05 1a be 3e 9a 5d be 2a 3e ec bd 3f a8 64 bd
       -0.15041235 -0.2164087 -0.11535294 -0.055824514
0003f0 2f 99 69 3e a1 10 6a 3e 71 14 4d 3e 75 a1 7a bd
       0.22812341 0.22857906 0.20027329 -0.061189134

bias f4 [16]
000000 c6 a3 4d bf d4 34 37 bf 1c 3a 3e be 57 63 b1 3e
       -0.80328023 -0.71564984 -0.18576854 0.34646103
000010 83 59 a5 be f1 85 ea bc 0b 7a 21 3e f8 70 99 3d
       -0.32294855 -0.028628321 0.15769212 0.0749225
000020 9d 3a bb be bf 0f e9 3e 9e d3 06 be 95 ab e8 bd
       -0.36568156 0.45519826 -0.13166663 -0.11360852
000030 29 fb 47 3f cf 1b ac 3e 8c 2e 2d 3f e2 56 eb 3e
       0.78117615 0.33614966 0.6764915 0.45964724

weight f4 [16, 16, 3, 3]
000000 fd b5 20 bd 82 21 2b bd c3 40 89 3d 65 1f 23 be
       -0.039236058 -0.041780002 0.067018054 -0.15929945
000010 69 4f 1d be f2 ae 58 bd 70 fa b9 bd 52 e6 a3 bd
       -0.15362324 -0.052901216 -0.0908097 -0.080029145
000020 01 a9 00 be 97 a0 00 be 36 87 60 be 7e c4 5e be
       -0.1256447 -0.1256126 -0.21926579 -0.21754643
000030 19 b2 a3 3d 46 de 82 bd e1 92 86 3d 8f 79 f5 3d
       0.07992954 -0.063900515 0.06570984 0.11986076
000040 16 a5 11 3d 4b a8 1e 3e c6 dd 8a bd ff 4e ef bc
       0.03555783 0.15493886 -0.06780581 -0.029212473
000050 ce e7 2f be e9 04 00 bc 8f 1d 7a bd c4 35 9e bd
       -0.1717827 -0.007813671 -0.061063346 -0.07725099
000060 c1 b4 34 be 63 7a e4 bd 92 60 61 bd e5 24 ce 3d
       -0.17647077 -0.11156156 -0.055023737 0.10065631
000070 a0 6a 94 3b 84 48 88 bd 98 95 ff 3d 6a db 3d 3e
       0.0045293123 -0.06654456 0.124797046 0.18540731
000080 7f 67 8a 3d 3f 08 0e 3e 6b c6 60 3b c4 f4 70 3b
       0.067580216 0.13870333 0.0034297954 0.0036766985
000090 54 da 21 bd a1 fb 3b be b1 bc ec bd 89 a7 86 bd
       -0.039514855 -0.18357708 -0.115594275 -0.065749235
0000a0 33 69 54 be 73 31 28 be 42 da 2a bd 60 5c 40 be
       -0.20743255 -0.16425113 -0.041712053 -0.18785238
0000b0 6f 5a 22 be a6 10 c2 3d 00 5e ca 3d da 63 d7 3d
       -0.1585481 0.09475832 0.0988121 0.10517092
0000c0 c7 53 cf 3c 2d f3 23 3d 74 d4 d1 3d ac 34 ce 3d
       0.025308503 0.040026832 0.102456 0.1006864
0000d0 32 8b f5 3c e9 78 d7 3c 88 05 9b 3d 41 4d 43 3e
       0.0299736 0.026302772 0.075694144 0.19072439
0000e0 bc 03 1e 3e 9f 7d 09 3c 89 f9 07 3d 75 d4 04 3d
       0.15431112 0.008391767 0.03319696 0.032429177
0000f0 04 dc 9c bd a3 22 47 bd 3d d6 0c be 5f f7 4e 3b
       -0.07659152 -0.048617017 -0.137536 0.003158055
000100 fc e8 66 3c fa 58 8b ba a0 12 66 3e cf 49 16 3e
       0.014093634 -0.0010631375 0.22468042 0.14676593
000110 98 9e 81 bd 32 5c 21 3e 2c 0f 23 3e 38 be e3 3c
       -0.063290775 0.15757826 0.15923756 0.027800664
000120 d4 cb 0d 3e 5a 0b 56 bc 20 ba b4 bc 8f ca bd 3d
       0.13847286 -0.01306423 -0.022061408 0.092671506
000130 fe 98 9d bd b1 da 99 bc fc ce 90 3d b4 29 85 3d
       -0.076951966 -0.018781038 0.07070729 0.06502095
000140 50 0d 87 3c e5 a6 16 bd 31 7d ca bd 20 73 99 be
       0.01648584 -0.036780257 -0.098871596 -0.29970646
000150 f0 39 0e 3e 59 94 01 bd b1 f0 15 be 97 2d 99 3e
       0.13889289 -0.031635616 -0.14642598 0.29917595
000160 13 28 8a 3e d3 3e 86 3e c9 e5 26 be 93 dd c6 bc
       0.269837 0.26219806 -0.16298594 -0.024275577
000170 1a f5 26 3e 75 68 9a bd 3d 1e 79 3d 28 04 50 3e
       0.16304436 -0.07539455 0.060819853 0.20314085
000180 c3 57 b0 bd da 55 e8 bd f4 a5 52 bd 53 20 fb bc
       -0.08610489 -0.113445 -0.051427796 -0.030655062
000190 c0 b7 a3 bd 6c 3c 1e 3c 44 98 59 3e 4b 20 82 3d
       -0.07994032 0.00965796 0.21249491 0.06353816
0001a0 f7 a8 db 3c 49 ea 03 3d 3b 8c b7 3d a0 be 1d be
       0.026813967 0.032205854 0.08962294 -0.15404749
0001b0 af 35 43 3e 49 32 dd 3d 34 57 8a 3c 7d 85 80 3e
       0.19063447 0.10800607 0.016887285 0.25101843
0001c0 10 57 2f 3e 34 61 36 3d 23 c1 34 3e d8 f5 0b bd
       0.17123055 0.044526294 0.17651801 -0.03417
0001d0 a2 5b 41 be 1f 37 c5 bc e0 c1 30 3e b0 3d 5b 3e
       -0.18882611 -0.024074135 0.17261457 0.2141025
0001e0 44 f8 f6 bd 3d de aa bd d3 fa 46 bc c1 6d 40 be
       -0.12059072 -0.0834317 -0.012144762 -0.18791868
0001f0 a8 7d 33 be 5a b1 e8 bd 49 5b 0b bd c0 2f 80 bd
       -0.17528403 -0.11361952 -0.034022603 -0.062591076
000200 0c d9 1a be f5 ef 94 bc b1 ad 8e bd 13 41 f7 bd
       -0.1512186 -0.018180827 -0.06966723 -0.12072959
000210 c0 fb d2 3d 63 73 76 3d b6 c1 04 3e 25 73 3c bd
       0.10301924 0.060168635 0.1296452 -0.046008248
000220 4d 99 8e 3d 66 14 05 3e cc ec ed bc 33 09 ab 3d
       0.069628336 0.12996063 -0.029043578 0.08351364
000230 ac f9 7f 3d dd 0f 78 3d c9 41 ff 3d c3 ad 4d 3e
       0.062493965 0.060562003 0.124637194 0.20085816
000240 02 db eb 3c bc e1 9d bc 3e f7 2e 3d 7a e2 dd 3c
       0.028790955 -0.019272678 0.042716257 0.027085532
000250 2a 7f 0c 3d b5 57 64 bb 31 c3 8b 3d dc 28 17 3c
       0.03430096 -0.0034842317 0.06824339 0.00922605
000260 8d 9c e9 3d 29 f5 31 3e 1e d3 a7 bc c6 67 0f bd
       0.11406813 0.17378677 -0.02048641 -0.035011075
000270 c8 ae 36 3e 8f 8f 0c bc aa 1b 58 bb c8 e5 33 3e
       0.17840111 -0.008579149 -0.0032975473 0.17568123
000280 50 c0 eb 3d 4b fa fa bc 7c 16 d7 3c 88 12 1d bb
       0.1151129 -0.030636927 0.026255839 -0.0023967344
000290 a4 3a 72 3d 8a 82 b0 3b c8 71 d7 bd 60 5e 69 bd
       0.059137955 0.005386655 -0.10519749 -0.05697477
0002a0 13 bd de bc 98 20 39 bc e6 30 9b bd 4d 2d 3d 3e
       -0.027189767 -0.011299275 -0.07577686 0.18474312
0002b0 ce 19 33 3d 48 a1 78 bc 9c 33 1c 3e dd a6 5b 3d
       0.04372578 -0.015175171 0.15254062 0.05362593
0002c0 8a 28 e3 3d 3a cc 4d 3d 41 19 b0 3d b0 4c 0d 3e
       0.110917166 0.050243594 0.08598567 0.13798785
0002d0 4c 52 c2 3c 29 ff 89 bd 41 8d 7e 3d 4d f9 c5 3b
       0.023720883 -0.06738121 0.06214643 0.006041682
0002e0 da 36 c8 bd 41 42 10 be 46 57 86 bc de a4 0b be
       -0.09776087 -0.14087774 -0.016399037 -0.1363711
0002f0 f4 4f 03 bd 7f c1 bf 3c 7d 9d 48 bd ca f6 a9 bd
       -0.03205867 0.023407696 -0.048978318 -0.082990244
000300 3e c5 9b bd 52 dd c7 3c 4a bc f6 3d 4f ff 21 bd
       -0.0760598 0.024397526 0.12047632 -0.039550122
000310 3d f1 a1 3d 2f 25 07 3e ca 4c 86 bd 7b 05 f4 bc
       0.07907341 0.13197778 -0.06557615 -0.02978777
000320 06 da 90 bb b9 8f 84 bb 35 6b 23 bd 03 95 c5 bc
       -0.0044205217 -0.0040454534 -0.039897162 -0.024118906
000330 a5 9b d9 3d b9 35 ad 3d 68 43 2d 3d c5 b5 e6 bc
       0.1062539 0.084575124 0.04230061 -0.028162846
000340 a2 e9 c3 bd ca d9 e2 bc 94 43 2d be 1f 24 87 bd
       -0.09566046 -0.02769174 -0.1692031 -0.065986864
000350 cc 90 c4 bd 44 3d 09 bd bc 83 af bc 66 1d b6 bd
       -0.0959793 -0.033505693 -0.02142512 -0.08892326
000360 ad 8c 36 bd 47 0d d4 3c 62 29 35 bd c1 46 57 3b
       -0.044567753 0.025885237 -0.04422892 0.003284857
000370 b9 1b 92 3c e3 7a 9e 3c 95 f8 ac 3d 4f 61 c8 bc
       0.017835485 0.019345706 0.08445851 -0.024460463
000380 b1 31 8f 3d 6d 6b 1d be b2 05 4e bc be be 58 bd
       0.069919 -0.15373011 -0.0125746 -0.05291628
000390 06 28 96 bd c4 6a 46 bd 9f 8f 6b bd 96 8d 36 bc
       -0.073318526 -0.048441663 -0.057510015 -0.011142155
0003a0 42 c5 c4 bd 70 0c 07 bc f7 6f 30 bd 88 9a 94 3b
       -0.096079364 -0.008242711 -0.043075528 0.004535023
0003b0 84 7f 87 3d 64 40 fe 3d 37 f3 ac 3c c9 6d f9 3d
       0.066161186 0.12414625 0.021112068 0.12179143
0003c0 70 46 37 bb c9 d1 b5 3d fa 2d c0 3d cb fa 89 3d
       -0.0027965568 0.08877904 0.09383769 0.06737288
0003d0 50 0b b4 bc 48 54 f5 3d e1 92 7d bc 68 fa 9b bd
       -0.02197805 0.11978966 -0.015476913 -0.076161206
0003e0 ea c3 0c 3b 95 c6 fb bc 7c 50 f9 bc d5 98 bc bd
       0.0021479079 -0.03073434 -0.030433886 -0.09208838
0003f0 28 85 44 3d d3 ac 74 3d 59 2d 05 3e 43 b9 52 bc
       0.04797855 0.05973513 0.1300558 -0.012861553

bias f4 [16]
000000 27 51 0c be e1 cd 5e be 95 31 1d be d0 7e eb be
       -0.13702832 -0.21758224 -0.15350945 -0.45995188
000010 a9 b0 87 be 32 4e 6a be b4 78 87 3e 66 ff 96 3e
       -0.26501969 -0.22881392 0.26459277 0.2949173
000020 42 69 b7 3c 9f c7 67 be 46 a8 3e 3e a6 73 6a be
       0.022389058 -0.22634743 0.18618879 -0.22895679
000030 d5 3a f7 3e dd 67 85 3e 15 c3 56 bd a9 23 7d 3e
       0.48287073 0.26055804 -0.05243214 0.24720635

weight f4 [120, 400]
000000 7f 81 25 bd d2 be 65 bb 08 46 bc 3c 14 d7 8d bd
       -0.0404067 -0.0035056365 0.022982612 -0.069257885
000010 e4 8e c0 bc 65 ce 10 bd 15 7b c8 3d 76 96 ad 3d
       -0.023505636 -0.035353083 0.09789101 0.08475964
000020 fb 2c 36 bd 0b 72 80 bd f6 69 e8 bc 0e 5d d8 3b
       -0.04447649 -0.06271752 -0.028370839 0.00660289
000030 b5 e9 dd 3d 18 ab 21 3d 8b fd a5 3c 36 6c c3 3b
       0.10835592 0.03946981 0.0202625 0.0059638275
000040 aa 84 ad bd 90 ab 94 bc 27 b5 17 3d 7c ad 88 bd
       -0.08472569 -0.018148214 0.037037995 -0.066737145
000050 a3 4e b6 3d fa 7a 09 bc c0 82 c1 3c ec f3 ad 3d
       0.089017175 -0.008391136 0.023621917 0.0849379
000060 e4 d7 2c 3d ac 7d 35 bd ed 12 14 3d ec 37 e7 bc
       0.042198077 -0.044309303 0.03615086 -0.028224908
000070 91 47 a4 bd 86 18 a0 bd c3 ee 84 bd ec c8 99 3a
       -0.08021463 -0.078171775 -0.06490853 0.0011732853
000080 49 d5 cc bc c4 4f 6a ba 8b 59 4d bc 60 f8 df 3b
       -0.025004046 -0.00089382776 -0.012533556 0.0068350285
000090 55 51 a2 bb ca 26 08 bd c2 b2 37 3c c8 74 89 bd
       -0.004953543 -0.033240117 0.011212053 -0.067117274
0000a0 9f 90 0d bd 1e 40 0e bd 57 0b a1 b9 cb 5b b0 bd
       -0.03456175 -0.034729116 -0.00030716762 -0.08611258
0000b0 a0 fc 9b 3b 91 09 9e bd 83 87 a8 bd 05 2c 0b 3c
       0.00476034 -0.077166684 -0.08228972 0.008494382
0000c0 b1 53 e4 bb 4b 99 a4 bd 81 1a af bc bc a2 c3 bd
       -0.0069679846 -0.08037051 -0.021374943 -0.095525235
0000d0 a3 1f 69 bd 74 45 96 3c 68 2f 8b 3c 77 87 3f bc
       -0.056914937 0.018343665 0.016990378 -0.011690012
0000e0 8e 0d 0e bc b3 2f e7 3c d9 f9 70 bc ec 14 1c bd
       -0.008670224 0.028220987 -0.014708006 -0.03810589
0000f0 77 2e 08 3c 33 98 d7 3d 36 01 04 bc 42 d3 94 3c
       0.008311859 0.105270766 -0.008056929 0.018167142
000100 c1 25 bb 3d ac 83 31 bd 39 c5 d3 3c 33 10 0a bd
       0.0913806 -0.043338463 0.025850879 -0.033706855
000110 06 6e 37 3d b4 33 e6 3d 7a d7 ea bd 3b 94 c1 ba
       0.04478266 0.1124033 -0.1146688 -0.0014768908
000120 0d 86 47 bc 99 a7 36 bd c9 43 0f 3e 74 fb 8e bb
       -0.012177956 -0.044593427 0.13990702 -0.0043634716
000130 ee 9d 3a bd 19 8f 4c 3c fd 32 22 3c c4 ff 9f bd
       -0.04556077 0.012485289 0.009899852 -0.07812455
000140 08 58 41 bb d4 1f 9c 3c 80 a1 d0 bc 9d cc 84 bd
       -0.0029501934 0.019058146 -0.025467634 -0.064843394
000150 07 62 a5 bc 94 b2 42 bd b7 9e 11 bb df 8f 24 bd
       -0.020188345 -0.047533587 -0.0022219846 -0.04017627
000160 d2 7e 46 3a 07 b8 40 bc 35 8b 70 bd de a8 38 bc
       0.0007571998 -0.011762626 -0.05872651 -0.01127073
000170 00 44 be bd 67 aa e4 bc 41 ba 7a 3c b7 ff 2d bd
       -0.09290314 -0.027913285 0.015303195 -0.042480197
000180 1a 27 91 bd 43 05 13 be 8c 1f 81 bd fd 55 24 3b
       -0.07087536 -0.14357476 -0.06304845 0.0025075667
000190 43 b2 9c bc 9b d9 42 bd 9e a4 93 bd 7f 1c 4e bd
       -0.01912797 -0.047570806 -0.072091326 -0.050320145
0001a0 0f b6 99 bd fa c9 49 3d 95 27 3c bd f7 27 a2 bc
       -0.07505428 0.049264885 -0.045936186 -0.019794447
0001b0 60 36 43 bd d3 f9 60 3d 23 15 86 3d 3e 2e 0c bd
       -0.047659278 0.05492575 0.06547 -0.034223787
0001c0 9b c9 87 3c 30 6e 9e 3a 05 5d 01 3e 77 9b 85 bb
       0.016575625 0.0012087282 0.1263314 -0.0040773707
0001d0 9c 6b 08 bd 69 d4 6a bd e2 80 9b 3b 36 19 75 3d
       -0.03330575 -0.057331476 0.0047455886 0.059838496
0001e0 4a f5 0d bd e1 ef 1d 3d 30 9c 9d 3d e9 40 3a 3c
       -0.034657754 0.038558844 0.07695806 0.011368015
0001f0 d3 86 29 bc f3 84 80 3d cc af c5 3c c8 ae a0 3c
       -0.010347086 0.06275358 0.024131678 0.019614592
000200 47 89 c3 bc 68 73 ca 3b e4 76 96 bd 6c 06 59 bb
       -0.02386917 0.0061783083 -0.07346895 -0.00331154
000210 d1 f1 0b 3d 64 21 7f bd f9 e2 37 bd 96 a1 01 bd
       0.03416616 -0.062287703 -0.044894192 -0.03164824
000220 e3 56 5a bd e8 43 52 bd 45 cd b3 bd 09 da dc bb
       -0.053305518 -0.05133429 -0.087793864 -0.006739859
000230 d9 85 87 bd 8c 0c aa bd 11 c3 db bd 79 41 34 be
       -0.06617326 -0.083031744 -0.10730565 -0.17603101
000240 ac dd fe bd c9 5e 61 3d 1f 84 92 3c 3b 54 fc bd
       -0.12444624 0.055022035 0.017885266 -0.12320753
000250 ac ac 0a be 61 66 14 be d7 3d c3 bc b6 68 00 bd
       -0.13542432 -0.1449218 -0.023833198 -0.03134986
000260 ca 27 d1 bd cc e0 5c bd 23 e4 a5 bd 69 6e ab 3c
       -0.10212667 -0.05392532 -0.08100154 0.020926671
000270 eb f0 28 3d db 81 4c bd e0 f3 bb bc 71 f5 43 bd
       0.041245382 -0.049928527 -0.022943437 -0.047841493
000280 0b 79 19 3d bc 5c b7 3d 5e 1d e5 ba e9 f9 55 bb
       0.03746895 0.089532346 -0.0017480066 -0.0032650179
000290 1e 25 9a bc 30 9c 7e bc e3 63 c7 3d f2 ff c8 3d
       -0.018816527 -0.015540168 0.09735849 0.09814443
0002a0 81 51 23 3d 71 b3 ef 3c 8d 20 da bc b0 f2 96 bd
       0.03987265 0.029260369 -0.02662685 -0.07370508
0002b0 3c 17 df bc 6d 4c ce bc 36 e0 bd 3c 2c bf 97 bc
       -0.027232759 -0.025182927 0.023178201 -0.018523775
0002c0 c3 a4 60 bd bc ac 79 bc 42 3d b9 bb b1 1d 22 bc
       -0.05484463 -0.015238937 -0.0056530545 -0.009894774
0002d0 87 85 24 bd 8d 4c 06 bd 9b c3 5e bd 9e 6e 87 bd
       -0.040166404 -0.03278785 -0.054385763 -0.066128954
0002e0 57 ea cb bc e0 c0 3e bd 48 b9 ef 3c d5 51 33 bd
       -0.024892015 -0.04657066 0.029263154 -0.043779213
0002f0 53 cd b4 bb 5d ab 15 bd 9f 9a 57 3c 4d 01 d9 3c
       -0.0055176406 -0.036540378 0.013159423 0.026489878
000300 1f 78 a7 bb 21 d9 0c 3d 32 c3 4c 3c 73 10 43 bc
       -0.005110755 0.034386758 0.01249771 -0.011905777
000310 2d f3 a8 3d db 17 8b 3d b2 6b d5 3c b2 8a 27 3d
       0.08249507 0.067916594 0.02605233 0.040903755
000320 84 0f 40 bc a9 a3 7c 3b 95 b9 96 3d e3 4d 8c 3d
       -0.011722449 0.0038549697 0.07359616 0.06850793
000330 67 1e 2b 3d 3f 7c f1 bc 2b 92 6f bd 31 a3 71 bc
       0.04177704 -0.02947819 -0.058489006 -0.0147483805
000340 14 f0 5e 3c 54 77 54 3c a1 c1 29 3d 3a 9a 3d 3d
       0.013607044 0.012967903 0.041444425 0.04628966
000350 5a 30 8d 3d 45 49 e5 3c e1 3e c6 3c 6e 2c f6 3c
       0.06893988 0.02798904 0.024199905 0.030050483
000360 cd 62 3c bd af 7c 3a bb 68 6f 71 bb 95 f7 a6 b8
       -0.04599266 -0.0028455665 -0.0036840085 -7.9616126e-05
000370 c5 d9 06 3c f1 39 e7 3b 29 57 2e 3d ce f8 7b bb
       0.008230631 0.0070564677 0.04256359 -0.003844786
000380 0c a9 4e bc 21 8e aa 3d 66 97 ba ba 94 0b 41 bd
       -0.012613546 0.0832789 -0.0014235794 -0.047130182
000390 5c 4c 95 bc e3 f0 b0 3d 28 98 8a 3c 0f 77 02 bd
       -0.018224888 0.086396955 0.016918257 -0.031851824
0003a0 c7 da 03 bd 4d 99 30 bd e4 85 0d 3d 43 4e ed 3b
       -0.032191064 -0.04311495 0.034551516 0.0072419955
0003b0 b9 f8 87 3d f3 63 0d 3c 6c 43 6f bc e3 3b b6 3d
       0.06639237 0.008629787 -0.014603477 0.08898141
0003c0 eb e5 21 3c 41 b2 50 39 a6 0c 4e 3c 6e bb a2 bc
       0.009881477 0.0001990283 0.012576258 -0.019864764
0003d0 7c 7b a3 3d c6 87 c3 3c 6d 7a a7 3c e0 19 2d bd
       0.07982537 0.023868453 0.02044412 -0.042261004
0003e0 ce 99 f1 bc f3 1c a4 bc bd dd bc bc 66 f5 be 3c
       -0.029492285 -0.020033335 -0.023054952 0.023310374
0003f0 89 49 3e bc 6d 31 a4 bd 15 ef 83 bd 79 76 5c bc
       -0.011614212 -0.0801724 -0.06442086 -0.01345598

bias f4 [120]
000000 70 8d 52 bc 9c 9a 7b bd 38 bf b0 3d ea fe 2b bd
       -0.012851104 -0.061426744 0.08630222 -0.041991152
000010 86 60 b5 3d 48 36 92 bd 72 53 84 3d 9b bc ae 3b
       0.08856301 -0.071392596 0.064612284 0.005332542
000020 3b bd b2 3d d8 61 e7 3c c8 64 36 3e 6e 78 13 bd
       0.08727499 0.028244898 0.17811882 -0.036003523
000030 ef 48 c2 3d c9 cc 25 bd 7d 8f 8d 3c 44 49 84 bd
       0.09486567 -0.0404785 0.017280335 -0.06459287
000040 f2 41 e8 3d b7 3d bf 3c f2 91 31 3d 9d 4f a5 bc
       0.11340703 0.023344858 0.043352075 -0.020179564
000050 ea 51 eb bc 6c 5d 9e 3d 7b 33 b9 3c 2b fa 07 3d
       -0.028725583 0.077326626 0.022607556 0.033197563
000060 d8 55 78 bd 3b e1 c4 bd 65 e7 b9 3d be 0c a4 3b
       -0.060628742 -0.09613272 0.09077338 0.005006402
000070 a7 9b 2e 3d 13 e4 a3 bc 11 b8 db bc bc bf e1 bc
       0.04262891 -0.020006215 -0.026821168 -0.027557246
000080 86 e0 3a bc 63 3c b4 3c c7 fb 28 3d ca 0a 72 3d
       -0.01140607 0.02200145 0.04125574 0.05909232
000090 74 01 e0 3d 20 96 b4 3c d3 d4 8c 3d e0 bc fd bc
       0.10937777 0.022044241 0.068765305 -0.030973852
0000a0 e3 21 a4 bb f1 d9 33 3d 19 8d 71 bd 30 59 82 3d
       -0.0050089224 0.043909017 -0.05897245 0.063646674
0000b0 40 da 1d 3d f3 ee 4d 3d 01 4c 8d bd 63 81 57 3d
       0.038538218 0.050276708 -0.06899262 0.052613627
0000c0 fb b7 1f bd 9e 28 e7 3c 94 dd cd bd 2e 7d 18 3e
       -0.038993817 0.02821761 -0.10052028 0.14891502
0000d0 80 2f f0 3d ab 1c 3c bc ba 2b ca bd 38 20 d2 bd
       0.1172781 -0.011481444 -0.098716214 -0.102600515
0000e0 c8 ea a5 3d d6 22 8c 3d 06 14 60 3c e2 36 4c bd
       0.081014216 0.06842582 0.013676649 -0.049857028
0000f0 ed b7 0c 3d 80 7b 0c 3c 79 e7 82 3d ee 08 ee 3d
       0.034355093 0.008574367 0.06391806 0.11622797
000100 40 5a bc bc bf 68 f8 3d 4c 9a ed 3d 68 a6 0f bd
       -0.022992253 0.12129354 0.116016954 -0.035070807
000110 63 db 1b 3d 5d 89 91 bc 9a 42 b5 3d 84 48 07 bd
       0.03805102 -0.017765695 0.08850594 -0.03302814
000120 c4 fe 56 bd 13 32 a4 3d cb 7c 1f bd 26 f5 11 bd
       -0.052489057 0.080173634 -0.03893737 -0.035634182
000130 d6 cd 4d 3d da eb e1 bc 22 ed 93 3b 7c 98 ec bc
       0.05024513 -0.027578283 0.0045143524 -0.028881304
000140 99 5a c6 bc a7 9f 71 3c b0 25 f2 3c 4f 28 95 3d
       -0.024213122 0.014747537 0.029558986 0.07283079
000150 73 1c da 3d 13 83 20 bd 3b 7b 1c bd cb 63 2d 3d
       0.106499575 -0.039187502 -0.03820346 0.042331498
000160 9a b7 96 bc 7f 05 3f 3c 55 17 f6 3c 95 0e b3 3a
       -0.018398095 0.011659025 0.030040422 0.0013660962
000170 71 14 16 3d 15 1c 28 3d d9 4d 15 3e ae a7 e4 bd
       0.03664059 0.041042406 0.14580478 -0.11164795
000180 59 d8 a4 bc bf 13 54 3b f5 80 a3 3c 1f 32 48 3d
       -0.020122694 0.0032360402 0.019958952 0.048875924
000190 1a 97 04 be 9c b3 55 bd b5 ed df bc 87 93 7e 3d
       -0.12948266 -0.052173242 -0.027335027 0.06215241
0001a0 c8 c7 4a bd 22 83 c8 3d ba af 55 bd 9d 6e 21 bd
       -0.049506932 0.097906366 -0.05216954 -0.03941213
0001b0 4d 7e 09 bd 99 bd ad bc 95 3b 3e bc c0 b4 46 3b
       -0.033567715 -0.021208571 -0.011610885 0.0030320138
0001c0 5a 84 7d 3d 45 3c bf 3c 82 85 47 b9 c7 fe f3 3d
       0.0618938 0.023344168 -0.00019027854 0.11913829
0001d0 d6 13 b4 bc 25 8c dd 3b 19 16 9b bd 5b 0c b8 3c
       -0.021982115 0.0067610913 -0.07572574 0.022466829

weight f4 [84, 120]
000000 36 04 17 bd 15 32 94 bd 72 a4 11 bd 6e ef 2a bd
       -0.03686925 -0.07236115 -0.035557218 -0.041732244
000010 29 f8 b9 3c e7 b2 56 bd d7 8f 80 bd d1 b9 60 bd
       0.02270134 -0.05241671 -0.06277435 -0.05486471
000020 89 e9 63 3c 18 03 2f bd c4 7e d0 3d f5 19 1e bd
       0.01391066 -0.04272756 0.101804286 -0.038598973
000030 07 30 e6 3d 84 e1 0b 3d b0 af d6 39 2b f3 d7 bd
       0.11239629 0.034150615 0.00040948158 -0.105444275
000040 5d be 6f bd 35 af 33 bb b6 c5 57 bd c9 f8 8a bd
       -0.058531154 -0.0027417664 -0.052678786 -0.06785733
000050 89 3b 44 3d 3c b0 87 3d 4b 6d 2c bd 85 c2 97 3d
       0.04790834 0.06625411 -0.042096417 0.074101485
000060 5f 46 3f bd 0e 45 cc 3d a6 45 9c 3d 0e 2f 59 3c
       -0.04669797 0.09974109 0.07630472 0.013255848
000070 2a 3f ca 3c 4a a0 e5 bc 9b 12 9b 3d ab 05 b0 bd
       0.024688322 -0.028030533 0.07571908 -0.08594831
000080 1c 18 5f bd 09 88 c9 bd 7f f4 5d bd d9 cd 19 bd
       -0.054466352 -0.098404 -0.054188248 -0.037549827
000090 cb 82 58 3d 69 6c 1d be 15 e9 f8 3d d9 c4 ba ba
       0.05285911 -0.15373386 0.12153832 -0.0014249339
0000a0 c8 46 c1 bd 5a 77 0f bd 29 c6 b7 bd fc 8c bb bd
       -0.094373286 -0.035025932 -0.08973343 -0.0915775
0000b0 80 d9 e1 bd 24 50 2a be 97 d5 67 bc 4e 76 c9 3b
       -0.11027813 -0.16632134 -0.014150045 0.006148136
0000c0 1c d6 90 bc 07 69 d2 3d a4 9f 10 3e 8f 55 2c bd
       -0.01768022 0.102739386 0.14123398 -0.042073783
0000d0 2b b7 a5 bd da e2 7f bd 4d d2 ee 3d 93 63 4d bd
       -0.08091577 -0.062472202 0.116612054 -0.05014379
0000e0 40 a5 9a 3c 85 cc f7 3d 3b b2 e7 bc b9 86 da 3c
       0.018877625 0.12099556 -0.02828323 0.026675569
0000f0 ed ae 8b bd ff 7e 01 bd 7c f9 95 bd d0 7f b2 bd
       -0.06820474 -0.031615254 -0.07322976 -0.087157845
000100 91 0a a4 3d d8 3b 83 3d 89 c6 84 3d a6 25 a2 bd
       0.08009828 0.06407899 0.0648318 -0.07917337
000110 e6 e4 a5 3b ea f3 a0 3c a5 5b 07 3c 44 52 08 bd
       0.005062687 0.019647557 0.008261596 -0.03328158
000120 f1 b0 cd 3d cd ae 1e 3d 10 61 0e be 39 37 87 3d
       0.100435145 0.03874092 -0.13904214 0.0660233
000130 73 69 9e bd d9 a6 10 bc a1 3d 96 3d 65 96 8d 3d
       -0.077349566 -0.008828842 0.073359735 0.06913451
000140 b6 09 63 bd 08 03 66 3d 4c c1 81 bd 54 1b 0d bd
       -0.055429183 0.056155235 -0.063356966 -0.03444989
000150 d5 a9 12 3c c6 e5 f6 bc d8 82 73 bd 9b 68 ad bd
       0.008951624 -0.030138861 -0.059450954 -0.084672175
000160 a5 53 c3 3c 7d cd c8 ba 6b bf 12 3d 2b 49 4f bd
       0.023843596 -0.0015320029 0.03582708 -0.050606888
000170 a8 34 71 3c e1 91 9e 3c cb 06 89 bd 82 89 22 3c
       0.014722027 0.01935667 -0.06690749 0.00992048
000180 92 77 18 3d c8 7a 47 bd 5a af 04 be 36 51 c8 3d
       0.037223406 -0.048701078 -0.12957516 0.09781115
000190 6a 46 61 3d 9f f8 86 bd 69 19 d2 3c 1a 1f 1f be
       0.054998793 -0.065903895 0.025646882 -0.15539208
0001a0 6c 4c f7 bc 13 37 20 3d 86 99 52 bd 71 eb be 3d
       -0.030187808 0.039115023 -0.051415943 0.09322251
0001b0 35 27 c9 bb 54 9d f3 bc 56 3d cf bd 83 97 34 bc
       -0.006138707 -0.029738106 -0.10119121 -0.011022451
0001c0 35 78 2f bd af 39 8e 3d d7 7c 8b 3c 23 ef b8 3c
       -0.042839248 0.06944596 0.017027302 0.022574967
0001d0 1f 19 fc 3d e9 26 f2 3d 7c 75 86 3a 71 06 df bd
       0.12309479 0.11823828 0.0010258402 -0.108899005
0001e0 4d b6 9c 3d d2 23 fb bb 29 fd f4 3d de c9 b2 3d
       0.076519586 -0.007664182 0.11962349 0.08729909
0001f0 93 60 ae bd e9 5f 8e bd b6 da 85 3d 50 ef 9a 3d
       -0.08514514 -0.06951887 0.065358564 0.075651765
000200 09 f1 31 bd ee 47 f6 3d 7a 3b ca 3d 90 b0 65 3d
       -0.04344276 0.12025438 0.098746255 0.056076586
000210 06 6a 14 bd 4d 96 b1 bd 01 27 c2 3a db da ec bc
       -0.036233924 -0.08671246 0.001481265 -0.028912952
000220 0d a6 20 bd af 9d 45 3e 03 78 3d 3d ee ab a4 bd
       -0.03922086 0.19298433 0.04625703 -0.080406055
000230 18 cd 30 bd bc 9e b9 3d 0d 84 fe bc 6b 0d 6f 3d
       -0.043164343 0.09063479 -0.031068826 0.058362406
000240 62 5e 08 bd 17 48 d6 3d f3 4f fa 39 91 2c 5d 3d
       -0.033293135 0.10462969 0.00047743283 0.05399758
000250 20 6d 0a 3e ee 1c 9f bd 6a 28 d2 bd c3 b1 e7 3b
       0.1351819 -0.0776919 -0.102616146 0.0070707514
000260 5d 9e 9f bd 3b 9f 09 bc 13 a0 a1 3d 65 cf 92 bd
       -0.07793877 -0.00839978 0.0789186 -0.071684636
000270 9b 6b 7f 3d 84 44 8c bb 51 47 43 3d b6 2a b5 bd
       0.06235848 -0.0042806286 0.047675434 -0.08846037
000280 ad 00 01 bd 4c 8c 4e bd 42 fb b7 bd 93 39 95 3d
       -0.031494785 -0.050426766 -0.089834705 0.07286372
000290 e6 87 49 bd b5 76 d5 3c b2 d0 c4 3c 49 b9 c9 bb
       -0.04920187 0.02605758 0.024025295 -0.006156121
0002a0 5d e3 4d bd ad f5 4c bc 4f 23 a7 3b 48 d5 d7 bb
       -0.05026566 -0.012509746 0.0051006447 -0.0065867044
0002b0 a5 03 c4 bc 6d 3a ff 3c e4 68 b8 bc 78 24 c0 bd
       -0.02392752 0.03115579 -0.022510953 -0.09381956
0002c0 ba c5 ed 3d 86 c9 28 3d 49 73 ae bd a7 4a d9 3d
       0.11609979 0.041207813 -0.08518083 0.10609942
0002d0 70 91 32 3d 40 6d eb 3d 71 11 04 be 24 b9 9d 3d
       0.04359573 0.11495447 -0.12897278 0.077013284
0002e0 8d e3 24 3d ee 88 13 3d 6c ce c1 bd d7 38 fc bc
       0.04025607 0.03601926 -0.094632 -0.030788822
0002f0 84 4f 1c 3d 39 ed 76 3d a2 2d 05 3e ed 67 76 3c
       0.03816177 0.060284827 0.13005689 0.015039426
000300 c8 e9 b3 3c 0e 4d 25 3d b7 cd 3d 3d 18 e0 2d bd
       0.021962062 0.04035669 0.046338763 -0.04245004
000310 c5 9a c9 bd b2 a3 01 3e a0 73 71 3d 3e ac 9a bd
       -0.09843973 0.12660101 0.05894816 -0.07552384
000320 28 50 2b 3d 00 18 b9 3c 3e 5f 79 bd 97 f6 72 bd
       0.04182449 0.022594452 -0.060881846 -0.059317198
000330 1d 2d bd 3d 94 5d b9 bd 6c d9 68 bc e9 d5 ee bd
       0.0923712 -0.09051052 -0.014211994 -0.11661894
000340 d8 3e d5 bd be 9b 11 bd 56 35 09 3e 5a 14 6f bd
       -0.10412377 -0.035548918 0.13399252 -0.05836902
000350 70 f4 c5 bc 86 63 17 bd ba 95 5a 3d e4 99 d3 bd
       -0.024164408 -0.036960147 0.053365447 -0.10332087
000360 b9 7c 54 bd 9d 82 48 bd ff ee fb 3d 90 e1 b3 bc
       -0.051876757 -0.048952688 0.12301444 -0.021958143
000370 61 0e d4 3d 74 87 f0 bc bc 4b 0f bb 5f ce 67 bd
       0.10354305 -0.029361464 -0.002186521 -0.056593295
000380 9c f7 c8 bd 9e 0d 57 bd 00 fe e5 3c 21 78 af 3c
       -0.09812853 -0.05250322 0.028075218 0.021419587
000390 c4 75 a2 3d 51 25 af 3d 28 00 c6 bd 8c 14 94 3d
       0.07932618 0.085520394 -0.096679986 0.072304815
0003a0 42 4e 0a 3d 65 fc 31 bd bd 43 eb bc 5f 71 c4 3c
       0.03376604 -0.043453593 -0.028718824 0.02397984
0003b0 f1 cc ba 3d 9e e6 48 bd 8f 37 39 3d 68 86 f7 3b
       0.09121121 -0.04904806 0.045219 0.0075538643
0003c0 63 6d 0e 3d 99 b9 f6 3d 7b a3 d1 bd db 45 0c be
       0.034772288 0.12047119 -0.102362595 -0.13698523
0003d0 41 c7 25 3d ec 0d 68 3d 86 7d 1b be b3 89 d3 bd
       0.040473226 0.056653902 -0.15184602 -0.103289984
0003e0 ed 53 70 bd 00 2a 0c 3e b8 d7 75 bc f3 d6 b7 bd
       -0.058673788 0.13687897 -0.015005045 -0.08976545
0003f0 ad 3d 5d bd 51 b2 9a bc 34 0a 55 3e a6 03 a0 3d
       -0.054013897 -0.018883856 0.20804673 0.07813196

bias f4 [84]
000000 f8 79 d3 3d c8 56 ca 3d 72 a2 6c be 52 9c e5 bd
       0.10325998 0.098798335 -0.23108843 -0.11211456
000010 87 dd ec bd 53 07 0b 3e 8e 80 7d bd 6e b4 b0 3a
       -0.115656905 0.13577013 -0.061890177 0.0013481507
000020 4a 23 2b bd 40 75 bb bb 60 7d 8d bd 69 ea 31 3d
       -0.0417817 -0.0057207644 -0.06908679 0.04343644
000030 34 de 2d 3e cd 94 5f 3d 0d 28 54 3e 64 d5 a5 bd
       0.16979295 0.054585267 0.20718403 -0.08097342
000040 f7 9d 86 3d 1c 5c 2d bd 0c 19 2c bd 2a 8a d5 3c
       0.06573098 -0.04232417 -0.042016074 0.026066858
000050 35 2d 17 3e ca 9d 29 3d 4f 57 34 bc a5 91 8c 3d
       0.14763339 0.041410245 -0.011007144 0.06863717
000060 aa db 41 3b ee 71 95 3d 03 a2 1e bd eb 50 67 3d
       0.0029580393 0.07297121 -0.038728725 0.056473654
000070 76 10 40 3e 5c 60 27 3d 32 d3 6e 3d 6f 2b 3e 3e
       0.1875628 0.04086338 0.05830688 0.18571256
000080 55 d8 0c bd 6f 2c 6d bd a3 e6 90 bc d8 9d 50 3e
       -0.034385998 -0.057903703 -0.017688101 0.20372713
000090 38 8e 2d 3e de 9c 9b 3d f1 f6 af 3c e6 d5 67 bd
       0.16948783 0.075982794 0.021480056 -0.056600474
0000a0 fd 86 c3 bd 68 ef 17 bd 8d e1 83 3e 8c 90 46 3e
       -0.09547231 -0.03709355 0.2575802 0.19391078
0000b0 6f cd cd 3d 7d cf 68 3e 2e cd c2 3d dc d4 03 3e
       0.10048949 0.227354 0.09511791 0.12874168
0000c0 93 bd 80 3d 1f 43 71 bd 59 c4 93 bd c0 b0 7e bd
       0.062861584 -0.058901902 -0.07215185 -0.06218028
0000d0 2c 9b 23 be 8a 71 20 3c bd 67 01 3e a1 6e a9 3e
       -0.15977162 0.009792695 0.1263723 0.33092216
0000e0 62 3d 2e 3e 5d c4 db 3d 33 4d d4 bc e0 bc 5f 3e
       0.17015603 0.10730813 -0.025915718 0.21849394
0000f0 39 93 5c 3e 15 12 b6 3c e5 d8 94 3d ca af 37 bd
       0.21540536 0.022225419 0.07267932 -0.04484538
000100 ce b2 ce 3c e4 53 bf bd 4c 35 de 3d e2 37 01 3e
       0.025231745 -0.09342173 0.10850009 0.12618974
000110 e7 b0 89 bd 2e 6a 97 3d 76 de 26 bd 3f f2 51 3d
       -0.067231946 0.07393299 -0.0407395 0.051256415
000120 94 db 2c bc 27 22 94 bd 62 b8 5e 3c ad dd 02 3e
       -0.010550398 -0.072330765 0.013593765 0.12779875
000130 6e 17 a9 bd 0a 08 fb 3c f6 9e fd 3d 32 78 c0 bb
       -0.08256422 0.030643482 0.12383835 -0.0058737034
000140 46 b1 28 3c 02 d4 70 3c bd 2d 71 bd 58 d9 95 bc
       0.0102961715 0.014698984 -0.05888151 -0.018292114
