models/v3.pt (torch_old, 317567 bytes, 14 tensors)

weight f4 [5, 3, 3, 3]
000000 ce 16 80 be a5 af 33 be 0a 90 90 bc 2f b5 80 3d
       -0.250174 -0.17547472 -0.017646808 0.06284558
000010 1c b8 f3 be 8d 21 ad 3c fd 95 f9 3e ae 01 98 be
       -0.47601402 0.021134162 0.48747244 -0.29688781
000020 7c 80 83 be b6 d4 91 3d be 6a 58 3e d2 32 b5 3d
       -0.25683963 0.071206495 0.21134469 0.08847584
000030 cb 89 e8 3e ff 1d 10 be 5f c8 5b be 43 6a 6d 3f
       0.45417628 -0.14073943 -0.21463154 0.9274027
000040 39 1a 31 bc 7f 19 83 3d 2e 88 06 3e 63 3f e6 bc
       -0.010809475 0.06401347 0.13137886 -0.028106397
000050 64 a8 e5 bd e7 37 e7 3d f5 c1 00 bf f7 03 8b be
       -0.112137586 0.112899594 -0.50295955 -0.27151462
000060 cb 1e e7 3e 30 89 73 be 69 83 d8 be 92 9b 4a 3e
       0.4514068 -0.23782802 -0.42287758 0.19785908
000070 9b af 09 3f 4b f5 ac 3e 15 09 9a b9 05 21 a4 3e
       0.5378358 0.33780894 -0.00029379936 0.32056442
000080 d9 93 e6 3e 61 13 66 be 2f 76 1b bf 40 55 21 bf
       0.45034674 -0.2246833 -0.6072721 -0.63020706
000090 f5 8f 84 bd 30 47 2a 3e fe e8 93 be 02 72 68 be
       -0.0647277 0.16628718 -0.28888696 -0.2269974
0000a0 f7 1c c5 3e 21 8c 8e 3d 8f bf 30 3e d9 1c f7 be
       0.3849866 0.06960321 0.17260574 -0.48264197
0000b0 be 7b b6 be b6 a3 ee bc 3f 29 3c be d6 1a cc be
       -0.35641283 -0.029130798 -0.18375109 -0.39864224
0000c0 7d 64 bc bc 60 02 83 3e 4a 8e 84 3e 92 90 58 3e
       -0.022997135 0.2558775 0.25889808 0.21148899
0000d0 c4 5f 92 be d2 54 7a be 96 a8 09 bd 76 9e 29 be
       -0.28588688 -0.24446419 -0.03360804 -0.16564354
0000e0 89 c3 03 bf a0 9c 0b bf ca 48 ec bd bf 63 2d be
       -0.5147024 -0.54535866 -0.11537321 -0.16932581
0000f0 c8 90 ad bd 0c 71 85 3e 69 20 b2 3e f4 6c f5 3e
       -0.084748805 0.2606281 0.34790352 0.47934687
000100 82 45 9a 3e 95 4d 1b be 48 c6 c9 be b8 21 d2 3e
       0.30131155 -0.15166314 -0.3940909 0.4104135
000110 26 e2 a8 3c 0f 67 b3 be 97 b7 9b 3e 45 2f bc 3e
       0.020615648 -0.35039565 0.30413505 0.36754814
000120 08 1c 76 3e 54 ff 82 3d b5 2e 13 be 8a b8 05 bf
       0.2403413 0.06396356 -0.14373286 -0.5223471
000130 64 9d 9e 3e ff 67 27 bd f7 32 07 bf 94 b0 0b 3e
       0.30979455 -0.040870663 -0.5281214 0.13641578
000140 25 b1 bc 3d d7 d4 71 3d 38 3b 32 bd 35 63 2a 3e
       0.09213475 0.05904087 -0.043513507 0.16639407
000150 f1 10 a2 be a2 e4 f4 be 88 0b 25 3e 6b 75 13 be
       -0.3165355 -0.47830683 0.1611768 -0.1440026
000160 35 4f 11 bf a6 02 06 3e c9 e3 a3 3e d2 60 07 3e
       -0.56761485 0.13086948 0.32009724 0.13220528
000170 48 0b 9e bd ed 7f 5f bd 45 a3 0e bf d4 34 bd 3e
       -0.077169955 -0.05456536 -0.5571788 0.36954367
000180 6a 40 ac 3d 7d 0e 42 bf 9e a7 9f bd bb b3 f1 3e
       0.084107235 -0.7580336 -0.07795642 0.47207436
000190 6d 74 65 3e ab 06 30 3d 44 14 93 3d 50 ff d4 3d
       0.22407694 0.04297511 0.071816 0.104002595
0001a0 cf 8b d7 3e 61 88 86 3d ec 25 6c be f1 1c ef 3e
       0.42098853 0.06568981 -0.23061341 0.46701768
0001b0 15 dc f5 3d c0 d9 0b be 62 7d 36 3f 4a 0d c2 3e
       0.12004868 -0.13657284 0.7128507 0.37900764
0001c0 7e d3 0b be ec d8 e9 3e c4 2a b1 bd f9 dc da be
       -0.13654897 0.4567331 -0.08650735 -0.42746714
0001d0 f1 a2 11 be 17 70 b6 be 2c 65 f1 be 38 2f 8d 3e
       -0.14222313 -0.35632393 -0.471475 0.27575088
0001e0 76 05 02 3e 64 22 dc be 43 c0 8b 3e bf fc bc bd
       0.12697396 -0.42994988 0.27295122 -0.09227895
0001f0 31 6a eb be bd df 6c bd d7 c9 cc bd f9 19 e7 be
       -0.45979455 -0.05783056 -0.099994354 -0.45137003
000200 15 cc e5 bb 2f a0 63 3e cd 50 90 be 07 bf 84 3e
       -0.007012854 0.22229074 -0.28186646 0.25926992
000210 58 e0 88 3e f2 31 8f bd 04 11 87 bd
       0.2673366 -0.06991948 -0.06595042

bias f4 [5]
000000 13 1b b5 bd 3c 71 34 be ca 15 47 bc b8 e9 1b 3e
       -0.088430546 -0.1762132 -0.012151191 0.15225875
000010 74 5a 21 be
       -0.15757161

weight f4 [8, 5, 3, 3]
000000 1b 71 48 3e aa b8 32 3d 4a d1 40 be 64 5f 21 be
       0.19574396 0.04363314 -0.18829837 -0.15759045
000010 65 8c f4 3e 04 9b da 3d b5 e8 87 be 51 5b 51 be
       0.47763363 0.10674098 -0.2654473 -0.2044499
000020 b1 88 a5 3e 90 80 e2 bd 8d c5 8f 3e cb 1c 23 bb
       0.3233085 -0.110596776 0.28080407 -0.0024888988
000030 16 01 c9 be 3d d8 df bd 86 cb 94 3e cc c1 99 3e
       -0.3925864 -0.10929916 0.29061526 0.30030668
000040 c5 92 80 be d9 27 5d be 30 d3 6d be 70 4a 5a bc
       -0.25111976 -0.21597232 -0.23225093 -0.013323411
000050 c3 a8 9f 3e 53 1f 6b bb ef 8f 02 bf 57 b4 8a 3e
       0.31183442 -0.0035876825 -0.51000875 0.27090713
000060 60 f7 b5 bc 27 d5 30 be 0c 9e 6e be 6e d9 d1 3d
       -0.022212684 -0.17268811 -0.23302478 0.102465495
000070 fc b9 60 3e a8 81 3d be 73 a8 80 be a5 b1 88 bc
       0.21945947 -0.18506491 -0.25128517 -0.01668627
000080 9b 1e 6c 3e 38 57 8a 3e 1d c8 54 be c7 f8 8b bd
       0.2305855 0.27019668 -0.20779462 -0.0683456
000090 af 45 db 3d f0 81 8d 3c 4a ea 5c 3c 61 37 fa bd
       0.107066505 0.017273873 0.013483593 -0.12217594
0000a0 40 72 a9 3e 1e 55 96 bc d6 a9 e3 be 36 c6 0a be
       0.33094978 -0.018351134 -0.44465512 -0.13552174
0000b0 16 5a 90 3e c6 9d c3 3d e1 3d 28 3d c3 f9 6a 3d
       0.2819373 0.09551577 0.041074637 0.057367098
0000c0 8e d1 f5 bd a1 90 04 3e d3 66 14 3e 82 9d f0 bd
       -0.1200286 0.12945797 0.1449235 -0.11748792
0000d0 b0 88 88 3e 37 5b 2e 3d a6 5f 36 be e2 2a 59 be
       0.26666784 0.042567458 -0.17809924 -0.21207765
0000e0 1c 4c dd 3d 6a c0 61 be 24 c6 a3 bc 5e 62 f2 3d
       0.10805532 -0.22046056 -0.019991942 0.11835168
0000f0 4c 3c 68 be 12 44 e5 3c 46 86 9e 3c 34 d6 b9 3d
       -0.22679251 0.02798656 0.019351136 0.09074059
000100 93 97 35 bd 25 11 51 bd 80 04 10 3e d4 ec 15 3e
       -0.044334006 -0.05104174 0.14064217 0.14641124
000110 73 e8 c9 bd db 29 29 3e d3 e0 9b 3d a3 56 0a 3e
       -0.09858789 0.16519873 0.07611241 0.13509612
000120 fd 57 4a 3e a8 6b ba 3d 79 47 0a 3e b7 50 48 3e
       0.19760127 0.09102565 0.13503827 0.1956204
000130 fe 86 6a 3e 7c c6 1f 3e 72 19 6a 3e f0 ee b0 3e
       0.22903058 0.1560306 0.22861269 0.34557295
000140 99 6e 61 3e 81 fc 23 be 34 40 c3 bd e5 0b 35 3d
       0.22014846 -0.16014291 -0.0953373 0.044200797
000150 a2 7b 92 be 17 86 49 be 97 90 1d 3e 72 cf f1 3c
       -0.2860995 -0.19680057 0.15387188 0.029517863
000160 be 0f 05 3e 36 d0 80 3c 35 bb 4c be 29 cd f4 3d
       0.12994286 0.015724283 -0.19993289 0.11953194
000170 bd f9 7a 3d b7 07 2a be 2b 29 b5 3e c6 16 5b 3d
       0.061273325 -0.16604505 0.3538297 0.053488515
000180 d4 f9 21 3e c9 16 d7 3e 01 b3 43 3e 14 5a 85 bd
       0.15817958 0.4200957 0.19111253 -0.06511322
000190 61 e2 f9 3d 71 4e f4 3d cd 8f 19 be f5 6f cf 3d
       0.122013815 0.11929024 -0.14996262 0.10128776
0001a0 1b 33 91 3d c3 2e 28 3e c9 8d 86 3e a1 bc a6 3c
       0.07089826 0.16424088 0.26280048 0.020353617
0001b0 ba 7f 28 3e 6a 8e 1b be c9 2d 5c bd b7 82 c8 bd
       0.16454974 -0.15191045 -0.0537546 -0.09790557
0001c0 d3 d8 6d be 92 66 86 bd 80 46 c8 bc ff 03 f9 bd
       -0.23227243 -0.065625325 -0.02444768 -0.12158965
0001d0 bf 8f 9e bb e2 e7 25 be 2e 4f 8a bd 4b d1 42 bd
       -0.004838913 -0.16201738 -0.067533836 -0.04756288
0001e0 1e 5c 8c bd 4d b2 b1 3d b2 4d d6 3c 06 e0 c4 bd
       -0.068535075 0.08676586 0.026160095 -0.096130416
0001f0 a3 35 38 3c 46 ff 60 3e c0 64 2a be a5 ce 84 be
       0.011243257 0.21972379 -0.16639996 -0.25938907
000200 fd 8f 16 3d f0 99 89 3d b1 64 63 be d7 f7 b7 3d
       0.03675841 0.067188144 -0.2220638 0.089828186
000210 1c f7 bc 3c f3 f6 1e 3e 14 9e 82 3e e0 67 b1 3e
       0.02306705 0.15523891 0.2551123 0.34649563
000220 52 13 5e bc 9d 95 f9 bd 25 ba 2b bd 8f 79 d2 3d
       -0.013554411 -0.121867396 -0.041925568 0.10277092
000230 f8 0e 13 3e 97 a8 18 be cc f6 af bd ea c9 08 3e
       0.14361179 -0.14908062 -0.08591995 0.13358274
000240 4a 69 b7 3e bb b7 d7 3e e1 20 c1 be 41 7c c0 be
       0.35822517 0.42132363 -0.37720397 -0.37594798
000250 66 56 8c be 57 c8 90 3e e6 27 8f 3d 82 a7 c9 bd
       -0.27409667 0.28277847 0.06990032 -0.09846403
000260 e1 28 f2 bd ed 93 88 be 1d 80 f5 3d cb 59 e6 3e
       -0.11824203 -0.26675358 0.11987326 0.44990382
000270 7f 91 17 3d 47 82 60 3e 19 84 41 3e 7a 23 a7 3e
       0.03700399 0.21924697 0.18898048 0.32644254
000280 e7 42 20 3e a5 76 03 bf 59 17 81 bd 66 7e 99 3e
       0.15650521 -0.5135291 -0.06303281 0.29979247
000290 6d fa aa bd 62 85 5e 36 54 6f 9a ba cd 39 76 3e
       -0.08348546 3.3158217e-06 -0.0011782446 0.24045487
0002a0 d5 b7 0c 3d a9 12 c6 be b5 cf 8c be 46 1c 8f 3e
       0.034355003 -0.38686112 -0.27502218 0.27951258
0002b0 c0 37 c6 3c 6f 01 1b be 1e 2c 42 be bf c2 80 bc
       0.024196506 -0.15137266 -0.18962142 -0.015717862
0002c0 cc d7 c9 3c aa a9 31 be db 6d 5f 3d 7a 73 78 3e
       0.024639033 -0.17349878 0.054548126 0.24262801
0002d0 a7 63 2d be bb 6c cb be 27 98 14 be 12 8d 74 be
       -0.16932546 -0.39731392 -0.14511167 -0.23881939
0002e0 2c 3f 07 be cb 57 2d 3b 9e 90 45 be bf 99 9e bc
       -0.13207692 0.0026450034 -0.19293448 -0.019360421
0002f0 5e 0b 3d 3e 40 ba 47 3e 5f 49 36 3d 8d 46 a9 3d
       0.18461367 0.19504642 0.044503566 0.082654096
000300 9f 7f 50 be 3d 14 98 be 21 b9 53 be 0a c0 b6 be
       -0.20361184 -0.2970294 -0.2067609 -0.3569339
000310 40 ad 0e be 70 6d 9e bd 17 09 5b bd 38 08 0f be
       -0.13933277 -0.07735717 -0.053475466 -0.13967979
000320 be 65 09 bd 9b 3b 39 3e 17 31 d5 3d 34 56 d4 bd
       -0.033544295 0.18089144 0.10409754 -0.103680044
000330 27 2b 1c bb a6 1e ea bc c1 a0 bc bd 0e 9b e0 3c
       -0.0023829432 -0.028579067 -0.09210349 0.027417686
000340 33 5a 99 3e 92 6e 57 3e 79 4f 81 3d 88 25 9e bc
       0.2995163 0.21038273 0.06313986 -0.019305006
000350 4e f4 36 3e 66 6c 7a be 71 ad 3b be c5 16 75 bd
       0.17866632 -0.24455413 -0.18327881 -0.059836168
000360 17 c6 95 bc 9a 68 83 bc 98 10 1e 3e dc 61 f2 bd
       -0.018282933 -0.016041089 0.15436018 -0.118350714
000370 6b ee 6a 3c 19 37 94 bd 34 de 0f be 6b cf 12 be
       0.01433907 -0.072370715 -0.14049608 -0.14336936
000380 57 6e f6 bd 6e 60 35 bb 8a ea f5 3e 47 79 ce be
       -0.120327644 -0.0027675885 0.48030502 -0.40326902
000390 e6 ef 19 3d 4b 7e 2e 3e 96 d3 a3 be d3 6e bd bc
       0.0375823 0.17040364 -0.31997365 -0.023124134
0003a0 ee e8 0d bd 83 ac bd bd 42 fa 93 3d 97 a6 65 bd
       -0.034645967 -0.092614196 0.07225467 -0.056067076
0003b0 a5 2f de 3b 70 ad 9e bd b2 bf 8f bd 4e a2 01 3e
       0.006780582 -0.07747924 -0.07018985 0.1265957
0003c0 d9 0e 24 bd 95 55 a1 bd 28 a8 8b 3d c8 ed 5c 3e
       -0.040053222 -0.078776516 0.06819183 0.21575081
0003d0 d6 93 91 be ba 5d 6f 3e 7f e8 ab 3d c6 19 18 be
       -0.28433102 0.23375598 0.083939545 -0.14853582
0003e0 6e 1e 5d 3e 6d 6a 81 3d ca 06 1d be fe 1e 58 3e
       0.21593639 0.06319127 -0.15334621 0.21105573
0003f0 20 fa b3 be 16 3b aa 3e 99 d5 64 be 48 ae 9c be
       -0.35151768 0.33248204 -0.22347106 -0.30601716

bias f4 [8]
000000 a8 57 cb 3d 3b 08 ce bd e5 51 c2 3d fc 3e c2 3c
       0.099288285 -0.100601636 0.094882764 0.023711674
000010 db fa a8 be 8a b6 1d bd 4d 31 a5 bd e7 b6 4b be
       -0.33003888 -0.03850416 -0.08066044 -0.1989399

weight f4 [14, 8, 3, 3]
000000 61 e0 4a be 0e 58 b1 bc 13 7e 97 3d 2e 39 53 be
       -0.19812156 -0.021648433 0.073970936 -0.20627281
000010 46 0a 33 be 0b 43 3a 3e fb 0e 0f 3c 71 dc b9 3d
       -0.17484388 0.18189637 0.008731599 0.09075249
000020 da d7 d8 bc 3e 1f 36 bd 67 aa 2c bd d8 2c 39 bd
       -0.026470114 -0.04446339 -0.042154696 -0.045208782
000030 e8 f3 9b bd f6 47 6f bd 87 70 df 3d d3 12 2b 3d
       -0.07614881 -0.058418237 0.10910135 0.041766
000040 28 81 e2 3d 04 47 26 3e a9 6c 2f be 1f be 47 be
       0.11059791 0.16238028 -0.17131294 -0.19506119
000050 08 f6 6f 3e fc 5a b8 3d d3 0d 11 be 34 03 9b 3d
       0.23433697 0.09001729 -0.1416543 0.0756897
000060 a9 82 5f 3e 8e 42 22 3d b3 4e 4a 3e 6d a2 81 be
       0.21827187 0.039614253 0.19756584 -0.25319234
000070 11 e3 57 be 8e 5a b5 bd 08 fa a0 bd b3 ee 9e be
       -0.21082713 -0.088551626 -0.0786019 -0.31041488
000080 a2 f3 fd bd 9b c5 88 bd 9e 5c 1b be d4 c5 15 be
       -0.12399985 -0.06678315 -0.1517205 -0.14626247
000090 d9 e2 2b 3e b4 06 60 3e 46 5d ed 3c b0 10 bc 3d
       0.16785754 0.21877557 0.02897514 0.091828704
0000a0 ff 86 50 3d db 4a 68 3d 37 14 6f 3c 7b ec 6c 3d
       0.050909992 0.056712013 0.014592222 0.057842713
0000b0 9d 97 18 be aa 23 f2 3c e0 aa 37 3c 0f 85 9d bd
       -0.14901586 0.029558022 0.011210173 -0.076913945
0000c0 e6 58 fb 3d d5 0a 2e 3e 60 ee 03 3c a4 5f 4a 3e
       0.122728154 0.1699632 0.0080524385 0.19763047
0000d0 56 2d d7 3e fb 58 ca 3d c5 43 86 bd d3 63 91 be
       0.42026776 0.09880253 -0.06555895 -0.28396472
0000e0 4c 93 29 be fb 79 31 bd 0a b7 96 be 20 03 8b be
       -0.16560096 -0.04332922 -0.29436523 -0.27150822
0000f0 98 1c 9a bd 2a 6d ac 3d 40 95 53 be d7 03 88 3e
       -0.07524985 0.08419259 -0.20662403 0.2656543
000100 25 34 10 3e 13 08 ab 3e 08 93 62 3e 5e 8b b4 3d
       0.14082392 0.33404598 0.221264 0.08815645
000110 3f 1d d9 3d 5a 14 3e 3e be 12 80 3e 4d 93 59 3e
       0.106012814 0.18562451 0.250143 0.21247597
000120 33 6c 4b be 22 dd 1d be 3d ac 2c be 18 a4 5b be
       -0.19865493 -0.15416387 -0.16862579 -0.21449316
000130 bf a6 19 be a2 00 b8 bd 2e ed 18 be c4 5e b7 bd
       -0.15005015 -0.08984496 -0.14934227 -0.08953622
000140 6d ca f0 bc c1 ab 2a 3e 97 ba 03 3e 0b 8a 12 3d
       -0.0293934 0.16667081 0.12864147 0.03577618
000150 97 64 b0 3c e0 91 b9 3b b7 37 0c 3d 2c 9c a5 bd
       0.02153234 0.0056631416 0.03423282 -0.08086428
000160 64 e5 54 3d ed 0e 46 3e 08 04 5f 3d c6 c3 37 bd
       0.051976576 0.19341631 0.054447204 -0.04486444
000170 26 88 98 bd be 07 1c bd 1b 0b 50 bd e6 ea 0c 3e
       -0.07447843 -0.03809332 -0.05079184 0.13761482
000180 4a b2 97 3e e3 0d 67 3e c3 d0 27 3e cd 41 51 be
       0.2962821 0.22563891 0.1638823 -0.20435257
000190 fa d0 3f be 3b fa 1c be a7 02 26 bd c7 ad 73 be
       -0.18732062 -0.1532983 -0.040529873 -0.2379676
0001a0 7f 59 a4 be bb f5 ac bb c3 76 b5 bd 28 a7 50 bd
       -0.3209953 -0.005278317 -0.088605426 -0.050940663
0001b0 b8 80 9b 3e 3b 6f a7 3e 35 69 44 3e 84 84 b2 3d
       0.30371642 0.3270205 0.19180758 0.087166816
0001c0 a8 60 dd 3d ae be 97 bd 76 85 8c 3e 77 87 db 3d
       0.10809451 -0.07409416 0.27445573 0.10719197
0001d0 40 b3 a5 3d 58 1f 99 3e a2 e0 ad bd 89 92 7e bc
       0.0809083 0.29906726 -0.08490111 -0.015537866
0001e0 49 c3 49 3e ff ff 52 3b 08 da a8 bd 82 e9 a4 3e
       0.19703402 0.0032196043 -0.08244711 0.32209402
0001f0 4e c6 72 3d 4e 5a 30 bb c9 33 5f 3e a2 24 fb 3d
       0.05927115 -0.0026909295 0.21797098 0.122628465
000200 ea 78 92 3d a7 ad e1 3d ec 4b 2f 3e 60 90 02 3e
       0.07151969 0.1101945 0.17118806 0.12750387
000210 51 ef 8e 3e 3d 2f 6b 3d 57 33 dd 3d 63 cf 54 3e
       0.2791696 0.057418097 0.10800808 0.20782237
000220 17 51 62 bd c9 27 4d 3d 82 c7 d9 3c 95 77 9a 3c
       -0.055253115 0.05008677 0.02658439 0.01885585
000230 d4 95 6a 3d 56 d0 1e 3e 24 07 c0 3d 74 e6 23 3d
       0.057271793 0.15509161 0.09376362 0.0400147
000240 87 49 9f 3c 7a 98 89 be 5b 84 1f be 7f 0d cf 3d
       0.01944424 -0.26874143 -0.15577833 0.10109996
000250 53 c2 a3 3d db 03 f5 bd 98 e2 99 bd 1b c9 b8 bd
       0.07996049 -0.11963626 -0.075139225 -0.09022733
000260 dc 88 05 3e 28 95 31 bd b0 c6 1f 3e a2 31 32 bd
       0.13040489 -0.043355137 0.15603137 -0.043504365
000270 aa a9 06 3d 5f 37 ff bc ce 39 96 bd 03 3c d9 bc
       0.032876648 -0.031154333 -0.07335244 -0.026517874
000280 b9 90 9a 3c 50 a4 74 3d ca 18 a5 bd a7 3e 6d be
       0.018867837 0.059727013 -0.08061369 -0.23168431
000290 6a 53 4a be aa 0f 19 be 6f 04 7d be 84 35 90 3c
       -0.19758382 -0.14947382 -0.24708723 0.017603643
0002a0 15 71 3c be 55 bd 11 be 2d 67 38 be 1f 68 05 3d
       -0.18402512 -0.1423238 -0.18008108 0.03257
0002b0 9a 4d 4c 3d 95 87 0a 3e 81 66 56 3e 47 4f aa 3e
       0.049878694 0.13528283 0.2093754 0.3326361
0002c0 3b 5b aa bb e4 85 92 3e 70 a0 86 3e 32 dd 8e 3e
       -0.005198864 0.28617775 0.2629428 0.27903134
0002d0 34 28 ea ba 0d 63 76 3d 09 0f b0 3d 60 76 e0 bd
       -0.0017864765 0.060153056 0.08596618 -0.10960078
0002e0 68 1c 20 3d 6a 8a 94 3e 6a 6e e9 3d 08 77 e5 3d
       0.03908959 0.29011852 0.11398013 0.11204344
0002f0 91 6a c4 3d ce 56 80 be 50 02 60 be 11 fc 45 be
       0.095906384 -0.25066227 -0.21875882 -0.19334437
000300 6b 35 86 be ac 0f bb be f0 e3 6e be 9e ac f8 bd
       -0.2621263 -0.36535394 -0.23329139 -0.12142299
000310 8b 5a d9 be 01 ee 7e be 52 53 63 bc 11 80 13 be
       -0.4245189 -0.24895479 -0.013874846 -0.14404322
000320 13 46 a1 3c 8e 00 21 3d 46 a4 ad 3d 5b 81 dd 3d
       0.019686734 0.03930717 0.08478598 0.10815688
000330 e9 3f f5 3c 09 32 8d bb db ff 36 3e 3a 81 bc 3d
       0.029937701 -0.004308943 0.17871039 0.092043355
000340 75 8c 05 bd 92 1f bc bd a2 a9 d1 3d 25 4c 08 3e
       -0.032604653 -0.09185709 0.10237433 0.13310297
000350 16 cf c4 3d a3 2b e1 3d da 2f 92 3e 05 b7 a1 3e
       0.09609811 0.10994651 0.28552133 0.31584945
000360 6c b5 7d 3e 4f da 36 3e 36 5f 86 3e ec 62 62 3e
       0.24776238 0.17856716 0.26244515 0.22108048
000370 48 7e a1 3e e8 53 04 3e 40 77 a0 3e d6 53 c0 3e
       0.31541657 0.12922633 0.3134098 0.37563962
000380 7d 45 32 3e ab 06 e7 bd 6a 2d 1c 3d 87 52 20 bc
       0.1740932 -0.11280569 0.038129248 -0.009785301
000390 db c9 ea 3a 5d 98 f8 3d fe c5 ab bc 3f a3 1b bc
       0.0017912941 0.12138436 -0.020968433 -0.00949937
0003a0 09 d5 43 3d 33 b4 71 bc 4c c3 e8 bd fc 06 e7 bd
       0.047810588 -0.0147524355 -0.11365375 -0.11280629
0003b0 7f d0 3e be 87 36 d2 bd 28 71 db bc c0 4e d4 bc
       -0.18634222 -0.102643065 -0.026787356 -0.025916457
0003c0 79 41 88 3c f9 5d c2 bc 96 84 d3 bd 1d a3 5e bd
       0.016632782 -0.02372645 -0.10328023 -0.054354776
0003d0 f9 c7 0d bb a1 98 4d 3d 13 c9 57 3d 17 a3 95 3d
       -0.0021634086 0.050194386 0.052681994 0.073064975
0003e0 22 71 88 3d 21 52 73 bd 70 02 1a bd c7 f4 fb 3d
       0.06662203 -0.059404496 -0.03759998 0.12302547
0003f0 1e 9a 00 be 34 14 92 bc b0 f4 10 be 64 43 80 bd
       -0.12558791 -0.0178319 -0.14155841 -0.06262854

bias f4 [14]
000000 1d 3a 4b 3e d3 14 8e bf e4 45 69 3e dd 9b e1 be
       0.19846387 -1.1100105 0.22780567 -0.44064227
000010 fe fe 2c 3f 17 88 81 3e c9 c8 02 be 33 36 bf be
       0.6757659 0.2529914 -0.12771906 -0.37346038
000020 5d 7d 2e be 58 d4 c3 3e 48 ca 14 be c5 f2 0b 3e
       -0.1704001 0.38247943 -0.14530289 0.13666828
000030 82 cf 3f be 5a cd 39 bd
       -0.18731502 -0.045361854

weight f4 [20, 14, 3, 3]
000000 aa d6 58 be e1 b2 11 bd f7 be b8 3d 4b f8 0c be
       -0.21175638 -0.035570983 0.09020799 -0.13766591
000010 42 ec dc bc 9d aa a1 3d 00 79 34 be d6 3c 2c bd
       -0.026968125 0.0789387 -0.17624283 -0.042050205
000020 d3 7f fc bd fc e9 d4 3d ff 46 b0 3c 8a 0d 03 3e
       -0.12329068 0.103961915 0.021518229 0.12798133
000030 a9 7f 81 bc 49 7b 2e 3d 23 24 8c 3c a6 c2 0e be
       -0.015807943 0.042598043 0.017107075 -0.1394144
000040 09 47 85 3d 49 6a 45 3c ca 5a 0d be bb ae 33 3c
       0.065076895 0.012049266 -0.13804165 0.010966952
000050 3f b5 32 3c 3f e0 9e be c4 40 cf 3d 55 95 56 3e
       0.01090747 -0.3103046 0.10119775 0.20955403
000060 c5 5a 78 be fe 25 31 3e c3 03 cf 3e 20 03 07 3d
       -0.24253376 0.17299649 0.40432557 0.032961965
000070 aa 01 b7 bc cd cd 49 be 7f 7f f5 3d d0 99 e6 3d
       -0.02233966 -0.19707413 0.119872086 0.11259806
000080 4f 62 a6 bd 02 34 4f 3d 07 e6 5b bd c0 b0 c3 bc
       -0.081242196 0.050586708 -0.053686168 -0.023887992
000090 81 22 5b bd a4 15 44 3c 7a e5 95 3e 45 36 78 bd
       -0.053499702 0.01196805 0.2927664 -0.06059863
0000a0 be a7 41 3d 4f b9 c0 3d 1e df 53 bd 92 cb d6 3d
       0.047279112 0.09410345 -0.051726453 0.10488047
0000b0 b2 f6 40 3e ed ee 2a 3e c9 2e 91 3d 66 ee ee bb
       0.18844107 0.16692705 0.07089002 -0.007291603
0000c0 e4 03 91 3e f6 58 9e 3d 55 13 b1 3c 9c dc c4 3d
       0.2832328 0.07731812 0.021615664 0.096123904
0000d0 e4 d6 23 bd 48 06 0b be 84 91 d8 3d 99 24 aa bd
       -0.039999858 -0.13576615 0.1057463 -0.08307762
0000e0 9a 5a 28 be 79 46 e6 3d b5 d4 4c bc b4 3f 65 bd
       -0.16440812 0.1124391 -0.012501885 -0.055968955
0000f0 bc b0 70 3e 1b 86 8b 3d ad a7 18 be aa d6 c0 bd
       0.23504919 0.06812688 -0.14907713 -0.09415944
000100 6a 33 41 3d c9 dd 89 3d c5 a8 62 be b9 26 bc bd
       0.047168173 0.06731755 -0.22134693 -0.09187073
000110 2f 60 13 3d 32 7e e5 bd d4 ac 4f bd ef ba 82 3e
       0.0359804 -0.112057105 -0.05070193 0.25533244
000120 d4 59 b5 3c 54 77 4c be 3c e1 b0 bd 53 b0 0d 3d
       0.02213756 -0.19967395 -0.0863671 0.034591984
000130 2a 82 e8 bd d6 46 8a bd f1 26 fd 3d 5c 4c 25 3d
       -0.11352952 -0.06751792 0.12360943 0.040356025
000140 4d d0 d5 bd a5 bf 3d 3e f9 0a aa 3d 69 99 06 3d
       -0.10440121 0.18530138 0.08302874 0.032861147
000150 0f 3d f3 3d ff 8d 4f 3e 5a 95 26 3e 83 33 a9 3d
       0.118768804 0.20269011 0.1626791 0.08261778
000160 7d 80 0b 3e b9 0d ff 3d 92 89 19 3c 13 20 db 3d
       0.13623233 0.12453789 0.009371178 0.10699477
000170 95 36 7a 3e 40 d0 1b bd bc 02 a7 3c 2b 83 fc 3d
       0.24434884 -0.0380404 0.020387046 0.12329706
000180 01 61 f4 3c 21 82 51 3d be 56 a8 3d de 23 84 3d
       0.029831411 0.05114949 0.0821967 0.064521536
000190 c3 f0 33 3e 15 b4 4c 3e e3 4d 7b bb 3b 4c 59 bc
       0.17572312 0.19990571 -0.0038345985 -0.013262804
0001a0 26 58 50 3d 68 0a 40 bd 0d 8f 7f bd 23 52 11 be
       0.050865315 -0.046884924 -0.062392283 -0.14191489
0001b0 3e eb 76 3d 4a 94 bc 3c fc 29 51 be fb 58 6c 3d
       0.06028294 0.023019928 -0.20426172 0.057702046
0001c0 98 f1 33 be 55 9d 29 be 72 06 01 3d 0a 30 0a 3c
       -0.1757263 -0.16563924 0.031500287 0.008434305
0001d0 a9 69 bf bd ae 0b 00 3d 25 cb 8f bb a2 e9 ea 3d
       -0.09346325 0.03126114 -0.0043882304 0.11470343
0001e0 42 79 4b bd 47 00 6d bd f6 00 08 be 03 ea cf 3d
       -0.049676187 -0.057861593 -0.13281617 0.10152056
0001f0 22 8b 0a be 47 3b 6c be fa c2 47 bd 87 7f a1 bd
       -0.13529637 -0.23069488 -0.04876993 -0.07885652
000200 5a 8e ab bd 37 d1 aa bc 28 b9 1b be 8e 19 c2 bd
       -0.08376761 -0.020851715 -0.1520735 -0.094775304
000210 bb 77 b9 3c 4d 22 c3 bd 77 f0 c2 bd a8 bb e8 3d
       0.0226401 -0.09528027 -0.09518521 0.113639176
000220 2c 6e 74 3d e0 a2 d0 bb e9 75 9d 3d 25 be a2 3d
       0.05967538 -0.0063670725 0.07688505 0.079464234
000230 d3 01 16 be e5 ea df bc e9 dc 94 3c c0 22 c6 bd
       -0.14649133 -0.027333686 0.018171744 -0.09674597
000240 a5 3c 38 bd 01 af d3 bc 6f 08 40 bd 22 b7 f6 3d
       -0.04497971 -0.025840284 -0.046883043 0.120466486
000250 fd ea 1b 3c 83 85 88 3b dc ab b3 3d 24 3a 97 bd
       0.009516475 0.0041663065 0.08773014 -0.07384136
000260 08 0d 05 be 40 e0 0c be 15 87 15 bd 7b 63 00 be
       -0.12993252 -0.1375742 -0.036505777 -0.12537949
000270 19 2c c4 39 f7 33 b9 bc bb 28 80 3d fc 7b 56 bd
       0.00037416889 -0.022607787 0.06257769 -0.052364334
000280 23 26 a6 3d 8b 65 12 3d 64 0f 11 3d 6d 5a b8 bd
       0.08112743 0.03574137 0.03541507 -0.09001622
000290 49 ae 6d be 41 b7 e0 bb 6c 9a 87 3d f1 21 99 3c
       -0.23211016 -0.006857783 0.066212505 0.018692942
0002a0 6d 76 a3 bd 52 77 8b bd e8 6f bd 3b 8a fd 9e bd
       -0.07981572 -0.06809868 0.0057811625 -0.077632025
0002b0 53 05 2f bd 5d 5c 56 3d 23 b0 ac 3c a1 2d 77 3d
       -0.042729687 0.05233418 0.021080082 0.06034625
0002c0 fc c8 85 3d 9c 51 c7 bb 25 e9 e5 bc 3b d6 92 3c
       0.06532475 -0.0060827266 -0.028065274 0.017924419
0002d0 72 7b 02 be 2d a6 0f be 34 ee fb bd 06 55 16 bb
       -0.12742403 -0.14028235 -0.12301293 -0.0022938862
0002e0 92 cf af 3c 2f 84 b1 bd 8a 63 51 3c db 8c 1f 3d
       0.021461282 -0.0866779 0.01278008 0.03895269
0002f0 d5 d3 41 3d be 68 69 bd 74 8d 12 be 1d b1 44 be
       0.04732116 -0.056984656 -0.14311773 -0.19208188
000300 fa 19 14 be 05 fe 9a bd 82 b4 06 be 89 3a 2e bd
       -0.14463034 -0.07567982 -0.13154796 -0.042536292
000310 9c e9 54 bd bc b6 61 bc c0 6c 9d 3d d0 85 79 3c
       -0.0519806 -0.013776477 0.07686758 0.015229657
000320 a2 da 18 3e 11 3e 0c 3d 11 3b ab 3d 6d 63 29 3e
       0.14927152 0.03423888 0.083608754 0.16541834
000330 94 f3 9c bc ad aa dd 3c 44 3b e3 3d 59 52 3a 3e
       -0.019159116 0.027058924 0.110952884 0.18195476
000340 4a ff 8b 3d d2 72 a0 3d 8b 46 24 3e 42 99 92 3d
       0.06835802 0.078344 0.16042535 0.07158138
000350 3b a8 71 3d d9 53 d6 3d 49 a2 26 3e fb c9 bd bc
       0.058998328 0.104652114 0.16272844 -0.0231676
000360 2e 71 71 3c e1 b0 c8 3d 82 2b 8f 3d ba aa e6 bc
       0.014736457 0.09799362 0.0699072 -0.02815758
000370 8c 88 9d bc 90 66 00 bd a7 62 d0 3d 25 98 81 3d
       -0.01923015 -0.03134781 0.101750664 0.063278474
000380 f5 63 49 bd 64 bb 06 3e 65 4a 5e 3d a8 65 c1 3b
       -0.049167592 0.13157421 0.054270167 0.005902011
000390 53 06 de 3d 02 9a 34 3e 43 6f 3e 3b fe 24 b3 3d
       0.1084105 0.17636874 0.0029058016 0.0874729
0003a0 31 40 bf 3d 35 67 44 3d e5 84 0a 3e 98 2d ba 3d
       0.093384154 0.04794999 0.13527258 0.090907276
0003b0 05 3b cf 3d 6e 2e dc bd 95 56 95 3b e2 26 ab 3d
       0.10118679 -0.10751043 0.0045574405 0.08357026
0003c0 73 fa 4b 3d 7c a7 c3 bb 30 2f b7 3d 7f 4e 79 bc
       0.049799394 -0.0059708934 0.08944547 -0.015216469
0003d0 fc 85 63 bd 2c 1d a1 bd 77 d9 c4 bd af 22 5f bd
       -0.0555477 -0.07866892 -0.096117906 -0.054476436
0003e0 89 05 49 bd ed a6 99 3b 43 47 85 3d 44 92 9e bc
       -0.049077544 0.0046890886 0.06507733 -0.019356854
0003f0 34 fa b9 3d 02 e5 4a be 6c e9 3f 3e 2c 4c 6e 3e
       0.090809256 -0.19813922 0.18741387 0.23271245

bias f4 [20]
000000 45 9f 64 be 5e 0c 5a 3e 44 62 70 be d3 14 c5 be
       -0.22326382 0.2129378 -0.23474985 -0.3849245
000010 71 3f 75 be 7f 28 86 be 69 5a 6c be f6 5c 86 bd
       -0.23949982 -0.2620277 -0.23081364 -0.065607
000020 1d 1f 52 be 2f 0b 34 3e 2f 87 40 be 2a 6a a7 bb
       -0.20519681 0.17582391 -0.18801568 -0.0051090913
000030 c1 7c c5 3e b4 9a 9b bd 00 50 df 3e 68 13 9c bc
       0.38571742 -0.07597867 0.43615723 -0.019052222
000040 6f e8 ab bd 1d 53 da 3e 0c 75 af be 54 3f 33 3d
       -0.083939426 0.42641535 -0.34268987 0.043761566

weight f4 [120, 500]
000000 e4 69 f8 bd 8e 1f 90 bd de e2 42 bd 69 6b a0 bc
       -0.12129572 -0.070372686 -0.04757964 -0.019582467
000010 25 65 82 3d 47 9c a7 3c 13 fe 2a bd 5f 32 89 bd
       0.06366948 0.020460261 -0.04174621 -0.06699061
000020 14 62 30 bd 2d d0 94 bc 47 f7 ab bc 02 02 a8 3c
       -0.043062285 -0.018165672 -0.020991934 0.02050877
000030 96 3f 4c bd 94 33 03 bc c5 95 19 3d 40 14 c6 39
       -0.049865328 -0.008007903 0.037496347 0.0003778059
000040 98 e7 25 bd 65 dd 00 bd 78 5a bf bc d1 5b c8 3c
       -0.040504068 -0.03146114 -0.023358569 0.024457844
000050 7d c9 87 3b d1 00 9d 3a ed 47 64 bd e2 0c 11 3c
       0.0041438923 0.0011978393 -0.055732656 0.008853169
000060 19 62 6d bc f7 13 aa bd 82 28 4e bc ed 56 5c bb
       -0.01448872 -0.08304589 -0.0125829 -0.0033621148
000070 c8 9d bd 3d b2 2b fe 3c 40 30 1b bc f3 0d 1d bd
       0.0925861 0.031026695 -0.009471953 -0.03834338
000080 d6 26 9f ba fa 70 dc 3c 07 b3 01 3d 90 f4 03 3a
       -0.0012142311 0.02690934 0.031664874 0.0005033696
000090 9c b8 1b bb 8c 57 15 3d c5 3e 6b 3d a0 ab 17 3d
       -0.0023761159 0.036460444 0.05743291 0.03702891
0000a0 6d dd 55 3b 0e d3 4a bc c9 b6 38 3c 0f b2 40 3d
       0.00326332 -0.012379421 0.011274048 0.04704481
0000b0 4d 46 bf 3c a8 19 50 3d 5d 1f f0 3c 07 92 ab bc
       0.023348952 0.050805718 0.02931183 -0.020943655
0000c0 59 55 85 3d ff 3d 6d 3d d8 8e 1d bc be 83 c4 bc
       0.065104194 0.057920452 -0.009616576 -0.0239886
0000d0 0d 8b 46 bd bb af 6c bb d4 be 26 3d 88 9b 6a 3c
       -0.048472453 -0.0036115486 0.04070933 0.014319308
0000e0 3d 9b 4d 3b af 81 cf b9 7b 3c a0 bb 56 b4 70 3d
       0.0031373047 -0.00039578739 -0.0048900223 0.05876573
0000f0 2f 03 2f 3d 53 ff 7a bc fc f0 ee bb e3 98 42 bd
       0.042727645 -0.015319663 -0.007291911 -0.047509085
000100 bb 29 2c bd c9 9d b8 3c a5 f3 bc bc 92 aa 36 bd
       -0.042031985 0.022536175 -0.023065398 -0.044596262
000110 b9 49 0c bc f5 03 e2 3c 2e 17 5c bb c8 43 c9 3c
       -0.008562499 0.027589777 -0.0033583152 0.024568453
000120 da 18 e7 bb f3 9d 47 3a 0a 25 d3 bb bf 64 3f bd
       -0.007052523 0.0007614784 -0.0064436244 -0.04672694
000130 0a 70 ea bb 99 41 96 bc 25 4d 55 3c 0b 5c d1 3c
       -0.0071544694 -0.018341826 0.013018881 0.025556585
000140 b9 ca 3a bd ce a3 0c 3d 41 fc c1 bc e4 6d 67 bc
       -0.045603488 0.034335904 -0.023679854 -0.014125321
000150 b1 28 86 bd 3a 90 8d bb 92 e4 a9 bc 9d a9 09 ba
       -0.0655073 -0.0043201717 -0.020738874 -0.00052514096
000160 e9 1a 69 bd 40 37 38 bd 82 26 1c bd a7 e3 d0 bb
       -0.05691043 -0.044974566 -0.03812266 -0.0063747945
000170 a4 2a 6c 3d ad df c5 bc 55 f9 99 bc be 83 43 bc
       0.057657853 -0.024154508 -0.018795649 -0.011933265
000180 d4 89 0f bd 1b 37 20 3d 7b d4 fe bc 92 82 f1 3c
       -0.035043553 0.039115053 -0.031107178 0.029481206
000190 bc bf 0b 3d 0a 45 5a 3d 52 e9 4a 3d 0a 66 87 3d
       0.0341184 0.053288497 0.049538918 0.06611259
0001a0 f7 66 1a 3d 4a d0 47 3b 27 e6 7c 3d 0d fc 2a 3d
       0.03769585 0.003048914 0.061742928 0.04174428
0001b0 ff 7d 81 bd cc 2e 4e 3d 79 b5 30 3c 20 f4 8e 3d
       -0.0632286 0.050337598 0.010785454 0.06980157
0001c0 10 e3 10 3d c1 52 f5 3c 58 3d 09 bc ef e3 93 3d
       0.035372794 0.029946687 -0.008376442 0.07221209
0001d0 18 b5 27 3d 32 ea 82 3c 55 ea 20 bd 24 52 ae 3c
       0.04094419 0.015980814 -0.039285976 0.021279402
0001e0 d5 d0 cc 3c 8e 45 cc bb 38 6b 11 ba 78 78 35 bd
       0.025001923 -0.0062338775 -0.0005547288 -0.04430434
0001f0 c0 94 33 3d fa e1 39 3d 33 b5 5a 3c 50 22 34 bd
       0.04384303 0.045381524 0.013348865 -0.043978035
000200 86 02 01 3d 4c 29 c0 3b 6b e6 25 3b d3 1c 9f ba
       0.031496547 0.005864298 0.0025314342 -0.0012139328
000210 69 97 98 3d 3f 70 65 bd f3 4d 1e 3b 33 c8 ca 3b
       0.07450754 -0.05601525 0.0024155348 0.0061884164
000220 c6 84 e7 3c 13 86 93 bc 16 ac bc bc ff ee 20 3d
       0.028261553 -0.018008268 -0.023031276 0.039290424
000230 c8 d0 3e bd b5 bb ca bc 30 f6 6f 3d 0c f6 17 3d
       -0.046585828 -0.024747709 0.058584392 0.037099883
000240 5f 77 c7 3d b4 0c 46 3d e0 59 c1 bc 76 87 f8 3c
       0.09739565 0.04835196 -0.023602426 0.03033803
000250 1d a6 68 3c e1 c9 22 3c a7 d9 c0 3c ac 3e 29 3c
       0.014199761 0.009935827 0.023541285 0.010329884
000260 c3 96 af bb 2e 35 80 3b a7 5c dd bc eb 5b d4 3b
       -0.0053585484 0.0039125895 -0.02702172 0.006480684
000270 e4 12 86 bc ae d3 9e 3c e0 e7 92 bd ea b1 b4 3c
       -0.01636643 0.019388046 -0.07173133 0.022057492
000280 3c 6d 79 bc 16 74 4d bd 94 65 0e bd c5 e7 2c 3d
       -0.015223797 -0.050159536 -0.03476484 0.04221322
000290 80 e5 f7 3c 5c 37 66 3b fd 31 a8 bc 9e da 9f ba
       0.030260801 0.0035128212 -0.020531649 -0.001219589
0002a0 d6 42 ca 3d c4 42 ec 3d de 79 0f bd ac 36 4d 3d
       0.09876029 0.11536172 -0.03502833 0.050100967
0002b0 fb c4 5f 3d 2e 10 0c bd ca 85 bd bc f0 18 cd bc
       0.054631215 -0.034195118 -0.023135085 -0.025036305
0002c0 55 46 ad bb 78 29 8a bc 6f 04 08 3d 46 61 27 3d
       -0.0052879252 -0.016865477 0.033207353 0.04086425
0002d0 f5 06 87 bc 6c ac e9 bc 57 31 86 bd 16 25 60 bc
       -0.01648281 -0.0285246 -0.065523796 -0.013680717
0002e0 2d 9b 9b 3c af 51 70 3c ba d5 18 bc 78 44 55 bd
       0.018994892 0.014667912 -0.0093283 -0.05206725
0002f0 82 9f 12 3c 3c 14 40 3d 44 00 57 bd 40 7c d4 bc
       0.008949162 0.046894297 -0.052490488 -0.025938153
000300 a0 93 14 3c 81 b9 e2 bc c6 fa 0e bb d1 d9 87 bd
       0.0090684 -0.027676346 -0.0021816953 -0.06633342
000310 50 80 f4 bc 43 3d dc 3b a4 1a 10 bc a5 d4 86 b9
       -0.02984634 0.00672117 -0.008795414 -0.00025716904
000320 34 c5 1e bb e0 cf 96 bc cb 3f 8a 3c 10 93 88 bc
       -0.002422643 -0.01840967 0.016876122 -0.016671687
000330 2b 59 ab ba b8 e2 13 bd 3e 39 8b 3c d8 a4 5d bb
       -0.0013072839 -0.036104888 0.016995069 -0.0033820178
000340 ae 38 ce 3c 72 f4 52 bc bb 9c ae 3c 50 8e 84 3d
       0.025173511 -0.012875663 0.02131497 0.064724565
000350 36 df c5 3a ac 58 4a bc c7 77 69 3c 57 32 00 bd
       0.0015096429 -0.012350243 0.014249749 -0.031298008
000360 41 05 e9 bc fd 2d 2c bc 6a 80 09 3c 73 85 f3 ba
       -0.028444888 -0.010509011 0.008392433 -0.00185792
000370 97 5d e6 bb c9 e2 94 bd 0b d5 41 bd 0e c4 a7 ba
       -0.0070301997 -0.07269818 -0.047322314 -0.0012799518
000380 72 9e 3d 3c 4c ea 59 3d 67 9c a4 3c 62 d2 b8 bc
       0.011573421 0.05320196 0.02009411 -0.022561256
000390 9a af 8e 3c c6 b6 05 bb 07 d5 1a bd e5 84 81 bd
       0.017417718 -0.002040313 -0.037800815 -0.06324176
0003a0 b7 0c 76 bd c4 91 82 bd 89 26 5e bd d2 9a 9f 3a
       -0.06007072 -0.06375459 -0.05423597 0.0012176877
0003b0 bf 2c b8 3b 81 33 9d bc f1 4d cf bc f8 bb 13 bd
       0.0056205685 -0.019189598 -0.02530572 -0.036067933
0003c0 54 3c 75 3a fb 3c c1 b9 e5 91 80 3d 79 36 20 3d
       0.0009354998 -0.00036857263 0.06277827 0.03911445
0003d0 14 17 3a 3c ae 22 6b bd ae d6 81 bc 39 d5 c7 3c
       0.011358041 -0.05740612 -0.015849438 0.024393665
0003e0 99 bd 24 bd 69 c5 12 bd 7c 94 33 3d 83 18 ba bb
       -0.040219877 -0.035832796 0.043842778 -0.0056791916
0003f0 b9 17 8a bc a3 92 84 bd 65 84 b6 3b 76 44 19 bb
       -0.016857015 -0.06473281 0.005569982 -0.0023386753

bias f4 [120]
000000 b1 9b 6b 3d f1 d6 4c 3d e9 ed 01 ba 81 ad 4c 3c
       0.057521526 0.05000967 -0.0004956411 0.012492538
000010 8c 66 df 3c c6 b0 3c 3d ce 7e 0e 3e 41 05 57 3d
       0.027270578 0.04606702 0.1391556 0.052495245
000020 51 b5 af 3d 3c 6b 55 bd 79 40 3d 3d 8d 57 78 38
       0.08579505 -0.05210422 0.046204064 5.9209346e-05
000030 05 7d 3f bd ca 98 d2 3d 90 a0 e5 3d 1c 6d d8 3c
       -0.046750087 0.102830485 0.112122655 0.026419215
000040 98 05 99 bd 44 51 0e bc 64 ea 65 3d 21 b3 d5 bc
       -0.0747177 -0.008686367 0.056131735 -0.026086392
000050 af 51 1e 3d 99 38 1f 3d 92 8f 0d 3c f9 90 06 bd
       0.03865212 0.038872335 0.008640187 -0.0328531
000060 3a b8 f5 bc 2b 37 4e 3a 7c ea 92 3d 2f ae d9 bc
       -0.029995073 0.0007866497 0.071736306 -0.026572315
000070 9b d9 91 bd ab 95 ff 3d c4 e1 43 3c a5 17 47 3b
       -0.07121583 0.12479719 0.011955682 0.0030379083
000080 75 55 24 3d 05 8c f8 3c b3 17 93 3d 3d 41 6c bd
       0.04012056 0.030340204 0.07182255 -0.057679404
000090 07 e2 f5 3b f8 3d 43 bd 4e 89 a7 bc 86 91 03 bd
       0.007503751 -0.04766652 -0.020451214 -0.032121204
0000a0 38 d5 21 ba 93 cd 5b bd 06 3a bd 3b 5f 90 dd bc
       -0.00061734347 -0.053662848 0.005774739 -0.02704638
0000b0 48 e8 01 3d 66 cd 1c 3e 92 0b 84 3d b1 da a1 ba
       0.03171566 0.15312728 0.06447519 -0.00123485
0000c0 63 c4 d8 3d 86 91 40 bd e6 1d fe 3c 0f 22 6b bd
       0.10584333 -0.047013782 0.031020116 -0.057405528
0000d0 8f c7 4e b9 21 17 b4 bc 9b 1c 8c 39 77 ae 4e 3d
       -0.00019720032 -0.021983685 0.00026724194 0.05045935
0000e0 f2 c1 da 3b 3d 93 92 bd d7 e0 08 bd ed 9f 23 be
       0.006675952 -0.0715699 -0.03341755 -0.15978976
0000f0 81 fa 88 bd 0e 66 f7 3c 15 a4 70 3c 59 28 54 3d
       -0.06688405 0.03020003 0.014687558 0.05179629
000100 63 21 80 bc 07 9d da bc 1c eb 3a 3d 13 40 8b 3b
       -0.01564092 -0.026686205 0.045634374 0.0042495816
000110 69 c0 8a 3d 64 b7 62 3b da 19 0c 3d 91 71 57 bd
       0.067749806 0.0034594173 0.03420434 -0.05259854
000120 fc 41 5f bc 08 1a a1 bd d5 47 9d bb fb 36 1b bd
       -0.013626572 -0.07866293 -0.004799823 -0.03789423
000130 88 bb 00 bd dc ca 4d b9 bb 70 03 bd b1 2d 08 bd
       -0.031428844 -0.00019625894 -0.03208993 -0.0332467
000140 94 fb dd 3d 78 a6 f3 bc b2 dd ba bc 30 c6 3d bd
       0.10839 -0.029742464 -0.02281079 -0.046331584
000150 e7 8b db 3d 61 cc 98 3d 00 82 df 3b 80 97 ef bd
       0.10720044 0.07460857 0.006820917 -0.11698818
000160 52 25 52 3d 3c 0e 8c 3d ff 58 4f ba 6a cb 80 3c
       0.051305123 0.068386525 -0.0007909685 0.015721995
000170 8f f8 0c 3e 6e 0c ce bb d5 8c bb bb 2b 0d 5e bc
       0.13766693 -0.006288103 -0.0057235756 -0.013552944
000180 1e fa af 3d e4 f0 b9 bc 59 bc e1 bd f0 42 e4 bb
       0.08592628 -0.022697873 -0.110222526 -0.0069659874
000190 92 f2 e0 3d 89 0f 12 bd 4e 12 f2 bc aa b0 4b 3e
       0.109837666 -0.035659347 -0.029549744 0.1989161
0001a0 54 4a db 3b 8a 2d c9 bc 53 69 89 bc 6c d7 4c bb
       0.00669221 -0.024557848 -0.016773855 -0.003125633
0001b0 b0 f6 8c 3d c8 02 a5 3c e3 18 89 bd c1 36 d8 3c
       0.068829894 0.020142928 -0.066942 0.026393296
0001c0 f0 d9 58 bd 45 42 21 3e d8 31 82 bd 3d b5 be bc
       -0.052942216 0.15747936 -0.06357163 -0.02327978
0001d0 35 0e de 3c 10 5e 9f 3d 8f 98 77 3d 43 aa 1b 3b
       0.027106384 0.07781613 0.060448226 0.0023752607

weight f4 [84, 120]
000000 5a c4 91 bc 12 0a af bd bb 16 76 3d dd c8 e4 3c
       -0.017793823 -0.08546843 0.06008027 0.02792781
000010 d7 a5 92 bd ba 5e 02 bd 6e b7 2f 3b 45 04 9f 3d
       -0.07160538 -0.03182862 0.0026812213 0.07764486
000020 ac 72 07 3e 7c bf ad bd 02 21 93 bd e0 d9 7d 3d
       0.13227338 -0.08483788 -0.0718403 0.06197536
000030 04 4e b5 3c eb db da 3c ef 1c 4c bd 24 01 0b be
       0.022131927 0.026716193 -0.04983228 -0.13574654
000040 7b 3a 39 bd 71 08 2e bd e2 dd 35 3d bd ff 24 bd
       -0.045221787 -0.04248852 0.044401057 -0.040282954
000050 d5 cc bb bd 86 e0 b8 bc 5c 85 ea 3d 1f 65 f3 bb
       -0.09169928 -0.022567999 0.114512175 -0.007427826
000060 a9 04 0b 3d 42 8c 97 bd 0b 1d 19 3e e6 8e 64 3d
       0.03393999 -0.07399799 0.14952485 0.05580034
000070 e6 d2 b9 3d 7a 1e 35 bd 9e a8 06 bd ec 0f 26 3d
       0.09073429 -0.044218518 -0.03287565 0.040542528
000080 6a 8e 89 3d 03 2e a3 3d f9 44 ad 3d fa 31 ed 3d
       0.067166165 0.079677604 0.08460421 0.11581798
000090 dd 35 ab 3d 24 7a aa 3d d8 4b 26 3d b0 17 fb 3b
       0.08359883 0.08324078 0.040599674 0.007662736
0000a0 d2 59 42 3c 02 65 31 3d fb 7e 64 3d 3c 05 2b bd
       0.011862235 0.04330922 0.05578516 -0.04175304
0000b0 10 ca d0 bd 80 bb 7b bd 50 0f 44 3b cc a6 db 3c
       -0.1019479 -0.06145811 0.0029916354 0.026812933
0000c0 0e 09 7f 3d 78 69 a7 bc 1f 50 b5 3c 6a f9 73 bd
       0.062264495 -0.020436034 0.022132931 -0.05956403
0000d0 61 10 ab 3d 1f 6c 72 bb 3c cf 0e 3c f3 16 cf 3d
       0.083527334 -0.0036990715 0.008716401 0.10111799
0000e0 75 b5 2c bd 68 94 b8 3c d7 3a 18 bd 00 0f 2b bd
       -0.04216524 0.022531703 -0.03716549 -0.041762352
0000f0 76 b2 cd bd 35 91 12 bd 3e b6 d5 3d 11 ad 11 3d
       -0.10043804 -0.03578301 0.104351506 0.03556544
000100 a0 88 b6 bd 90 4b c8 bc 91 50 20 bb cc 87 2e be
       -0.08912778 -0.024450094 -0.0024462084 -0.1704399
000110 bb 71 80 3d fe 32 93 3d 99 50 20 bd 9c 5f 35 3e
       0.06271692 0.0718746 -0.039139364 0.17712253
000120 ae 53 f1 3d 01 78 da bd 69 f7 e5 bb bc 30 0e be
       0.11783539 -0.1066742 -0.007018019 -0.13885778
000130 55 c0 a5 bd bb a6 4a bd 5c 6c ad bd aa b4 a9 bd
       -0.08093325 -0.049475413 -0.084679335 -0.08286412
000140 53 40 ab ba 46 fb b5 3d 8d 11 b9 bb ba f4 e8 bd
       -0.0013065435 0.08885817 -0.005647844 -0.11374803
000150 77 03 a5 bd bf 86 69 3c 4d db 08 be 84 82 33 be
       -0.080573015 0.014253317 -0.13364907 -0.17530257
000160 1c 25 49 bd 76 08 fb 3d 1d 79 ba 3d 48 35 0c 3b
       -0.049107656 0.12257473 0.09105132 0.0021394063
000170 ca 2a 41 be 7f d0 d7 bd 15 0b 84 3c ee f3 3a bd
       -0.18863979 -0.10537814 0.016118566 -0.045642786
000180 b1 80 d7 bc 71 4c 18 bd 78 47 61 bd a4 ab 63 3d
       -0.026306482 -0.037182275 -0.0549998 0.05558361
000190 ed 60 07 bc ac 1d eb bd 2e d7 2a be a6 95 0b 3e
       -0.008262855 -0.11480269 -0.16683647 0.13631305
0001a0 53 d2 0c be 63 e3 55 bd e6 c0 69 3d 7e 2b 82 bd
       -0.13752107 -0.052218806 0.057068728 -0.06355952
0001b0 b2 7c 32 bc 61 f2 45 ba 58 56 62 3d e7 01 07 3e
       -0.0108939875 -0.0007551071 0.055258125 0.1318432
0001c0 43 e6 07 3d 64 46 b0 3d 1b 31 68 3c f5 20 b0 bd
       0.03317858 0.08607176 0.014171864 -0.08600036
0001d0 43 d0 73 3d 3a 15 ca 3c e0 10 e6 bb 6e eb 48 bd
       0.059524786 0.024668325 -0.0070210546 -0.04905265
0001e0 73 09 74 3d fb 73 42 bd 7a 99 ae bc f0 30 80 3c
       0.059579324 -0.04747389 -0.021313418 0.015648335
0001f0 5b c5 74 bd 12 52 d6 bd ba 04 bc bc 28 54 41 bc
       -0.059758525 -0.104648724 -0.022951473 -0.01179985
000200 31 fe e9 3d 1e 89 ae 3d 62 3b d4 bc ff 55 88 3d
       0.11425436 0.08522247 -0.025907222 0.066570275
000210 27 f9 67 bc 39 17 bd 3c ab 22 3e bd f5 b9 75 3d
       -0.014158524 0.023082362 -0.04641978 0.059991796
000220 1c 61 c4 3d be f8 87 3c 23 12 06 bd 5e 3c da 3d
       0.09588835 0.016598102 -0.03273214 0.106560454
000230 90 14 73 bd af 8d 97 3d 74 cd 0e 3d f8 46 b1 3d
       -0.05934578 0.07400071 0.034863904 0.08656114
000240 96 be 17 bd 8f 7e 86 bc ad f5 8d bd d3 71 ab 3d
       -0.03704699 -0.01641777 -0.069316246 0.083713196
000250 e8 dc b1 3d 5c 92 43 bd 8c e2 11 bd f1 50 6c bc
       0.08684713 -0.047747 -0.035616443 -0.014423595
000260 b6 c1 d4 bd d0 10 02 bd dc fb ec 3c ce be 9f 3d
       -0.1038851 -0.031754315 0.02892869 0.07800065
000270 d8 a1 a6 bd 43 a9 b1 ba 4e 92 5f bb 9f f1 32 bd
       -0.08136338 -0.0013554472 -0.0034114304 -0.04368746
000280 bb 1b c8 3d b8 2e b2 bd 1c 44 9c 3d 00 08 10 be
       0.09770914 -0.08700317 0.07630178 -0.14065552
000290 18 23 97 3d fe a1 14 bd 0e e4 24 bd b8 e1 81 bd
       0.073797405 -0.0362873 -0.040256552 -0.063418806
0002a0 18 67 ae 3d a4 2e b3 bc bb ec 85 3c dd 6e c8 3c
       0.08515757 -0.021872826 0.016348233 0.024466926
0002b0 0f b8 c2 3d 63 59 b7 3b 1b 39 e3 3d 70 76 a1 3a
       0.09507763 0.0055953725 0.110948764 0.0012318622
0002c0 67 2e b7 3d ee b9 ec bc dd eb b0 3c 83 86 ee 3d
       0.089443974 -0.028897252 0.021596843 0.1164675
0002d0 5a da 81 3d 06 49 73 bd 3d af ac bd fe cd 81 bd
       0.063404754 -0.059395812 -0.084318615 -0.06338118
0002e0 18 d3 97 3d 81 35 94 3c a5 19 4a 3d b4 a5 0d 3c
       0.0741331 0.018091919 0.049340863 0.008645464
0002f0 64 a1 2d 3d 5f 6f 60 3d f9 da ab bc 9f c5 9b 3d
       0.042390242 0.05479371 -0.020978438 0.076060526
000300 d5 b5 8c 3d 7f 78 2a bd 7e ac e7 3c 5c e1 c6 bc
       0.06870619 -0.04161882 0.028280493 -0.024277382
000310 3d f7 b1 bd b0 34 e7 bc aa 02 49 3d 5c 2f 82 bd
       -0.08689735 -0.028223366 0.049074806 -0.06356689
000320 b1 7d ea bd bb 0c 0c 3e e4 9d 29 bd e9 31 c1 3d
       -0.11449755 0.13676731 -0.04141034 0.09433348
000330 8d 06 7f bd 45 d1 4d bd f0 49 c0 bc e5 c8 b5 3c
       -0.062262107 -0.050248403 -0.023472756 0.02219052
000340 55 a0 bb 3c 87 a3 32 3d f0 70 6f 3c a3 5f bb bd
       0.0229036 0.043612983 0.014614329 -0.09149101
000350 1d f3 52 3b db 19 a0 3d 73 27 d4 bd 1c 8b ad 3d
       0.0032188364 0.078174315 -0.10359087 0.08473799
000360 82 86 a3 bd 9f 43 c7 3d 74 fc 2e bc 39 70 bf bd
       -0.0798464 0.097296946 -0.010680307 -0.09347577
000370 6f 64 c4 3d a7 28 c5 bd 4a 72 b1 3c b1 bf b2 3d
       0.09589469 -0.096268944 0.021660943 0.087279685
000380 7a f7 2f bd d3 17 5d 3d ca 7c 23 bd 63 90 06 3d
       -0.04296062 0.0539778 -0.03991393 0.03285254
000390 09 26 8b bd 59 31 9e 3d b6 b0 80 bc c7 f5 ab bd
       -0.06794364 0.07724256 -0.015709262 -0.08396488
0003a0 db 84 2b 3d 3c 68 84 3c 86 71 2a 3c 84 9c 5b bc
       0.041874748 0.016162984 0.010403043 -0.013404015
0003b0 ef 40 53 bc a0 29 a7 3d 2d e9 c6 3c a8 d9 94 3d
       -0.012893899 0.08162236 0.024281109 0.07268077
0003c0 f1 83 96 3d d4 6d 54 3d b0 8e 75 3d 65 75 a2 bd
       0.073493846 0.051862553 0.05995053 -0.079325475
0003d0 4b 18 48 3d e5 e0 e2 bc b9 80 e4 3c 28 92 dc bd
       0.048851293 -0.027695129 0.027893411 -0.107700646
0003e0 94 32 c8 bd aa d8 91 bc 86 a8 38 bd 3f 3e 01 3d
       -0.09775272 -0.017803509 -0.04508259 0.031553503
0003f0 ea 96 5d 3c 46 0c 1c 3e 7d 3a 20 3d 2e 9d 19 3e
       0.01352475 0.15239057 0.03911828 0.15001366

bias f4 [84]
000000 27 c6 15 3e 43 f8 c7 bd c3 ae 6c bc 3b e0 0e 3e
       0.1462637 -0.09764149 -0.014445963 0.13952725
000010 6a 28 4c bd 44 78 49 3e fc 68 ad ba 6c ae 8d 3d
       -0.04984323 0.19674784 -0.001323014 0.06918034
000020 25 43 e2 3c 53 88 f6 3b cd 86 be b9 70 98 3c 3d
       0.027619908 0.0075235753 -0.00036340058 0.046043813
000030 3a 26 5c 3e b9 2e af 3d 2a 64 1b 3c bf df fa 3d
       0.21498957 0.085538335 0.00948433 0.122497074
000040 68 01 93 bd 40 69 cd 3d c4 a2 f9 3d df 13 96 3e
       -0.071780026 0.100298405 0.12189248 0.29312035
000050 92 75 df bd e9 99 ff 3d ee f0 21 3c 29 5d a6 bd
       -0.10911097 0.12480528 0.009884102 -0.08123238
000060 c1 9f 9f bc 47 93 c9 3d d7 e8 b8 3d e2 1c 31 be
       -0.019485356 0.09842544 0.09028786 -0.17296174
000070 b8 46 0b 3e 45 c2 59 3e e4 58 34 3e d2 fa 22 3e
       0.13601196 0.21265514 0.17612034 0.15915993
000080 91 04 82 3d 30 c2 7b 3d cb 42 4f bd 91 84 8f bd
       0.06348527 0.06146449 -0.050600808 -0.07007707
000090 b1 f7 1c bd 35 a6 44 3e 4a b1 0c bc 77 07 af bd
       -0.038322154 0.19204028 -0.008587191 -0.08546346
0000a0 0c 1f db 3d dd 43 09 be 0f 56 71 3e 09 3f 70 3d
       0.10699281 -0.13404794 0.23567985 0.058653865
0000b0 a6 b3 a4 3e 51 48 1e 3e d8 86 76 be 62 7a 05 3e
       0.3216831 0.15457274 -0.24074876 0.13034967
0000c0 dd 4e 77 3d 15 9e 08 be ee 4c d3 bc 7f 5b 4e bd
       0.060377944 -0.13341554 -0.025793519 -0.050380226
0000d0 b1 b9 ae 3d f9 f9 5a bc 80 0f 87 3d 16 2e 56 3c
       0.085315116 -0.013365262 0.06594753 0.013072511
0000e0 98 cd 62 3e 01 54 eb bd b0 2e 75 bc c0 91 2d bd
       0.2214874 -0.11490632 -0.014964744 -0.042375326
0000f0 78 dd 6e 3e 74 31 aa bd 81 80 4e 3e 31 e6 d1 bc
       0.23326671 -0.08310214 0.20166208 -0.02562246
000100 7f 23 c4 bd 78 ea 19 3b 94 d8 85 3e a4 48 1b be
       -0.09577083 0.0023485702 0.26141798 -0.15164429
000110 30 dd 39 3d 67 54 a5 3d 84 7e 09 bd 0c 98 55 3d
       0.045376956 0.08072739 -0.03356792 0.052146956
000120 c6 f9 35 3d 1b de df 3d 59 94 00 3e 63 e9 11 bc
       0.044427656 0.10931035 0.1255659 -0.008905741
000130 9f 39 49 3e c3 3b 88 3d a5 bd 2f 3d f2 6b 2d 3e
       0.19650887 0.06652024 0.04290547 0.16935709
000140 f7 73 fe 3d e8 a9 d1 bc f0 bf 04 3e 46 40 c8 bc
       0.12424462 -0.025593713 0.12963843 -0.02444471
