models/v4.pt (torch_old, 699059 bytes, 16 tensors)

weight f4 [5, 3, 3, 3]
0	0xbe641006	-0.22271737
1	0xbf0cd687	-0.5501484
2	0xbeff2493	-0.4983259
3	0x3ea7585d	0.32684603
4	0xbf05a95b	-0.5221154
5	0xbebaf872	-0.36517674
6	0x3ef247f4	0.4732052
7	0x3e16b525	0.14717539
8	0x3e712726	0.2355009
9	0x3e0ad289	0.13556875
10	0xbe4af9d1	-0.1982186
11	0xbcaed18f	-0.02134016
12	0x3edc1696	0.42985982
13	0x3dea1ec6	0.11431651
14	0xbd58c9ce	-0.05292683
15	0x3efa8371	0.48928407
16	0x3e546b39	0.20744027
17	0x3e264a9c	0.16239399
18	0x3c775ef7	0.015098325
19	0xbd70af86	-0.058761142
20	0xbdec5be8	-0.11540967
21	0x3ed1edb3	0.41001663
22	0xbe8b039e	-0.27151197
23	0xbdee86d6	-0.11646812
24	0x3e0cd09f	0.13751458
25	0xbdd6ac1f	-0.10482048
26	0xbe33a1bf	-0.1754217
27	0x3e299f91	0.16564776
28	0x3d0c3b3e	0.034236185
29	0x3e9ce9ac	0.30647027
30	0xbf155ae3	-0.5834181
31	0xbf3c693b	-0.7359807
32	0x3e11a76d	0.14224024
33	0x3ce09d34	0.02741871
34	0xbe3db577	-0.18526255
35	0x3e3d20e1	0.18469574
36	0xbedd345a	-0.43204004
37	0xbebdfc24	-0.3710643
38	0x3e418d14	0.18901473
39	0xbf0faf46	-0.5612682
40	0xbefedfce	-0.49780124
41	0x3f2b91b1	0.6701918
42	0x3e9dae6f	0.30797145
43	0x3e9e2480	0.30887222
44	0x3e6e7169	0.2328545
45	0xbe91c3ed	-0.28469792
46	0xbe74084c	-0.2383129
47	0x3ea209d1	0.31648114
48	0xbec0da7f	-0.376667
49	0xbef1d47a	-0.4723242
50	0x3e99c1dd	0.30030718
51	0x3ea6dee5	0.3259193
52	0x3e76d103	0.24103169
53	0x3d220cac	0.039562866
54	0xbf192030	-0.5981474
55	0xbe722837	-0.23648153
56	0xbe656692	-0.22402409
57	0xbec7a7de	-0.3899526
58	0x3f104124	0.56349397
59	0x3e22a594	0.15883476
60	0x3d8ebfc3	0.069701694
61	0x3f4e3b75	0.80559474
62	0x3ea93863	0.33050832
63	0xbed5669c	-0.41679847
64	0x3cd1afc4	0.025596507
65	0x3e075359	0.13215388
66	0xbdfb357c	-0.12266061
67	0x3f1a03b7	0.6016192
68	0x3e0aa145	0.13538082
69	0xbbbd021d	-0.005768074
70	0x3e95c9a9	0.29255417
71	0x3dc4cfbd	0.096099354
72	0xbe935d18	-0.28781962
73	0xbe4a9dfe	-0.19786832
74	0x3d9dc998	0.077044666
75	0xbebd932e	-0.37026352
76	0x3ee69a4e	0.450396
77	0xbe47a9af	-0.19498323
78	0xbc5972b3	-0.013271975
79	0x3d3f08a0	0.046639085
80	0xbe4ec371	-0.20191742
81	0xbe0b43fb	-0.13600151
82	0x3e28fc36	0.16502461
83	0x3c6864cf	0.014184191
84	0xbec6b008	-0.38806176
85	0xbe7992af	-0.24372362
86	0xbe8f05f5	-0.27934232
87	0xbd028158	-0.031861633
88	0xbe95789a	-0.29193574
89	0xbea3ee86	-0.32017916
90	0xbeaff05d	-0.3436307
91	0x3ed96704	0.42461407
92	0x3e1c2c0e	0.1525118
93	0xbe8cc398	-0.27492976
94	0x3eb8f69a	0.36125642
95	0x3ecc1b0a	0.3986438
96	0x3ea91f02	0.3303147
97	0x3e01ff77	0.12695108
98	0x3e47d08f	0.19513153
99	0xbed0f1c6	-0.40809458
100	0x3e514cb1	0.20439412
101	0x3eaa1805	0.3322145
102	0xbe6da9c9	-0.23209299
103	0x3d3c6166	0.045991324
104	0x3e94fadc	0.2909764
105	0x3e4a402d	0.19751044
106	0xbcf08400	-0.029359818
107	0x3d0cf4f8	0.034413308
108	0x3c99d6d2	0.018779192
109	0xbdf3a418	-0.11896533
110	0xbdb6630f	-0.08905613
111	0xbc524d59	-0.012835824
112	0x3ecc728e	0.39931148
113	0xbea9ffb9	-0.33202913
114	0xbeeb379f	-0.45940873
115	0x3e3f4f0a	0.18682495
116	0xbe18a26a	-0.14905706
117	0x3e1a1b3d	0.15049453
118	0xbd999cac	-0.07500586
119	0xbea9bba5	-0.33150974
120	0xbe21cc43	-0.15800576
121	0x3e63d57d	0.22249408
122	0xbeb33bcb	-0.35006556
123	0xbf336033	-0.70068663
124	0x3e380092	0.17968968
125	0xbe8a6976	-0.27033585
126	0x3e36681b	0.1781315
127	0x3e761e52	0.24035004
128	0xbe6287f6	-0.22122177
129	0xbda62d54	-0.081141144
130	0x3f47f0b9	0.7810169
131	0x3e85a156	0.26099652
132	0xbd942c98	-0.07235068
133	0x3ef1ceda	0.47228128
134	0x3ead8c31	0.3389602

bias f4 [5]
0	0x3dde99d2	0.10869183
1	0xbdbcbacc	-0.09215316
2	0x3d2a23f1	0.041538183
3	0x3e573e95	0.21019967
4	0x3e114cc0	0.14189434

weight f4 [8, 5, 3, 3]
0	0xbdd8d0a4	-0.1058667
1	0xbe61486a	-0.2200028
2	0xbe7d56ea	-0.24740186
3	0xbe9debaa	-0.3084386
4	0xbe78a4d6	-0.2428163
5	0xbb7ae1ee	-0.0038281637
6	0xbea39afe	-0.31954187
7	0xbd806a06	-0.06270222
8	0x3c0167f1	0.007898317
9	0x3dc1f55a	0.09470625
10	0x3e650f2c	0.22369069
11	0x3c55411d	0.0130160125
12	0x3ea6682b	0.3250135
13	0x3e7d5386	0.24738893
14	0xbd6607c9	-0.05615977
15	0x3e5e135f	0.21687077
16	0x3e0fdb48	0.14048493
17	0xbe0342fb	-0.1281852
18	0x3e0a70fe	0.13519666
19	0x3e5305e4	0.20607716
20	0x3e42837d	0.18995471
21	0x3db6c347	0.08923965
22	0x3e8d84ae	0.2764029
23	0x3db4d196	0.08829038
24	0x3da403dc	0.080085486
25	0x3d929c21	0.071586855
26	0x3c5b7990	0.013395682
27	0x3dee8b07	0.11647611
28	0x3bc734d0	0.006079294
29	0x3e428497	0.18995892
30	0x3e1c6449	0.15272631
31	0x3e310cf4	0.17290097
32	0x3dbefe01	0.09325791
33	0x3df8d777	0.12150472
34	0xbce1f752	-0.027583752
35	0xbc4d2f5d	-0.012523499
36	0x3e15b8b3	0.14621238
37	0x3e165faf	0.14684938
38	0xbd44e5f3	-0.04807086
39	0x3e3601c7	0.17774116
40	0x3e399797	0.18124233
41	0x3e06b476	0.13154778
42	0x3dbf18ce	0.09330903
43	0x3d15381f	0.036430474
44	0x3dab4778	0.08363241
45	0xbd9f17e9	-0.077682324
46	0xbd3d1b43	-0.046168577
47	0xbd272d7f	-0.040814873
48	0xbe33cacf	-0.17557834
49	0x3d80705f	0.06271433
50	0xbe3077b2	-0.1723316
51	0x3e1fbae1	0.15598632
52	0x3ebff080	0.37488174
53	0x3d95e6d5	0.07319418
54	0xbe1c6fd7	-0.15277039
55	0xbf142649	-0.5787092
56	0xbe82c9b1	-0.25544503
57	0xbea792a5	-0.32729068
58	0xbe03740e	-0.1283724
59	0x3ea08696	0.3135268
60	0x3ea9f5eb	0.33195433
61	0x3f155506	0.5833286
62	0x3e93a381	0.2883568
63	0x3f002c05	0.5006717
64	0x3e1f45a1	0.15553905
65	0xbec832b2	-0.39101177
66	0xbe89fde0	-0.26951504
67	0xbee782df	-0.45217034
68	0x3d04e978	0.032449216
69	0xbbb1907c	-0.005418835
70	0x3ee3c4ad	0.4448599
71	0x3f0b8fa0	0.5451603
72	0x3d55a528	0.05215946
73	0x3d927ce1	0.07152725
74	0xbdd081b1	-0.10180987
75	0xbc5ede35	-0.013602783
76	0xbe74cf4a	-0.239072
77	0x3d7397a7	0.0594708
78	0xbcae09a4	-0.021244831
79	0xbb054415	-0.002033477
80	0x3d5c9685	0.053854484
81	0xbd82c3b0	-0.06384981
82	0xbd69447f	-0.05695009
83	0x3e0af68a	0.1357061
84	0x3dd504a4	0.10401276
85	0xbcce11a1	-0.02515489
86	0xbc36bbc3	-0.011153164
87	0x3db7ed53	0.08980813
88	0x3c1510f6	0.009098282
89	0x3e57bcee	0.21068165
90	0xbd0c24d3	-0.034214806
91	0x3c242a8c	0.01001991
92	0xbdc39b95	-0.09551159
93	0x3e2b30a0	0.16717768
94	0x3e064001	0.13110353
95	0x3e87f26e	0.26552147
96	0x3ca7e1ea	0.020493466
97	0x3e4b3dbe	0.19847772
98	0x3e2cb5ee	0.16866276
99	0xbd4aeb97	-0.049541082
100	0x3ca7c758	0.020480797
101	0x3e19ec32	0.15031508
102	0x3d6c89f3	0.057748746
103	0x3e55b672	0.20870379
104	0x3d4bb601	0.04973412
105	0xbd3c9bd8	-0.04604706
106	0xbe07c75e	-0.13259646
107	0xbd5d940e	-0.054096274
108	0xbdc441a9	-0.09582836
109	0x3bcdfe0a	0.0062863873
110	0xbe2c0dcb	-0.16802137
111	0xbd23838a	-0.039920367
112	0xbdecf058	-0.115692794
113	0x3d598059	0.053100917
114	0xbdca2024	-0.098694116
115	0xbd3f2aba	-0.046671607
116	0x3c8fd997	0.01755981
117	0x3ddd5a8f	0.10808288
118	0x3e6887fe	0.22708127
119	0x3d413d03	0.047177326
120	0x3ea049c7	0.31306288
121	0x3ebb471b	0.36577687
122	0x3e4cf4c7	0.2001525
123	0x3e50bfd3	0.20385675
124	0x3dd92e4a	0.10604532
125	0x3e3aab6a	0.18229452
126	0x3dfc533e	0.12320565
127	0x3ea22ed6	0.31676358
128	0x3e11c281	0.14234354
129	0x3e44dcc1	0.19224836
130	0x3ea59be6	0.32345504
131	0x3eaee643	0.3416005
132	0xbe0ae61a	-0.1356434
133	0x3dcbb34b	0.09946307
134	0x3e027adb	0.12742178
135	0xbe289f3d	-0.16466995
136	0x3e8cc1a2	0.2749148
137	0xbdc415a7	-0.09574442
138	0xbe8d20f8	-0.27564216
139	0x3eafeca5	0.34360233
140	0xbe93893f	-0.28815648
141	0x3e9c82f2	0.30568653
142	0x3e833f2b	0.2563413
143	0xbf00c34d	-0.50298005
144	0xbe37b8e5	-0.17941625
145	0x3e7c157b	0.24617569
146	0x3e4f7345	0.20258816
147	0xbf00b719	-0.50279385
148	0x3db7f4cb	0.089822374
149	0x3e8c0030	0.27343893
150	0xbef6fc82	-0.48239523
151	0xbb008f00	-0.0019616485
152	0x3e9e6731	0.30938104
153	0x3e7172d5	0.23578961
154	0xbecd75f9	-0.40129068
155	0x3d9b0397	0.07569044
156	0x3ed5f009	0.41784695
157	0xbf118661	-0.5684567
158	0x3e0fb30c	0.14033145
159	0x3e8fcee4	0.28087533
160	0xbecf16eb	-0.40447173
161	0x3e287d5e	0.16454074
162	0xbe2cb871	-0.16867234
163	0xbd80fa55	-0.06297747
164	0xbdd77cfa	-0.10521884
165	0x3cda8175	0.026673058
166	0xbe49d208	-0.19709027
167	0x3e674dc4	0.22588259
168	0x3eab3838	0.3344133
169	0xbebac763	-0.36480245
170	0x3e832c7d	0.2561988
171	0x3e90d4f2	0.28287464
172	0xbef9e5d7	-0.48808166
173	0x3e1e75eb	0.1547467
174	0x3ebcd64b	0.36882243
175	0xbebc938a	-0.36831313
176	0x3d7f6529	0.062352333
177	0x3e8992e5	0.26869884
178	0xbe191483	-0.14949231
179	0x3cd43d62	0.025908176
180	0xbc2b09eb	-0.010439376
181	0x3e033653	0.12813692
182	0x3e1494ea	0.14509931
183	0xbd101e62	-0.035185225
184	0x3e091b2b	0.1338927
185	0x3ea0257e	0.31278604
186	0xbe86752b	-0.26261267
187	0xbe85d0e5	-0.26135936
188	0x3e203c20	0.15647936
189	0xbed19db7	-0.4094064
190	0xbe2187b5	-0.15774424
191	0xbe816161	-0.25269607
192	0xbea1b883	-0.31586084
193	0xbe4af0cf	-0.19818424
194	0xbdbb142d	-0.091347076
195	0xbe001a4e	-0.12510034
196	0xbce4de14	-0.027937926
197	0xbe8fccd3	-0.28085956
198	0xbe11a4a5	-0.14222963
199	0xbd4e139f	-0.05031168
200	0x3d340e6e	0.043959074
201	0xbba86a56	-0.0051396294
202	0xbc780dca	-0.015140006
203	0x3d86f2a1	0.065892465
204	0x3d616dda	0.055036403
205	0x3e047003	0.12933354
206	0x3e27c61c	0.16384166
207	0x3dd27242	0.10275699
208	0xbd8d31f2	-0.06894292
209	0xbe592c66	-0.21208343
210	0xbdce06ea	-0.100599125
211	0xbe151401	-0.14558412
212	0xbe788d77	-0.24272715
213	0xbdd0f4c7	-0.102029376
214	0x3df1506e	0.11782919
215	0xbe6ae47a	-0.2293872
216	0x3e92b70c	0.2865528
217	0x3e02ba62	0.12766412
218	0xbce3f4b1	-0.027826639
219	0x3e685f9a	0.22692719
220	0x3e253fae	0.16137573
221	0x3d8182f5	0.06323806
222	0x3da657f5	0.08122245
223	0x3d5d4fea	0.05403129
224	0x3e1f0951	0.15530898
225	0x3e464115	0.19360764
226	0xbd670547	-0.056401517
227	0xbdf3ed24	-0.11910465
228	0x3e89e6a9	0.26933792
229	0x3e3c7f31	0.18407895
230	0xbe899dd3	-0.26878223
231	0xbe2bc7ac	-0.16775388
232	0x3e7364f9	0.23768987
233	0x3e9852e9	0.29750755
234	0x3f03788d	0.5135582
235	0x3eb79819	0.3585823
236	0xbe6d8a2e	-0.23197243
237	0xbdb81b19	-0.089895435
238	0x3e9957b8	0.29949737
239	0x3db293fb	0.08719631
240	0xbe84e19d	-0.2595338
241	0xbef3ee69	-0.4764283
242	0x3daf9bd6	0.08574645
243	0xbe1aaa2f	-0.15103982
244	0xbe02d814	-0.1277774
245	0x3cf72812	0.030170474
246	0x3d84b496	0.064797565
247	0x3dc06078	0.093934
248	0xbd1cf4e5	-0.038319487
249	0x3e6fa3f7	0.23402391
250	0x3e770f28	0.24126875
251	0x3df90585	0.12159256
252	0x3c0ab455	0.008465846
253	0x3e137f86	0.14404115
254	0xbe75d8d1	-0.2400849
255	0xbe8db6b5	-0.27678457

bias f4 [8]
0	0xbea67f70	-0.32519102
1	0xbe308fe3	-0.17242388
2	0x3e8b2e98	0.27183986
3	0xbe01ca06	-0.12674722
4	0xbe2d0762	-0.16897348
5	0x3e48469b	0.19558184
6	0x3f01ec20	0.50750923
7	0xbe8d90b3	-0.2764946

weight f4 [14, 8, 3, 3]
0	0xbb75b47a	-0.0037491606
1	0x3e28c5bc	0.1648168
2	0x3e6a8ca6	0.22905216
3	0xbd336e24	-0.04380621
4	0x3e141af6	0.1446341
5	0x3e3d1a13	0.18466978
6	0xbd284e7a	-0.041090466
7	0x3e27539f	0.16340493
8	0x3d92f21c	0.07175085
9	0xbe52276a	-0.20522848
10	0xbe011d3b	-0.12608807
11	0xbe39777e	-0.18111989
12	0xbdfd53d3	-0.12369504
13	0xbe2e6425	-0.1703039
14	0xbec9ad44	-0.39390004
15	0xbe6243c0	-0.22096157
16	0xbeab620b	-0.33473238
17	0x3d71567d	0.058920372
18	0x3e07d899	0.13266219
19	0x3e23df8a	0.16003242
20	0x3dd82ecb	0.105558
21	0x3dc8d7dd	0.09806798
22	0x3dae3ada	0.08507319
23	0x3c92fd44	0.017943032
24	0x3df78761	0.12086368
25	0x3b8e250f	0.004337914
26	0x3e66e63f	0.2254877
27	0x3ce097ca	0.027416129
28	0x3d9d7acc	0.07689437
29	0x3ce8cadb	0.028417042
30	0x3d80e678	0.062939584
31	0xbe08be00	-0.13353729
32	0x3d05100e	0.032486014
33	0x3db146cd	0.08656082
34	0x3d9328ba	0.07185502
35	0x3e566367	0.20936356
36	0x3c36b2a2	0.011150988
37	0x3df175c5	0.11790041
38	0xbd9637d0	-0.07334864
39	0x3e091cd4	0.13389903
40	0x3da6d359	0.0814578
41	0xbbb31313	-0.0054649203
42	0x3d37e492	0.044895716
43	0xbdbdaa67	-0.09261017
44	0x3d185c38	0.03719732
45	0xbe043fc2	-0.12914947
46	0xbbbea115	-0.0058175423
47	0x3d20b70b	0.039237063
48	0xbd3c09e5	-0.045907874
49	0x3e32fff7	0.17480455
50	0x3da2527e	0.079258904
51	0x3e347ba3	0.17625289
52	0x3e51a0f3	0.20471554
53	0xbdcc8973	-0.09987154
54	0xbe9861d7	-0.29762146
55	0xbdfb683c	-0.122757405
56	0xbdba1f6b	-0.09088024
57	0xbe11d643	-0.1424189
58	0xbe86c7bf	-0.2632427
59	0xbe164199	-0.14673461
60	0xbdad0d77	-0.08449834
61	0xbe0b60fa	-0.13611212
62	0xbe3f026a	-0.18653265
63	0x3ce61bac	0.028089367
64	0x3d0af75e	0.033927314
65	0xbe285d98	-0.16441953
66	0xbd328b34	-0.043589786
67	0xbe135c23	-0.14390616
68	0xbe027be6	-0.12742576
69	0xbe204392	-0.15650776
70	0xbe1a49e1	-0.15067245
71	0x3d2b7f76	0.041869603
72	0x3e31ae8e	0.17351744
73	0x3e401060	0.18756247
74	0xbd81e661	-0.063427694
75	0x3d897b1d	0.06712935
76	0x3dd02077	0.10162442
77	0xbdd7c3e9	-0.10535414
78	0x3e706593	0.23476247
79	0x3da0ce8c	0.07851896
80	0x3d2f0507	0.042729404
81	0xbe3562a5	-0.17713411
82	0xbc7174b8	-0.014737301
83	0xbe16b57c	-0.14717668
84	0xbc87cd95	-0.016577521
85	0xbba8692d	-0.005139491
86	0x3cb6234e	0.022233631
87	0x3e01aaf5	0.12662871
88	0x3dd73f6c	0.10510144
89	0xbdbc422d	-0.091923095
90	0xbe80054a	-0.25004035
91	0xbeb761fb	-0.3581694
92	0xbea86b38	-0.328943
93	0xbdc7f171	-0.09762848
94	0x3d9a59dd	0.07536671
95	0xbbe6d128	-0.0070439763
96	0x3dd7b742	0.105330005
97	0xbd7e9d97	-0.062162008
98	0xbd5bc285	-0.053652305
99	0x3e007cc4	0.12547594
100	0x3e2ab5fe	0.16670987
101	0xbce1d9fb	-0.027569761
102	0x3d82c8f3	0.06385984
103	0x3d82b220	0.06381631
104	0x3e865441	0.26236156
105	0x3e9e1e6e	0.3088259
106	0x3e9ba4ee	0.3039927
107	0x3d551605	0.052022953
108	0x3d515543	0.051106703
109	0xbd23ed8b	-0.04002146
110	0xbd591ac4	-0.05300404
111	0xbddec437	-0.10877269
112	0x3d461060	0.04835546
113	0xbb7f4a6f	-0.0038954278
114	0xbd955da0	-0.07293248
115	0x3c547bf5	0.012969007
116	0x3debb85a	0.11509772
117	0xbdbf11cb	-0.093295656
118	0xbb010a87	-0.0019690113
119	0xbdfd68e5	-0.12373523
120	0x3b86647a	0.004101333
121	0x3e4db31a	0.20087853
122	0x3dafebb6	0.0858988
123	0x3dd58538	0.104258
124	0x3e4b0e9f	0.19829796
125	0x3e4f7cd3	0.2026246
126	0xbd4b4030	-0.04962176
127	0xbd6cf37f	-0.057849403
128	0xbe267c13	-0.16258268
129	0x3d9f5e6a	0.0778168
130	0x3dd7f7ac	0.105452865
131	0x3dae9d58	0.08526105
132	0x3d19511a	0.03743086
133	0x3e7d6186	0.24744233
134	0x3dd1e530	0.10248792
135	0xbeb4c734	-0.3530823
136	0xbecb9a34	-0.39766085
137	0xbeb149a8	-0.34626508
138	0xbea8ec0c	-0.3299259
139	0xbec7bc1b	-0.390107
140	0xbeded393	-0.43520793
141	0xbe8b07e8	-0.2715447
142	0xbe3f62d9	-0.18690051
143	0xbeaf4502	-0.34232336
144	0x3e4159fb	0.18881981
145	0xbd79c7af	-0.06098145
146	0x3dc7783b	0.09739729
147	0x3dd3a9b0	0.103351
148	0xbd43a6b4	-0.047766402
149	0x3e04ed47	0.12981139
150	0x3c198724	0.009370599
151	0xbae247da	-0.0017263845
152	0x3bbe1dda	0.0058018984
153	0x3e32c2c0	0.17457104
154	0x3de037fd	0.10948179
155	0x3d83574f	0.06413137
156	0x3baa36fb	0.0051945425
157	0x3e33dbec	0.17564362
158	0xbd872f61	-0.06600834
159	0x3e4acaea	0.19803968
160	0x3d1435e0	0.03618419
161	0xbd201ea5	-0.039091725
162	0x3db1ee39	0.086880155
163	0x3cb2d59e	0.021830376
164	0x3b1c1e8c	0.0023821918
165	0xbe0d056c	-0.137716
166	0xbd98b03e	-0.074554905
167	0xbe1afe4a	-0.15136066
168	0x3baa4e8c	0.005197352
169	0xbd136a73	-0.03599019
170	0x3c5d63db	0.013512577
171	0xbd99d6fb	-0.075117074
172	0xbe632f06	-0.22185907
173	0x3d8b736c	0.06809124
174	0x3e799efd	0.24377055
175	0x3b14f14d	0.0022726834
176	0x3e1dd60a	0.1541368
177	0x3e8eabfc	0.2786559
178	0x3cffbafa	0.031217087
179	0x3e1a8352	0.15089157
180	0xbdd3272e	-0.10310207
181	0x3ced6423	0.028978413
182	0x3cf3949b	0.029733947
183	0x3d5c135f	0.05372941
184	0xbe16f1eb	-0.14740722
185	0x3d96a01f	0.073547594
186	0x3e6747e0	0.22586012
187	0xbc3d0eb9	-0.011539155
188	0xbd998f84	-0.074980766
189	0xbd38cc07	-0.04511645
190	0xbe8a01c3	-0.2695447
191	0xbdb859b6	-0.09001486
192	0xbe4f659b	-0.20253603
193	0xbe30073b	-0.17190258
194	0xbe820898	-0.25397182
195	0xbdace47b	-0.08442017
196	0x3df43161	0.11923481
197	0xbdc33118	-0.09530848
198	0xbdb3a94e	-0.08772527
199	0xbd95d6d3	-0.07316365
200	0xbe27d92d	-0.1639144
201	0xbe1f8a3f	-0.1558008
202	0xbe51090a	-0.20413604
203	0xbe509345	-0.20368679
204	0xbe3f0d96	-0.18657526
205	0xbe5080e7	-0.20361672
206	0xbe6f2ed2	-0.23357704
207	0xbd24e5cb	-0.04025821
208	0x3e9baf3e	0.30407137
209	0x3e9d7294	0.3075148
210	0x3d1e9e0e	0.03872495
211	0x3d907594	0.07053676
212	0xbcd7f9bc	-0.0263642
213	0xbdc74524	-0.097299844
214	0xbcfb9270	-0.030709475
215	0x3dcbe182	0.099551216
216	0xbd2028da	-0.03910146
217	0x3dcfdade	0.101491675
218	0x3a0dfaea	0.0005416112
219	0x3e58fed6	0.21190962
220	0x3d8f8127	0.07007056
221	0x3e0c7069	0.13714756
222	0x3e6b6cef	0.22990774
223	0x3da07439	0.07834668
224	0x3df018a0	0.11723447
225	0xbe905393	-0.28188762
226	0xbe9b85b2	-0.3037544
227	0xbe7184b8	-0.23585784
228	0xbe8ed7f7	-0.27899143
229	0xbe27530a	-0.1634027
230	0xbe920a38	-0.2852342
231	0xbdf5d7da	-0.12004061
232	0xbde11b2a	-0.10991509
233	0xbd78e447	-0.060764577
234	0xbe27d8e9	-0.16391338
235	0xbe6851f5	-0.22687514
236	0xbe83a112	-0.25708824
237	0x3e199e51	0.15001799
238	0xbe0f9270	-0.14020705
239	0xbe5a868e	-0.21340391
240	0x3d65bfb3	0.05609102
241	0x3da78b18	0.08180827
242	0xbe757d1f	-0.23973511
243	0xbd843ea2	-0.06457259
244	0x3d587e65	0.052854914
245	0x3dfe92f9	0.124303766
246	0x3d15f7f1	0.03661341
247	0x3df6d17f	0.12051677
248	0xbcc38cbd	-0.02387082
249	0x3e41f0fc	0.18939584
250	0x3d255a4b	0.040369313
251	0xbd20dba1	-0.039271954
252	0x3b12bd36	0.002239061
253	0x3dd6e4e9	0.1049288
254	0x3e0e68fc	0.13907236
255	0x3dbb98dd	0.09160016

bias f4 [14]
0	0x3e8434ae	0.2582144
1	0x3e9d59c3	0.30732545
2	0xbe95460e	-0.2915501
3	0xbd8c6491	-0.06855119
4	0xbeebbeaf	-0.46043918
5	0x3eb9a37e	0.36257547
6	0xbddba5b0	-0.10724962
7	0xbe8cccd1	-0.27500013
8	0x3dd8cc30	0.10585821
9	0xbd22575b	-0.03963409
10	0x3e4e5a22	0.2015157
11	0xbecbef65	-0.3983108
12	0x3f262254	0.6489613
13	0xbee4ab51	-0.44661954

weight f4 [20, 14, 3, 3]
0	0xbe2ce86f	-0.16885541
1	0x3c5bf0df	0.013424127
2	0xbd875f73	-0.06610002
3	0xbe070648	-0.1318599
4	0xbd9a232f	-0.07526242
5	0xbd988564	-0.07447317
6	0xbe358072	-0.17724779
7	0xbe0429a1	-0.12906505
8	0x3df98553	0.12183633
9	0x3e007dfe	0.12548062
10	0x3e177ab0	0.14792895
11	0x3e606f84	0.2191754
12	0xbe0967ed	-0.13418551
13	0x3d1966c7	0.03745153
14	0x3d30e951	0.043191258
15	0xbd4487bf	-0.04798102
16	0xbe4c8ad1	-0.1997483
17	0xb92c0426	-0.00016404744
18	0xbd4aedf1	-0.049543325
19	0xbd5f9af9	-0.054591153
20	0xbdc0f00e	-0.09420787
21	0x3e6a200e	0.2286379
22	0x3a8a2a03	0.0010541085
23	0x3d14cf98	0.03633079
24	0x3df087f2	0.117446795
25	0x3e01f5b7	0.12691389
26	0x3be77639	0.007063654
27	0x3e031adb	0.12803213
28	0x3dcaf4d1	0.09909976
29	0xbd42f6e9	-0.047598753
30	0x3cae548f	0.021280555
31	0xbd52b4c7	-0.051441934
32	0xbde4dd6e	-0.11175047
33	0xbd8e85d8	-0.069591224
34	0xbd0284f0	-0.03186506
35	0xbe0523a5	-0.13001879
36	0xbd56fcfa	-0.05248735
37	0xbcd7849c	-0.02630835
38	0xbd5faeae	-0.054609947
39	0x3e1492f9	0.1450919
40	0x3c0bfc45	0.008544032
41	0x3c9a2dc5	0.018820653
42	0xbc86e2b4	-0.016465522
43	0x3d19311a	0.037400343
44	0xbd41979d	-0.04726373
45	0x3bd6e75c	0.006558342
46	0x3e06ddfb	0.13170616
47	0x3c9e4024	0.019317694
48	0x3d3d5a70	0.046228826
49	0xbd27b498	-0.040943712
50	0x3c5cdcd3	0.013480383
51	0x3cf7356d	0.030176843
52	0x3c825a2f	0.015912144
53	0xbe1b4c07	-0.15165721
54	0x3d991022	0.0747378
55	0x3d068a9c	0.032847032
56	0xbd298721	-0.041388635
57	0x3d9e6085	0.077332534
58	0xbbfd2ca3	-0.0077262684
59	0xbb215f59	-0.0024623482
60	0x3d8affba	0.06787057
61	0xbdbd6493	-0.09247699
62	0xbc449ac8	-0.011999793
63	0xbdfbdee4	-0.122983724
64	0xbdd5b074	-0.104340464
65	0x3d87fc04	0.06639865
66	0xbd96f47d	-0.07370851
67	0x3cc2326c	0.023705684
68	0x3e0cdde7	0.13756524
69	0x3d67e67b	0.056616288
70	0x3e0cfea0	0.13769007
71	0x3e913e97	0.28368065
72	0xbe21f145	-0.15814693
73	0x3c08b43d	0.008343753
74	0x3d6565c1	0.056005243
75	0xbc3400ee	-0.01098655
76	0xbdd0a6b7	-0.10188048
77	0xbd38a813	-0.045082163
78	0x3d59cca2	0.05317367
79	0x3df7cbf4	0.12099448
80	0x3b6bf2da	0.0036002905
81	0xbd73e345	-0.059542913
82	0x3d402d17	0.046918
83	0xbe35f4e0	-0.17769194
84	0x3d7729be	0.060342543
85	0x3c2703b8	0.010193758
86	0xbd7c65b8	-0.061620444
87	0xbe19632d	-0.14979239
88	0x3dbdb7f5	0.09263603
89	0xbc449f43	-0.012000862
90	0xbe2acca4	-0.16679627
91	0xbd34dbc2	-0.04415489
92	0xbd2b482f	-0.041816887
93	0xbe4089b7	-0.18802534
94	0xbdbf2f36	-0.09335177
95	0x3d88c371	0.066779025
96	0x3dd34e92	0.103177205
97	0x3d1bca48	0.038034707
98	0x3e36b85e	0.17843768
99	0xbdc32395	-0.09528271
100	0xbba95da8	-0.0051686354
101	0xbd5c0660	-0.053717017
102	0x3d270874	0.040779546
103	0xbdb8e962	-0.09028889
104	0x3c4ab495	0.012372156
105	0x3d2e6531	0.042576972
106	0x3df0773a	0.11741491
107	0xbcdcc798	-0.026950642
108	0xbe10acea	-0.14128461
109	0xbd1ac06a	-0.037781157
110	0x3c49e87f	0.012323498
111	0x3ca5e489	0.020250576
112	0xbdf6b2e7	-0.12045842
113	0xbdf912c9	-0.12161786
114	0xbde2f80b	-0.11082467
115	0xbd585269	-0.052812967
116	0x3db8704b	0.09005793
117	0xbdf07a4a	-0.11742075
118	0xbe15462e	-0.14577553
119	0xbe00b150	-0.1256764
120	0xbd67ffd9	-0.05664048
121	0x3bbe07a0	0.005799249
122	0xbe0dfc57	-0.13865791
123	0xbe4c6c3f	-0.19963168
124	0xbe03ac6b	-0.12858741
125	0x3ddeb364	0.1087406
126	0xbd83b492	-0.064309254
127	0x3cbef5f8	0.023310646
128	0x3d08df25	0.033415932
129	0x3cf44a99	0.029820727
130	0x3e137b18	0.14402425
131	0x3d0814dc	0.033223018
132	0x3d6a9249	0.057268415
133	0x3dc2dc0c	0.09514627
134	0x3c86396a	0.016384799
135	0xbe1bca8d	-0.15213986
136	0xbc085c32	-0.008322762
137	0x3c842ae7	0.016133739
138	0xbc2e3bdb	-0.010634388
139	0x3df3671e	0.118849024
140	0x3e16a939	0.14712991
141	0xbddc57af	-0.10758912
142	0x3dbb82f6	0.09155838
143	0x3e5a592f	0.21323083
144	0x3e178308	0.14796078
145	0x3ad4ab13	0.00162253
146	0xbd1dcc5d	-0.038524974
147	0xbbf7d14b	-0.0075627915
148	0x3cb8dd51	0.02256647
149	0x3cf6b72a	0.030116636
150	0x3dc663bc	0.096869916
151	0xbb9a3483	-0.004705967
152	0xbd46840c	-0.048465773
153	0xbdbf5704	-0.09342769
154	0x3d88f671	0.0668763
155	0x3dd0ffcb	0.10205039
156	0xbc84080b	-0.016117116
157	0x3da677e2	0.081283346
158	0x3df16d5f	0.11788439
159	0xbd87677e	-0.066115364
160	0xbd80b7d5	-0.06285063
161	0xbcf2c4fc	-0.029634945
162	0x3d5abc80	0.053402424
163	0xbd48a8c8	-0.048989087
164	0xbb67c932	-0.0035367724
165	0x3df59e24	0.119930536
166	0xbd819178	-0.06326574
167	0xbe304737	-0.17214666
168	0x3cd94a49	0.02652468
169	0xbdcadceb	-0.09905418
170	0xbd774fdd	-0.060378898
171	0xbdc7014e	-0.09717046
172	0xbdba3d23	-0.09093692
173	0xbe64a7f6	-0.22329697
174	0x3dd53691	0.10410798
175	0xbe40b789	-0.18820013
176	0xbdb5d1c3	-0.088778995
177	0xbd2f9892	-0.04287011
178	0xbda023cd	-0.078193285
179	0xbe5a80fb	-0.21338265
180	0xbd9fbf68	-0.0780018
181	0x3d86e9e4	0.0658758
182	0x3ddf71c3	0.1091037
183	0xbd917ff2	-0.07104482
184	0xbd78c3d6	-0.06073364
185	0x3d7f5f8c	0.06234698
186	0xbdb509da	-0.0883977
187	0xbd4d613e	-0.050141566
188	0xbbeaa8d8	-0.007161241
189	0x3d8a4f60	0.06753421
190	0x3c92bdad	0.01791271
191	0xbd5ba685	-0.053625602
192	0x3d645975	0.055749375
193	0x3bb27307	0.0054458412
194	0xbbe9e930	-0.007138394
195	0xbd90e2bb	-0.070744954
196	0xbbd0a574	-0.00636738
197	0xbdc28137	-0.09497302
198	0xbdd0b1d1	-0.10190166
199	0x3ca6f665	0.020381162
200	0x3cd6c844	0.026218541
201	0xbd0afa16	-0.033929907
202	0x3d5c3ba6	0.053767823
203	0xbd7050f5	-0.058670957
204	0xbe4d6ae4	-0.20060307
205	0x3d58cb82	0.052928455
206	0x3dac5920	0.08415437
207	0x3c8fd35b	0.017556837
208	0x3d7ba826	0.061439656
209	0x3dc5a4e0	0.09650588
210	0x3e191b35	0.14951785
211	0xbcbbe5fb	-0.022936812
212	0xbc59f590	-0.013303176
213	0x3db07e91	0.086178906
214	0xbc5c3c01	-0.01344204
215	0x3d0f40a9	0.034973774
216	0xbd58ec23	-0.052959573
217	0xbd243d67	-0.04009762
218	0xbe2a9306	-0.16657647
219	0x3d06f5d1	0.032949273
220	0xbd7f3c97	-0.062313642
221	0xbe38299d	-0.17984624
222	0x3d15b9d1	0.03655416
223	0x3d9afb83	0.07567503
224	0xbe216b9a	-0.15763703
225	0x3dd379e2	0.10325982
226	0xbdc0a8ef	-0.094072215
227	0xbe7754f6	-0.24153504
228	0x3c709fc1	0.014686526
229	0xbe76c53f	-0.24098681
230	0xbe0f5819	-0.1399845
231	0x3d9ad734	0.07560578
232	0xbcba3069	-0.022728162
233	0xbcc7bcfa	-0.024382103
234	0xbe051a40	-0.12998295
235	0x3caf07ad	0.021365965
236	0xbd0089d3	-0.03138144
237	0xbd4ef05e	-0.0505222
238	0x3d0925c0	0.033483267
239	0x3db4d134	0.08828965
240	0xbe13f24c	-0.14447898
241	0xbd09e965	-0.033669848
242	0x3d93da60	0.07219386
243	0x3dcc49c8	0.0997501
244	0xbd2e2683	-0.042517196
245	0xbcc2c783	-0.023776775
246	0x3d232371	0.03982872
247	0xbccc0cf3	-0.024908518
248	0xbb9316b9	-0.0044887927
249	0x3e06b1ed	0.13153811
250	0x3d9414c6	0.07230525
251	0xbaa9eb4d	-0.0012963802
252	0x3d10d804	0.03536226
253	0x3d663a32	0.056207843
254	0x3cef9e4f	0.029250292
255	0x3c95e861	0.018299283

bias f4 [20]
0	0xbb0a1d1a	-0.0021074475
1	0xbe859ef1	-0.26097825
2	0x3db380ff	0.087648384
3	0xbdca3aad	-0.09874473
4	0x3d95fa2e	0.073231086
5	0x3e714fb5	0.23565562
6	0x3e10c85c	0.14138931
7	0x3eb77770	0.3583331
8	0x3e50cec9	0.20391382
9	0x3c85b32a	0.016320784
10	0xbe812506	-0.2522356
11	0x3d1b2f34	0.037886813
12	0x3dcd7109	0.10031325
13	0xbe286d79	-0.1644801
14	0xbe3b8568	-0.18312609
15	0x3dd96216	0.106144115
16	0xbea535ad	-0.32267514
17	0xbd7fd926	-0.06246295
18	0xbe28fb54	-0.16502124
19	0x3e3a2f8f	0.18182205

weight f4 [250, 500]
0	0x3d92a2c1	0.07159949
1	0x3b65e89b	0.003508127
2	0xbc50a6b3	-0.012735057
3	0xbd81a969	-0.063311405
4	0xbc8e0738	-0.017337427
5	0x3c0f5fb8	0.0087508485
6	0xbd34f7bd	-0.044181574
7	0xbbdc2a68	-0.0067189224
8	0xbd1cf967	-0.038323786
9	0xbd3329f5	-0.043741185
10	0x3c23a671	0.009988413
11	0x3d14ed22	0.03635896
12	0xbca40454	-0.020021595
13	0x3cd11bf0	0.025526017
14	0x3d37f2dc	0.044909343
15	0x3da9b3ab	0.08286222
16	0xbcaa20e4	-0.020767637
17	0xbb9830fb	-0.004644511
18	0xbd29b9e7	-0.041437056
19	0x3b2ae58b	0.002607676
20	0x3cb88d17	0.022528214
21	0x3d4187f1	0.047248784
22	0x3da25ed0	0.0792824
23	0x3da44c41	0.08022357
24	0x3d39a128	0.045319706
25	0xbbd6cd76	-0.0065552546
26	0xbc851bb9	-0.01624857
27	0xbd16473a	-0.03668902
28	0x3d72f130	0.059312046
29	0xbbcc7388	-0.0062393583
30	0x3d2ba75b	0.04190765
31	0xbbd19888	-0.006396357
32	0xbd18f9ad	-0.037347484
33	0x3c122aeb	0.008921365
34	0x3c4f71c8	0.012661405
35	0x3d864bdb	0.06557437
36	0x3d400763	0.046882045
37	0x3cb20187	0.021729244
38	0x3d2b494f	0.04181796
39	0x3d97f365	0.07419471
40	0x3cbbad85	0.022909889
41	0xb890e19f	-6.90848e-05
42	0xbcff7ee1	-0.03118843
43	0xbd652701	-0.0559454
44	0xbccb6fe1	-0.024833621
45	0x3b009fe9	0.0019626564
46	0xbd2e8c50	-0.04261428
47	0x3dc4b85b	0.096054755
48	0x39f886a4	0.0004740256
49	0x3b94dec7	0.0045431587
50	0x3d600861	0.05469549
51	0x3da0a3ea	0.07843764
52	0x3dd407b3	0.10353031
53	0x3c93c0f0	0.018036336
54	0xbc30e822	-0.010797532
55	0x3b54e76d	0.0032486573
56	0x3ba182ef	0.0049289386
57	0xbd243b5e	-0.04009568
58	0xbb12f3e0	-0.0022423193
59	0xbd3ea2e6	-0.04654207
60	0x3d828870	0.0637368
61	0x3d69399c	0.056939706
62	0xbc381813	-0.0112362085
63	0xbd00c97b	-0.031442147
64	0xbd83243b	-0.06403395
65	0x3bb684f7	0.00557005
66	0x3d599a8a	0.053125896
67	0x3cae387b	0.021267166
68	0x3c409d06	0.011756187
69	0x3bc702f3	0.0060733496
70	0xbda84a81	-0.082173355
71	0xbc838ed1	-0.016059311
72	0xbd784da7	-0.06062093
73	0xbd9753dd	-0.073890425
74	0xbd8eb0e6	-0.069673344
75	0xbbed7c3b	-0.0072474754
76	0xbcd2e532	-0.025744054
77	0xbc858937	-0.01630078
78	0x3d936596	0.0719711
79	0xbd21a8b9	-0.039467547
80	0xbcba4296	-0.022736829
81	0x3c6a6bba	0.014307911
82	0x3d1fbc8c	0.03899817
83	0x3d13f5f5	0.036123235
84	0x3c41bb7f	0.011824488
85	0x3b90f614	0.004423866
86	0x3ce2cc5f	0.027685342
87	0xbd34d1cf	-0.0441454
88	0xbc6761ec	-0.0141224675
89	0x3c7f3dd7	0.015578709
90	0x3d0a5027	0.033767845
91	0xbcdf5905	-0.027264128
92	0xbd006da1	-0.03135455
93	0xbd035e17	-0.032072153
94	0x3c87fc80	0.016599894
95	0x3def3ff7	0.11682122
96	0x3ca76bad	0.020437086
97	0x3db37361	0.08762241
98	0x3da3d465	0.079994954
99	0x3d3c19a9	0.04592291
100	0x3d1e50bb	0.03865121
101	0xbd040d36	-0.03223916
102	0xbd31b040	-0.043380976
103	0xbd3694c3	-0.044575464
104	0xbd70091e	-0.058602445
105	0x3bee21f0	0.0072672293
106	0xbd0b8147	-0.034058835
107	0xbd9c4eb8	-0.07632202
108	0xbd556b9d	-0.05210458
109	0xbcb90314	-0.022584476
110	0x3c3ba0c6	0.011451906
111	0xbcab0817	-0.020877881
112	0xbcf1a9ba	-0.029499877
113	0xbd028002	-0.03186036
114	0x3d62de71	0.055387918
115	0xbc0bd4ca	-0.00853462
116	0xbd45ba2f	-0.04827326
117	0xbd249bb3	-0.04018755
118	0xbd80c122	-0.06286837
119	0xbd9d9fb5	-0.07696477
120	0x3b8a0b07	0.0042127403
121	0xbd568bd6	-0.05237945
122	0x3c1fbd40	0.009749711
123	0xbc847c0d	-0.016172433
124	0xbcf1efe7	-0.02953334
125	0xbd3b1c32	-0.045681186
126	0xbd5877c1	-0.05284858
127	0x3cd77ff3	0.026306128
128	0x3cd53012	0.026023898
129	0x3d6899bf	0.05678725
130	0xbd6493e9	-0.05580512
131	0xba8d67ca	-0.0010788378
132	0x3ae71116	0.0017628993
133	0x3a2a0213	0.00064852944
134	0xbb4d54b2	-0.0031331
135	0xbd5a2ec3	-0.05326725
136	0xbcbe07bb	-0.023197046
137	0x3ceab765	0.028651902
138	0xbcba6f99	-0.022758292
139	0xbd8d7541	-0.0690713
140	0xbd3b4f54	-0.04572995
141	0x3c1ce8d7	0.009576998
142	0x3d1b0930	0.03785056
143	0x3b884267	0.0041583064
144	0xbc4df3c9	-0.01257033
145	0xbda46510	-0.08027089
146	0x3cc77562	0.024347965
147	0x3d1514ea	0.0363969
148	0xbc4a3291	-0.0123411575
149	0x3cd929bd	0.02650916
150	0x3d2ff09e	0.04295408
151	0xbcabd37f	-0.020974873
152	0x3aa6b59c	0.0012718919
153	0xbc67d388	-0.014149554
154	0x3c7e894b	0.015535663
155	0xbd8f2c91	-0.06990922
156	0x3b7e6d53	0.0038822487
157	0xbabf0239	-0.0014572806
158	0xbcae17db	-0.02125161
159	0x3d5ca43c	0.053867564
160	0x3d8aa560	0.06769824
161	0x3cb54450	0.0221273
162	0xbd0e9985	-0.034814376
163	0xbc9a8ea0	-0.018866837
164	0x3d133e33	0.03594799
165	0xbd543d7f	-0.05181646
166	0x3b7b253e	0.0038321759
167	0xbcc496cd	-0.023997689
168	0x3c22b9a2	0.009931954
169	0xbc31a032	-0.010841416
170	0xbdea4bb5	-0.11440221
171	0xbd782095	-0.060577948
172	0xbd103612	-0.035207815
173	0x3cff1aaf	0.031140653
174	0xbdcf8757	-0.10133236
175	0xbd339727	-0.043845322
176	0xbd85daae	-0.065358505
177	0xbc65c9e5	-0.014025186
178	0xbd104859	-0.035225246
179	0xbbe99820	-0.0071287304
180	0xbd2cd979	-0.042199586
181	0xbcf6ab92	-0.030111108
182	0x3c831a7d	0.016003842
183	0x3c0422f1	0.008064971
184	0xbbb83306	-0.005621317
185	0xbd5a0386	-0.053226016
186	0xbcdbe6f1	-0.02684352
187	0xbab9e913	-0.0014183841
188	0xbd2dfe6b	-0.04247896
189	0x3c7b6813	0.015344637
190	0xbd3cae1a	-0.046064474
191	0xbdb23e9f	-0.0870335
192	0xbcdacbfe	-0.0267086
193	0xbd1c238d	-0.03811984
194	0x3d031246	0.03199985
195	0xbcfc0088	-0.030761972
196	0xbd3b9d0d	-0.045804072
197	0x3ceaf697	0.028682036
198	0x3c4bb501	0.012433291
199	0x3c69818d	0.014252079
200	0xbaa9d9ad	-0.0012958549
201	0xbd2892c8	-0.041155607
202	0xbc83f534	-0.016108133
203	0xbae85888	-0.001772658
204	0xbd003bec	-0.031307146
205	0xbcdc4bc9	-0.026891606
206	0x3c93b3f7	0.01803015
207	0x3d08fa4b	0.033441823
208	0xbc88632b	-0.01664885
209	0xbbf9ed92	-0.0076271975
210	0xbcf7f3e2	-0.03026766
211	0xbbf34c4f	-0.007424868
212	0x3d0b19a4	0.03396
213	0xbcb87e3a	-0.022521127
214	0xbd4556ef	-0.04817861
215	0xb9e22dab	-0.00043140104
216	0xbbd55528	-0.0065103956
217	0x3d02881b	0.03186808
218	0x3d0f03e0	0.034915805
219	0x3d314eb2	0.04328794
220	0xbd1a1875	-0.03762098
221	0x3cb2cadb	0.021825245
222	0xbd4b392e	-0.049615078
223	0xbd09b15a	-0.0336164
224	0x3c3fa02e	0.011695905
225	0xba508cb1	-0.0007955535
226	0x3d5b82ad	0.05359142
227	0x3d5d54ed	0.05403607
228	0xbc0d7970	-0.00863491
229	0xbd2bb71a	-0.041922666
230	0x3da15439	0.07877392
231	0x3d86f98e	0.065905675
232	0x3cac7341	0.021051051
233	0xbc3eb110	-0.011638895
234	0x3cd43a34	0.02590666
235	0xbd39c966	-0.045358084
236	0xbcd4ffc8	-0.026000872
237	0x3c8de973	0.017323231
238	0xbca791d7	-0.020455284
239	0x3bb9f96f	0.0056754868
240	0xbd3b7100	-0.045762062
241	0xbce78312	-0.028260741
242	0x3d058eb3	0.03260679
243	0x3c6a049f	0.014283328
244	0x3b09b871	0.0021014477
245	0x3de483dc	0.11157963
246	0xbb4f619c	-0.0031643873
247	0xbd4a2ca5	-0.049358983
248	0x3d020f2a	0.031752743
249	0xbbd6b10e	-0.0065518683
250	0x3c68f3f1	0.014218316
251	0xbafaa8c9	-0.0019123788
252	0x3d037273	0.03209157
253	0x3c3d9978	0.011572234
254	0xbc468146	-0.012115782
255	0x3be92c8b	0.0071159056

bias f4 [250]
0	0x3c9d965c	0.019236736
1	0xbd434fe8	-0.047683626
2	0x3d7a9f4d	0.061187077
3	0xbba5e533	-0.005062723
4	0x3c9a850a	0.018862266
5	0x3ccdf55f	0.025141416
6	0x3d83b084	0.06430152
7	0x3cc04bde	0.023473676
8	0x3ba32fc1	0.004980058
9	0x3d4c3978	0.049859494
10	0x3d0ef8df	0.03490531
11	0x3a8f899d	0.0010951046
12	0x3d9c8164	0.07641867
13	0x3d192e91	0.037397925
14	0x3cb46a2f	0.022023289
15	0x3da82953	0.08211007
16	0x3cd5e21e	0.026108798
17	0xbc95aa43	-0.018269664
18	0x3bfc91d2	0.007707813
19	0xbd52960e	-0.051412635
20	0x3d3cf84b	0.046135228
21	0x3d09519f	0.033525106
22	0x3c29efe3	0.010372135
23	0xbd6d60a1	-0.05795348
24	0x3dbaf16e	0.0912808
25	0x3d33c4ee	0.04388898
26	0x3d3f6e97	0.046736326
27	0x3cfc018a	0.030762453
28	0xbd0beaea	-0.03415958
29	0x3c0d0b9d	0.008608726
30	0xbb120fd9	-0.0022287278
31	0x3c1d44c6	0.009598916
32	0xba0e2d97	-0.00054236635
33	0x3c24417b	0.010025377
34	0xbc2d100d	-0.010562909
35	0x3d0ba1b4	0.03408976
36	0xbc4f978b	-0.012670408
37	0xbd1b387a	-0.037895657
38	0x3d2a3a60	0.041559577
39	0xbd633a31	-0.055475418
40	0x3d5c621c	0.053804502
41	0x3d085756	0.033286415
42	0x3d37d753	0.044883084
43	0x3d0b9eec	0.034087107
44	0xbcb879f0	-0.022519082
45	0xbcc1ecb8	-0.023672447
46	0x3a3eadf8	0.0007273848
47	0x3d1e5fae	0.038665466
48	0x3c21bff7	0.009872428
49	0xbd4f6e75	-0.05064245
50	0x3cb6f722	0.022334639
51	0x3d4d072a	0.05005566
52	0x3d73047f	0.05933046
53	0x3d4fd69d	0.05074178
54	0x3dcda62e	0.10041462
55	0xbd374f67	-0.04475346
56	0x3cfbc52b	0.030733665
57	0xbc40f4ce	-0.011777116
58	0xbd1e58c2	-0.038658865
59	0xbd2b78d7	-0.04186329
60	0xbcaa34c2	-0.02077711
61	0xbd0eb871	-0.034843866
62	0x3c3cf309	0.0115325535
63	0xbcc62502	-0.024187569
64	0x3c8c2acb	0.017110249
65	0xbb193ed5	-0.0023383398
66	0x3b840d6f	0.0040299217
67	0x3ce32b61	0.027730646
68	0xbcfe2b19	-0.03102641
69	0xbd1e76b7	-0.038687434
70	0xbd5d3d05	-0.05401327
71	0x3bb6ff7a	0.0055846544
72	0x3d3957f7	0.045249905
73	0xbcd2f0f9	-0.02574967
74	0xbcf30747	-0.029666556
75	0x3cef87e5	0.029239604
76	0x3ca64400	0.020296097
77	0xbd01df1e	-0.03170692
78	0x3ca2f69e	0.019892987
79	0x3cf28401	0.02960396
80	0xbdadd5d0	-0.08488047
81	0xbb181d52	-0.0023210836
82	0x3d59e586	0.053197406
83	0x3cc3199e	0.023815926
84	0xbbf30c97	-0.0074172723
85	0xbd26f149	-0.04075745
86	0xbd22c25c	-0.039736137
87	0x3ca64a26	0.020299029
88	0xbcf07e6d	-0.02935716
89	0x3d19ea52	0.03757698
90	0x3d8da4f6	0.069162294
91	0x3cec8ccd	0.028875733
92	0xbd043bd6	-0.032283626
93	0xbd4be11b	-0.049775224
94	0xbcdc27d1	-0.026874455
95	0xbb83f69b	-0.0040272004
96	0xbbb4a079	-0.005512294
97	0xbd1f739c	-0.038928613
98	0x3cc0d44e	0.023538735
99	0x3d5b7f41	0.053588156
100	0x3d52e31c	0.05148612
101	0xba7913ec	-0.0009501565
102	0x3d691f63	0.0569147
103	0xbd0016d3	-0.031271767
104	0x3cb64481	0.022249462
105	0x3da14cb6	0.078759596
106	0x3d258d82	0.040418155
107	0x3ce5669c	0.02800303
108	0x3db7fac1	0.089833744
109	0xbc129deb	-0.008948783
110	0xbbadebec	-0.005307665
111	0xbc1cff3b	-0.009582336
112	0xbb915b8a	-0.004435961
113	0xbde80146	-0.11328368
114	0x3bd49ca4	0.0064883996
115	0xbc1e9a49	-0.009680339
116	0xbb49d1f7	-0.0030795315
117	0xbd34dcf7	-0.04415604
118	0xbc09446c	-0.008378129
119	0x3d217e07	0.03942683
120	0x3c825eca	0.01591434
121	0xbd8b8852	-0.068131104
122	0xbb9a2488	-0.004704062
123	0xbcec74bb	-0.028864255
124	0x3c0d6a9a	0.008631373
125	0xbdb9a48b	-0.09064587
126	0x3bb1b631	0.0054233302
127	0xbb58d150	-0.0033083744
128	0x3b44b4cb	0.0030014988
129	0xbd5d1711	-0.053977076
130	0xb99788c6	-0.00028902869
131	0x3cba7be6	0.022764158
132	0xbd6a8b45	-0.057261724
133	0x39bc7041	0.0003594179
134	0xbd6961f8	-0.056978196
135	0x3da2d9ab	0.07951673
136	0x3be068e3	0.006848441
137	0xbbc99210	-0.006151445
138	0xbd81c166	-0.06335716
139	0xbc7ce1b6	-0.015434673
140	0x3d638e89	0.055555854
141	0xbd08bd68	-0.033383757
142	0x3d9e114f	0.07718145
143	0x3cf72c58	0.030172512
144	0x3d1aee2e	0.037824802
145	0x3dcf2a4f	0.101154916
146	0x3a0d56fb	0.0005391684
147	0x3dba8129	0.091066666
148	0x3c4a003b	0.0123291565
149	0xbc064141	-0.008194269
150	0x39f7bbbf	0.00047251393
151	0xbcefc15a	-0.029267002
152	0xbb5663ee	-0.0032713371
153	0xbcb0cbf5	-0.02158163
154	0x3b84f1ba	0.0040571364
155	0x3cb69137	0.02228604
156	0xbc6eba46	-0.014570778
157	0xbd578200	-0.052614212
158	0x3a075fae	0.00051640987
159	0x3ca21b19	0.019788312
160	0x3d45a916	0.048256956
161	0xbc83b69a	-0.016078282
162	0xbc15501c	-0.009113338
163	0x3b72f195	0.0037070264
164	0x3d3d8a45	0.046274442
165	0xbc9464bf	-0.018114446
166	0x3d5f6368	0.05453816
167	0xbb00da10	-0.0019661225
168	0x3da6900f	0.08132946
169	0x3cbb6077	0.022873146
170	0x3b9e1951	0.0048247953
171	0x3aad8a6e	0.0013240108
172	0xbd313ca3	-0.04327072
173	0xbd3d35f1	-0.04619402
174	0x3d18b4c8	0.03728178
175	0x3d4f96db	0.050680976
176	0x3c2cffca	0.010559032
177	0x3c054dd1	0.008136229
178	0xbcac03e3	-0.020997947
179	0x3da1afd9	0.078948684
180	0x3d96f436	0.07370798
181	0x3d253939	0.040337775
182	0x3d21e20f	0.039522227
183	0x3d44ab6c	0.048015043
184	0x3d632e1c	0.055463895
185	0xbc83db39	-0.016095744
186	0x3c64e1a5	0.0139698135
187	0x3d15bcd3	0.03655703
188	0xbba5b72e	-0.005057237
189	0x3d2306f5	0.039801557
190	0x3c42d3c4	0.011891309
191	0x3db69c40	0.08916521
192	0x3d4db3cb	0.050220292
193	0x3d74c062	0.059753783
194	0x3cc9a299	0.024613665
195	0x3c2f76af	0.010709449
196	0x3d926a13	0.07149138
197	0xbca3655e	-0.019945797
198	0xbcfba429	-0.030717926
199	0xbce27ffa	-0.027648915
200	0xbcfff184	-0.031243093
201	0x3d35d063	0.044388186
202	0xbc8a7656	-0.01690213
203	0x3d56efdf	0.052474853
204	0xbd187bc1	-0.037227396
205	0xb9e32858	-0.00043326872
206	0x3d31d25b	0.0434135
207	0xbcbef686	-0.02331091
208	0xbcddade8	-0.027060464
209	0x3c4c7e32	0.012481259
210	0x3bd21f65	0.006412434
211	0x3c14c373	0.009079802
212	0xbc6ee87f	-0.014581799
213	0x3c158bed	0.009127599
214	0xbced7528	-0.028986529
215	0xbc021214	-0.0079388805
216	0x3da7df45	0.08196882
217	0x3c78cb5f	0.015185206
218	0x3c8df5d5	0.017329136
219	0xbc17fab4	-0.009276081
220	0xbceb035e	-0.028688129
221	0x3d874019	0.066040225
222	0x3b126d24	0.0022342885
223	0xbd9dabd8	-0.07698792
224	0x3c349bbe	0.01102346
225	0x3cee51d5	0.029091755
226	0xbc979d40	-0.0185076
227	0xbc48e7a4	-0.012262259
228	0x3cae7e7a	0.021300543
229	0x3c91da73	0.01780436
230	0xbc474eaf	-0.012164756
231	0xbc10bccf	-0.008834078
232	0x3d62c02a	0.055359043
233	0x3ceab401	0.028650286
234	0xbcd75f08	-0.026290432
235	0xbc4aae8f	-0.01237072
236	0x3d4224ca	0.047398366
237	0x3bd63c90	0.0065379813
238	0x3cf00ac7	0.029302014
239	0x3ce3f199	0.027825164
240	0xbcf878b7	-0.030330999
241	0xbd0d1b54	-0.03444989
242	0xbd330ecd	-0.043715287
243	0xbcec175b	-0.02881973
244	0xbcc3a800	-0.02388382
245	0x3c928b82	0.017888788
246	0x3d0e958e	0.034810595
247	0xbb97da7b	-0.004634199
248	0xbc7de03d	-0.015495357
249	0x3add08ef	0.0016863624

weight f4 [120, 250]
0	0xbd79cf5e	-0.060988776
1	0xbbdd2869	-0.006749202
2	0xbb719038	-0.0036859643
3	0x3c902cd8	0.017599508
4	0x3d53cd1b	0.051709276
5	0xbd4f774b	-0.050650876
6	0x3d2c8e69	0.042128
7	0x3ce258b7	0.027630193
8	0xbc2671ea	-0.010158995
9	0x3d0c5d3c	0.034268603
10	0xbbcbe22f	-0.0062220315
11	0xbaed2249	-0.0018091883
12	0xbcd3759d	-0.025812918
13	0x3d438420	0.047733426
14	0x3d413bdd	0.04717623
15	0xbcc37c77	-0.02386306
16	0x3c3c7b7c	0.01150405
17	0x3c644163	0.013931605
18	0x3c8f5c4a	0.017500062
19	0xbbfc7ae1	-0.007705078
20	0xbd6b44c3	-0.057438623
21	0xbb8d7ddd	-0.0043179826
22	0xbd21e9b6	-0.039529525
23	0x3d2f3b47	0.04278114
24	0x3d1e223b	0.038606863
25	0xbc80402e	-0.015655603
26	0xbd4b6798	-0.04965934
27	0xbaf03778	-0.0018327078
28	0x3b03b34c	0.0020095883
29	0x3d2290e8	0.039688975
30	0x3d140771	0.03613991
31	0xbd2dd16d	-0.042436052
32	0xbc4c360a	-0.012464056
33	0xbcecd33f	-0.028909324
34	0x3d61c3ef	0.055118497
35	0x3c8de628	0.017321661
36	0x3cea9eed	0.028640235
37	0xbd014fe0	-0.031570315
38	0x3d309d59	0.04311881
39	0xbd0c868b	-0.034307998
40	0xba67704b	-0.00088286836
41	0xbca80b8d	-0.02051332
42	0x3cfeb047	0.031089915
43	0xbd0534b3	-0.03252096
44	0xbd74d1ee	-0.059770517
45	0x3caaf4b5	0.020868639
46	0x3c5c39b4	0.013441492
47	0x3d297003	0.04136659
48	0x3d85518c	0.065096945
49	0xbd287e0a	-0.041135825
50	0xbd46d9e7	-0.04854765
51	0x3d053be2	0.03252781
52	0xbcbaf305	-0.022820959
53	0xbca5b69e	-0.02022868
54	0xbd14b367	-0.036303904
55	0xbdae6a46	-0.08516364
56	0x3d26699c	0.04062806
57	0xbd3242f4	-0.043520883
58	0x3c13e319	0.009026312
59	0xbc7d21db	-0.015449966
60	0x3c7a3826	0.015272176
61	0x3d777599	0.060414884
62	0x3c62a9cb	0.013834427
63	0x3d923613	0.0713922
64	0x3d2ed191	0.042680327
65	0x3c20d7d9	0.009817087
66	0xbd5dfaac	-0.054194137
67	0x3cf6d5c6	0.030131232
68	0xbb06a75b	-0.002054653
69	0x3d37306d	0.044723917
70	0xbd458627	-0.04822364
71	0xbc85d0d6	-0.016334932
72	0xbb179d1e	-0.002313442
73	0xbcd48393	-0.025941646
74	0xbd4a28d4	-0.049355343
75	0xbcbb52d6	-0.022866648
76	0x3cc507b5	0.024051527
77	0x3d5530b6	0.052048407
78	0x3c369d39	0.011145883
79	0xbc8dac3e	-0.017294046
80	0x3d266763	0.04062594
81	0x3d25bc7f	0.040462967
82	0x3d5efb89	0.0544391
83	0x3c87f37d	0.016595596
84	0xbd2138c4	-0.039360777
85	0xbc0c87c4	-0.008577291
86	0x3cc322d7	0.023820324
87	0x3d33a6d6	0.04386028
88	0xbd569cee	-0.052395754
89	0xbcb25f81	-0.021774055
90	0xbd977742	-0.073957935
91	0x3d29452e	0.04132574
92	0xbd73d469	-0.059528742
93	0x3d4f2977	0.050576653
94	0xbac261e9	-0.0014830205
95	0xbce01f63	-0.027358716
96	0xbd8230e9	-0.06356985
97	0xbd1425ea	-0.03616897
98	0x3d2b9f47	0.041899946
99	0xbd11d4c9	-0.03560332
100	0xbd6894ad	-0.056782413
101	0xbd5d5e1c	-0.054044828
102	0x3d5413ec	0.05177681
103	0x3c8f9a6b	0.017529687
104	0xbc5cf776	-0.013486734
105	0x3d16b2d3	0.036791634
106	0xbb079afb	-0.002069174
107	0x3cac25a2	0.021014038
108	0x3d0274c5	0.03184964
109	0xbda82c8a	-0.0821162
110	0xbd7768c7	-0.060402658
111	0xbd2712f7	-0.04078957
112	0xbd7b585c	-0.061363563
113	0xbbfbfca0	-0.0076900274
114	0x3c91bbe3	0.017789787
115	0xbca4a9e1	-0.020100536
116	0xbd071cc6	-0.032986425
117	0xbd0c7671	-0.034292642
118	0x3b7c1d9d	0.00384698
119	0x3dc50343	0.09619763
120	0x3d0acb69	0.033885393
121	0x3d41f429	0.04735199
122	0xbd57fc3d	-0.052730788
123	0xbcff0df9	-0.031134592
124	0x3d38ecea	0.045147814
125	0x3c83006b	0.01599141
126	0x3c9f0327	0.019410683
127	0x3d4f9802	0.050682075
128	0xbd5e8355	-0.054324467
129	0xbd5faddb	-0.05460916
130	0x3d3786a4	0.044806138
131	0x3bf5a0fa	0.0074959965
132	0x3c87293d	0.016499156
133	0xbd3655fd	-0.0445156
134	0x3cdbe614	0.026843108
135	0xbd358868	-0.04431954
136	0xbd5c1f29	-0.053740654
137	0x3cf065f5	0.029345492
138	0x3c9cd8a4	0.019146271
139	0xbd098925	-0.033578057
140	0x3d0a22c0	0.033724546
141	0xbd2dad33	-0.042401504
142	0xbd6282a8	-0.055300385
143	0xbc3394b6	-0.010960748
144	0x3d123960	0.03569925
145	0xbd4aa26a	-0.049471296
146	0xbd3207a1	-0.043464307
147	0xbbfeea3b	-0.0077793873
148	0xbc6d06d7	-0.014466963
149	0xbcb85d63	-0.022505468
150	0x3d8947b3	0.06703129
151	0x3c77a778	0.015115611
152	0x3c71a28f	0.01474823
153	0xbbc1c15f	-0.005912944
154	0xbd5bef35	-0.053694922
155	0x3cc24fd5	0.023719708
156	0x3c8eb2ec	0.017419301
157	0x3cae7344	0.021295197
158	0xbd3b0848	-0.045662194
159	0xbd741c60	-0.059597373
160	0x3ce1d3a3	0.027566737
161	0xbce9d8fc	-0.028545849
162	0x3cfa3a4e	0.03054538
163	0xbd094d55	-0.033521015
164	0x3b13cb3a	0.0022551552
165	0xbcd2bc72	-0.025724623
166	0xbce82e4e	-0.028342392
167	0x3d69914f	0.057023343
168	0x3d3162da	0.043307163
169	0x3d0a56c1	0.03377414
170	0xbd1a6b9b	-0.037700277
171	0xbd4225e7	-0.047399428
172	0xbd280408	-0.04101947
173	0xbd8c724b	-0.06857737
174	0xbcc8a913	-0.024494683
175	0x3d576a3b	0.052591544
176	0x3d45ef75	0.048324067
177	0xbc4587d2	-0.012056308
178	0x3d306eb6	0.043074332
179	0xbceaecc3	-0.02867735
180	0x3bdbd17a	0.006708321
181	0xbd3d4ec1	-0.046217684
182	0xbc843228	-0.016137198
183	0x3d59d167	0.053178217
184	0x3c63ce20	0.0139041245
185	0x3d2b0fce	0.04176312
186	0xbd167868	-0.036735922
187	0x3cde1c21	0.027113022
188	0x3c0717d5	0.008245428
189	0x3c8afde8	0.016966775
190	0x3cff9ed4	0.031203665
191	0xbd197068	-0.037460715
192	0xbd5c2370	-0.053744733
193	0xbd04b33e	-0.0323975
194	0x3bba3313	0.005682358
195	0x3c4ee43f	0.01262766
196	0xbd1ce5a8	-0.038304955
197	0xbd5e53e9	-0.05427924
198	0x3cd7ea75	0.026356915
199	0xbd255713	-0.040366244
200	0x3d43cf97	0.047805395
201	0xbcca0250	-0.024659306
202	0xbbf078fc	-0.007338641
203	0x3d61e68a	0.0551515
204	0x3d72fd59	0.059323642
205	0x3d8ae19b	0.06781312
206	0x3cada03e	0.021194573
207	0x3cad2dd1	0.021140011
208	0xbcb5d00e	-0.022193935
209	0x3c1edddf	0.009696453
210	0xbd2df38e	-0.0424686
211	0xbc19acce	-0.009379579
212	0x3d5a1109	0.053238902
213	0xbb81a773	-0.003956729
214	0x3cf75084	0.03018976
215	0xbd52bbfd	-0.05144881
216	0x3ced8081	0.02899194
217	0x3c60fb02	0.01373172
218	0xbd5c4807	-0.053779628
219	0x3d807bec	0.06273636
220	0xbc924ddc	-0.017859392
221	0x3d064162	0.032777198
222	0x3cebd451	0.028787764
223	0xbd8b8c83	-0.0681391
224	0xbb971ee6	-0.0046118377
225	0x3cd506e4	0.026004262
226	0xba51d809	-0.0008004909
227	0xbd47b8dd	-0.048760284
228	0x3c808d2c	0.015692316
229	0x3d70716a	0.05870191
230	0xbc43741b	-0.011929537
231	0x3d3f1b5b	0.046656948
232	0x3db1ff11	0.08691228
233	0xbce37890	-0.02776745
234	0xbd8cd1f4	-0.06875983
235	0xbd574f2e	-0.052565746
236	0x3d27e955	0.040994007
237	0xbc9ebdf8	-0.019377694
238	0x3c35b0c3	0.011089507
239	0x3d65212a	0.05593983
240	0xbc29e024	-0.010368381
241	0x3c77f2f2	0.015133606
242	0xbbcddb39	-0.006282237
243	0x3d2d3856	0.042290054
244	0x3967afb0	0.00022095325
245	0x3cf09483	0.02936769
246	0x3d4b84cb	0.049687188
247	0xbc7cf662	-0.015439602
248	0xbd665abf	-0.056238886
249	0x3cf85295	0.030312816
250	0x3c9adf14	0.0189052
251	0xbd95a652	-0.07307114
252	0xbd17c2ee	-0.037051134
253	0x3d62781d	0.05529033
254	0xbd8e288f	-0.0694133
255	0xbd98c47f	-0.07459354

bias f4 [120]
0	0x3c2f898a	0.010713944
1	0x3da8bdfb	0.08239361
2	0x3c817374	0.015802123
3	0x3db789eb	0.08961853
4	0x3e07e58a	0.13271156
5	0xbca32f4e	-0.019920018
6	0xbd37c944	-0.044869676
7	0x3cfbab85	0.030721435
8	0x3d3cbcc1	0.046078447
9	0xbd91f6a2	-0.071271196
10	0xbd8ce006	-0.068786666
11	0xbd1f915b	-0.03895698
12	0x3cdeaee9	0.027183013
13	0x3c778a5d	0.015108672
14	0xbd871638	-0.06596035
15	0x3dc94dce	0.09829293
16	0xbbff29c3	-0.007786961
17	0xbe21e159	-0.1580862
18	0x3d802d31	0.062586196
19	0x3dc0a76d	0.09406934
20	0xbd786f3c	-0.060652956
21	0xba8b7994	-0.0010641092
22	0x3d1534c0	0.03642726
23	0x3df48203	0.1193886
24	0x3dd0eaba	0.102010205
25	0x3bc3d0fc	0.0059758406
26	0xbd153167	-0.036424067
27	0xbd0a3bcf	-0.033748444
28	0x3ce2032d	0.027589405
29	0xbd1e2cfa	-0.03861711
30	0x3d3c0a2d	0.045908142
31	0xbd2faa25	-0.04288687
32	0x3c4a3cc3	0.012343588
33	0x3dc119ef	0.094287746
34	0x3da63ed1	0.0811745
35	0xbcdde5e6	-0.027087163
36	0x3e7bb573	0.24580936
37	0x3e1a1133	0.15045623
38	0xbdaf72a8	-0.08566791
39	0xbdb02e92	-0.086026326
40	0xbaa2c5d7	-0.001241858
41	0x3c5cdc08	0.013480194
42	0x3df679b9	0.120349355
43	0xbd065793	-0.03279836
44	0x3d82823d	0.06372497
45	0xbbae72a2	-0.005323724
46	0x3db20f92	0.08694376
47	0x3cf79c2e	0.03022584
48	0xbb3fe690	-0.0029281713
49	0xbda9bca5	-0.08287934
50	0x3da2ca1f	0.07948708
51	0xbd0bee51	-0.034162823
52	0x3e8221f2	0.25416523
53	0xbd92f1f9	-0.07175059
54	0x3e2e646c	0.17030495
55	0xbd8919f8	-0.06694406
56	0x3ddc7f9f	0.10766529
57	0x3dd9310a	0.106050566
58	0xbc9303e1	-0.017946186
59	0x3de55dbf	0.11199521
60	0x3d7e9770	0.06215614
61	0x3dd2ce01	0.102931984
62	0x3dc0e2e8	0.09418279
63	0x3d572714	0.052527502
64	0xba3f32a7	-0.00072936196
65	0x3d2fc8ee	0.04291623
66	0x3e092fcc	0.1339714
67	0x3d92e38b	0.071723066
68	0x3d70b255	0.05876382
69	0xbb4dbeb2	-0.003139418
70	0x3de588b4	0.11207715
71	0xbbf53ce9	-0.0074840677
72	0x3da3b935	0.0799431
73	0x3c3c6713	0.011499184
74	0x3e263481	0.16230966
75	0x3dbde944	0.092730075
76	0x3d26a118	0.040680975
77	0xbd8cc5a2	-0.06873633
78	0x3da4d061	0.080475576
79	0x3e1b5b95	0.15171655
80	0x3dca7474	0.09885493
81	0x3c9a084a	0.01880278
82	0x3e09b142	0.13446525
83	0x3d380d6b	0.04493467
84	0xbdadb482	-0.08481695
85	0x3d66f99f	0.0563904
86	0xbd03c365	-0.032168765
87	0xbd901c5d	-0.0703666
88	0x3c4a5161	0.012348504
89	0xbd8d9344	-0.06912854
90	0x3e3c019e	0.18359992
91	0xbd2d3db7	-0.042295184
92	0xbca9556a	-0.020670611
93	0xbd6d7eec	-0.05798237
94	0x3d66cfa6	0.056350373
95	0xbd67b13a	-0.0565655
96	0xbd242888	-0.040077716
97	0x3c709335	0.014683534
98	0xbd3b3232	-0.045702167
99	0x3cc48a85	0.023991833
100	0x3b9899cc	0.004657006
101	0x3d7b8523	0.061406266
102	0xbc855ad0	-0.016278654
103	0x3e35ef43	0.17767052
104	0x3d00b2b5	0.03142043
105	0xbd0c15a6	-0.034200333
106	0x3e1211b9	0.14264573
107	0x3d822694	0.063550144
108	0x3db1845f	0.08667826
109	0xbd4cf3c7	-0.05003717
110	0xbd1104de	-0.035405032
111	0xbc855aeb	-0.016278705
112	0x3d60b129	0.054856453
113	0xbd4eba15	-0.05047043
114	0xbd31838a	-0.043338336
115	0xbca44d26	-0.020056318
116	0xbd550ae7	-0.05201235
117	0xbcdf8a8e	-0.027287748
118	0x3e667433	0.22505264
119	0xbd6cc483	-0.057804596
