models/v5.pt (torch_old, 277863 bytes, 12 tensors)

weight f4 [5, 3, 3, 3]
0.0822027 -0.19211099 -0.050219193 0.3107679 0.4218598 -0.4127263 -0.31223905 0.16554885
-0.42693964 0.30598804 0.26516765 -0.042812373 0.276816 0.6964373 -0.27341405 -0.20241325
0.2770877 -0.043859333 -0.077202596 -0.21298349 -0.017882792 0.04810959 0.27840307 -0.11412668
-0.21243961 0.0960742 -0.14656636 -0.14565873 0.12710387 0.12418721 0.0077055283 0.22791149
-0.4090473 -0.05750065 0.062207695 -0.27451172 -0.18568662 0.41292614 -0.08782676 0.16519031
0.4497937 -0.40289167 -0.19190924 0.15310459 -0.58564156 0.1628915 0.40992844 0.061148327
0.29147074 0.27779508 -0.38539636 -0.18220763 0.30503955 -0.42528418 0.4911552 0.22994381
0.24039736 0.72910005 0.021231525 -0.15242453 0.23767824 0.2765443 -0.2603024 -0.31813258
-0.3738796 -0.13400728 0.05229892 -0.58845234 -0.39387932 0.22053587 -0.09277913 -0.34028515
-0.17027245 -0.23915087 0.22265561 0.12151428 -0.33561334 0.003319055 0.27970868 0.35242647
0.24906592 -0.33394173 -0.19764051 -0.16465038 0.18836965 0.622369 -0.12607382 0.21355407
0.4022896 0.11790303 -0.12399629 0.107794635 -0.1483686 0.16423942 0.64714354 -0.09255292
0.33673286 0.35319424 0.017004816 -0.36082837 -0.15922514 -0.2443034 -0.3060707 0.29028264
-0.39050952 -0.1352356 -0.16975401 -0.42886102 0.25415322 0.50832343 0.3422122 0.38398233
-0.07411794 0.2308837 -0.25170806 -0.18537115 -0.19265534 0.05089968 -0.14817297 0.039406024
0.046638895 -0.39194423 0.17018907 -0.014743658 -0.40834525 0.35646898 -0.17571366 -0.39937153
0.113236286 -0.24160865 -0.32269952 -0.09698368 -0.029716019 -0.4527474 0.17765315
00000000: e459 a83d beb8 44be a4b2 4dbd f81c 9f3e
00000010: 02fe d73e dd50 d3be ccdd 9fbe a385 293e
00000020: d597 dabe 77aa 9c3e 0ec4 873e 075c 2fbd
00000030: d4ba 8d3e b749 323f edfc 8bbe 6b45 4fbe
00000040: 70de 8d3e d8a5 33bd 651c 9ebd 5818 5abe
00000050: ef7e 92bc 900e 453d d98a 8e3e 40bb e9bd
00000060: c589 59be 8dc2 c43d 7e15 16be 9027 15be
00000070: 8427 023e dd55 fe3d a87e fc3b a161 693e
00000080: a66e d1be cd85 6bbd 7fcd 7e3d cd8c 8cbe
00000090: a224 3ebe 0e6b d33e 84de b3bd a627 293e
000000a0: 5c4b e63e d147 cebe db83 44be 73c7 1c3e
000000b0: 9bec 15bf 08cd 263e 24e2 d13e ab76 7a3d
000000c0: a73b 953e 283b 8e3e ac52 c5be a394 3abe
000000d0: 252e 9c3e d9be d9be b278 fb3e 6476 6b3e
000000e0: ba2a 763e 4da6 3a3f bced ad3c 2d15 1cbe
000000f0: ed61 733e 3797 8d3e 5b46 85be 46e2 a2be
00000100: 266d bfbe 3439 09be 6437 563d d0a4 16bf
00000110: 8daa c9be 28d4 613e fc02 bebd db39 aebe
00000120: e75b 2ebe f7e3 74be d5ff 633e 7bdc f83d
00000130: 83d5 abbe 8184 593b fa35 8f3e 3e71 b43e
00000140: 230b 7f3e 69fa aabe 4662 4abe 1c9a 28be
00000150: f9e3 403e 9353 1f3f 7f19 01be ebad 5a3e
00000160: e7f8 cd3e 2577 f13d c4f1 fdbd 6fc3 dc3d
00000170: f0ed 17be 612e 283e 33ab 253f 638c bdbd
00000180: 4068 ac3e e0d5 b43e af4d 8b3c 7fbe b8be
00000190: ea0b 23be ac2a 7abe 4cb5 9cbe ed9f 943e
000001a0: ddf0 c7be 337b 0abe ffd3 2dbe ac93 dbbe
000001b0: 5f20 823e 7c21 023f 7036 af3e 5599 c43e
000001c0: 26cb 97bd c76c 6c3e e1df 80be efd1 3dbe
000001d0: 7147 45be 2f7c 503d a8ba 17be 3668 213d
000001e0: 6d08 3f3d eaac c8be 0b46 2e3e 628f 71bc
000001f0: a112 d1be 1a83 b63e 48ee 33be 6d7a ccbe
00000200: 6de8 e73d 4268 77be df38 a5be 619f c6bd
00000210: 026f f3bc 82ce e7be b5ea 353e

bias f4 [5]
0.12433498 0.081195936 -0.039728094 -0.11611047 -0.34108302
00000000: 57a3 fe3d 0e4a a63d edb9 22bd 53cb edbd
00000010: 6fa2 aebe

weight f4 [8, 5, 3, 3]
-0.05350261 0.13491054 0.08077282 -0.07893416 0.21120304 0.039042868 0.2036398 0.022724649
0.08877808 -0.015707033 -0.014019255 0.0973029 0.1958304 0.0910747 0.14182898 0.0280756
0.15020448 0.18229797 0.15872464 0.08936815 0.18238965 0.09387862 0.19584456 0.2892442
0.26067746 0.09967021 0.12989862 0.028587034 0.0044661565 -0.0034787194 0.013092111 -0.20825037
0.15987778 0.10898516 -0.098951004 -0.0945851 -0.17839849 -0.2292959 0.03924647 -0.22219376
-0.16859369 -0.056031905 0.03238369 -0.18226525 -0.14175619 -0.14561565 0.19353609 -0.16239655
0.0033844616 -0.18802987 -0.22045743 0.041537147 -0.080634415 -0.08176276 0.15447862 0.059158474
-0.28333667 0.08719677 -0.16222805 -0.30803788 -0.09365718 -0.28756025 0.048534285 0.18862538
-0.047317773 0.16158773 0.07872887 -0.30994043 -0.21171853 -0.070040785 -0.036527548 -0.18429302
0.017865896 -0.017115591 -0.04787741 0.1323545 -0.33573824 -0.012992713 -0.31659147 -0.020213414
0.056320406 0.18489975 0.07568199 0.08107222 0.28413495 0.25416443 -0.05410278 0.036256634
-0.03147309 -0.068406045 -0.05291399 -0.14637935 0.11249696 0.12756518 0.011815528 0.032088418
0.109574005 0.31799424 -0.15654108 0.049812242 -0.24661568 -0.0039562434 -0.1748707 -0.10513524
0.16617724 -0.1425854 0.19008636 -0.1334836 0.21910673 -0.33066204 0.07741105 0.18230082
0.01356426 -0.15846743 -0.22642277 0.061561484 0.087739795 -0.10274086 0.013494317 0.030961195
0.28002578 0.07058561 0.29684672 0.19880253 0.2685455 -0.047754243 0.0012704734 0.043113936
-0.03952969 -0.062835366 -0.1941873 -0.06486587 0.041317653 0.124008775 0.19113192 0.37135983
-0.34962916 -0.059897568 0.30960035 -0.29767194 -0.15231465 0.28586927 -0.12019667 -0.1399829
0.4745921 -0.30646145 -0.013912999 0.4609099 -0.3456103 0.024411466 0.23760378 -0.16523933
0.11564094 0.0487339 -0.022026362 0.045040462 0.13166194 0.016321218 -0.21473108 0.1261914
0.21460293 -0.26223502 0.19638021 -0.09089147 -0.008115385 0.28235108 -0.22330827 -0.0178362
0.16377398 -0.29979855 0.17805265 -0.20772794 0.17329454 0.00092797895 -0.14954016 0.22156858
-0.0013068762 -0.2107447 0.09522695 -0.002849291 0.24144606 0.2682208 0.3580135 0.007518875
-0.09356181 0.08820322 -0.31994933 -0.2357505 -0.2960679 0.047912247 0.08164883 0.014626408
0.31571677 0.21249686 -0.05528349 -0.0880907 -0.181916 -0.017485395 -0.14732267 -0.10498533
0.06462129 -0.16619934 -0.35905993 -0.3291793 0.2512288 0.13915016 0.12577406 0.15215446
0.36055708 0.19717437 -0.455625 -0.476652 -0.45106226 -0.010814872 0.2766054 0.022688027
-0.030881045 -0.086264335 0.06414677 0.23040943 0.08890824 -0.039338823 -0.31781 -0.18832481
-0.16110705 -0.031780366 0.032478314 0.0552437 -0.19234842 0.09222184 0.006626217 -0.107668065
0.06286946 0.07123413 -0.16183738 -0.06828201 -0.066925846 -0.1952233 -0.21454394 -0.08222827
0.003577572 0.07145722 -0.043665346 0.13169935 0.29608533 0.20437801 0.19866511 0.36993563
0.14083822 -0.10600818 0.090487756 -0.069684915 0.20830926 0.1618861 0.020547759 0.14356507
00000000: 8e25 5bbd fd25 0a3e 386c a53d 3ca8 a1bd
00000010: 9c45 583e 6aeb 1f3d f486 503e 0b29 ba3c
00000020: 48d1 b53d 09ac 80bc 04b1 65bc be46 c73d
00000030: c487 483e 5f85 ba3d 9e3b 113e cdfe e53c
00000040: 34cf 193e 52ac 3a3e b688 223e a606 b73d
00000050: 5ac4 3a3e 6f43 c03d 7a8b 483e d117 943e
00000060: 8477 853e e51f cc3d 2504 053e 5b2f ea3c
00000070: d658 923b 3afb 63bb 4b80 563c 963f 55be
00000080: 00b7 233e 9d33 df3d d3a6 cabd d5b5 c1bd
00000090: 18ae 36be 8bcc 6abe e8c0 203d c386 63be
000000a0: d3a3 2cbe b681 65bd c3a4 043d bea3 3abe
000000b0: 8928 11be 451c 15be 532e 463e 484b 26be
000000c0: d8cd 5d3b e78a 40be 98bf 61be db22 2a3d
000000d0: a823 a5bd 3c73 a7bd a52f 1e3e 2850 723d
000000e0: 8111 91be 3894 b23d 1c1f 26be 24b7 9dbe
000000f0: 56cf bfbd 193b 93be e3cb 463d 0327 413e
00000100: 48d0 41bd 4177 253e 9a3c a13d 83b0 9ebe
00000110: becc 58be 8b71 8fbd e99d 15bd 4fb7 3cbe
00000120: 805b 923c ff35 8cbc 1a1b 44bd f087 073e
00000130: e2e5 abbe 63df 54bc 4718 a2be 9a96 a5bc
00000140: 3ab0 663d 5c56 3d3e 29ff 9a3d 3109 a63d
00000150: 237a 913e d721 823e e09a 5dbd d681 143d
00000160: ede9 00bd 7818 8cbd 57bc 58bd 78e4 15be
00000170: ce64 e63d 72a0 023e eb95 413c 256f 033d
00000180: 5668 e03d 24d0 a23e 4e4c 20be ec07 4c3d
00000190: d288 7cbe 60a3 81bb 4e11 33be 2551 d7bd
000001a0: 5e2a 2a3e e801 12be 00a6 423e edaf 08be
000001b0: 845d 603e 894c a9be af89 9e3d 11ad 3a3e
000001c0: a13c 5e3c 4945 22be 5fdb 67be e527 7c3d
000001d0: ecb0 b33d cd69 d2bd 4517 5d3c 55a2 fd3c
000001e0: 8a5f 8f3e 308f 903d 4bfc 973e e492 4b3e
000001f0: cc7e 893e f499 43bd 0386 a63a 3d98 303d
00000200: e2e9 21bd d4af 80bd 09d9 46be 66d8 84bd
00000210: b33c 293d 50f8 fd3d 16b8 433e e022 be3e
00000220: 9802 b3be 2757 75bd f083 9e3e 7568 98be
00000230: 5ff8 1bbe 755d 923e ac29 f6bd ad57 0fbe
00000240: bcfd f23e 84e8 9cbe 59f3 63bc 62fc eb3e
00000250: d5f3 b0be 8efa c73c 684e 733e 8034 29be
00000260: 28d5 ec3d 339d 473d a170 b4bc 597c 383d
00000270: 63d2 063e 13b4 853c 77e2 5bbe 5238 013e
00000280: dfc0 5b3e ab43 86be e517 493e 4f25 babd
00000290: 64f6 04bc 5290 903e ecaa 64be 391d 92bc
000002a0: 5eb4 273e 327f 99be 6f53 363e a2b6 54be
000002b0: 2074 313e 9d43 733a 0e21 19be e0e2 623e
000002c0: 7d4b abba 75cd 57be 5906 c33d 2cbb 3abb
000002d0: a33d 773e 3d54 893e 8c4d b73e e560 f63b
000002e0: 569d bfbd e4a3 b43d 66d0 a3be 9468 71be
000002f0: 3696 97be a23f 443d 8037 a73d 9aa3 6f3c
00000300: a1a5 a13e c798 593e f170 62bd e668 b4bd
00000310: 3048 3abe 883d 8fbc c1db 16be 8c02 d7bd
00000320: 2b58 843d 2930 2abe b4d6 b7be 308a a8be
00000330: 10a1 803e 617d 0e3e eaca 003e 61ce 1b3e
00000340: f09a b83e 14e8 493e ae47 e9be bb0b f4be
00000350: a2f1 e6be dc30 31bc 399f 8d3e 3edc b93c
00000360: 3ffa fcbc 5bab b0bd 625f 833d 73f0 6b3e
00000370: 8615 b63d bf21 21bd feb7 a2be 38d8 40be
00000380: 3ff9 24be 212c 02bd fb07 053d 3847 623d
00000390: fcf6 44be cede bc3d bd20 d93b 1381 dcbd
000003a0: b4c1 803d 33e3 913d b3b8 25be 70d7 8bbd
000003b0: 6b10 89bd 9ee8 47be 68b1 5bbe 4c67 a8bd
000003c0: b375 6a3b 2a58 923d 6fda 32bd 32dc 063e
000003d0: 7f98 973e 7848 513e de6e 4b3e 3468 bd3e
000003e0: e537 103e d11a d9bd a551 b93d f7b6 8ebd
000003f0: 064f 553e 78c5 253e c653 a83c b902 133e

bias f4 [8]
-0.14288852 0.26075816 0.37301266 -0.08328812 -0.018980253 -0.27050176 0.5485704 -0.04261294
00000000: 5e51 12be 1882 853e 84fb be3e f692 aabd
00000010: 7a7c 9bbc 357f 8abe 1c6f 0c3f e88a 2ebd

weight f4 [14, 8, 3, 3]
0.0147409495 -0.0031339056 -0.123469785 0.076102875 0.03590199 0.084179595 -0.16401123 -0.117727645
-0.07390876 -0.14867042 -0.033730973 -0.08989248 -0.11000784 -0.09622681 -0.019523215 -0.019531691
0.28466225 -0.12932609 0.18245277 0.25322986 0.044370413 0.094888754 0.12323792 0.1868549
0.2091154 -0.0030639179 -0.023613088 -0.11469453 -0.10602053 -0.28261146 -0.42433962 -0.2662015
-0.24768484 -0.24190916 -0.15128346 -0.0875965 0.1468424 0.09623574 0.22833137 0.06776959
-0.08219783 0.26833248 0.1547597 0.34399977 0.18472275 0.083371714 0.046030615 -0.0052271346
0.03292797 0.012501956 -0.040643547 0.082487 -0.044973776 -0.022635575 -0.09481843 -0.12070477
-0.112762734 0.024894727 0.09535864 -0.030243654 -0.06822397 0.019187847 0.029452205 0.021269742
-0.11841711 -0.0002541732 0.0995012 -0.067718364 -0.12345034 -0.15659985 0.04135311 0.2926795
-0.061400022 -0.12530324 0.05957545 0.024934119 -0.09706675 0.039591186 -0.13361254 -0.027991712
-0.085635304 -0.012625333 0.12502214 0.017215436 0.35854292 0.22973503 -0.14255545 0.39782506
0.14832647 0.12670995 0.04517771 -0.020368561 0.12391864 0.002658872 -0.11299332 -0.03745146
0.11999 -0.018427877 -0.12803847 0.06804225 -0.118565194 0.062407687 0.05494204 -0.11449942
-0.038976103 0.0019869388 -0.07879711 -0.034284327 -0.20196478 -0.12791389 -0.098950446 -0.06331713
-0.095947094 0.078926295 0.044242654 -0.011358282 0.20733513 0.09057893 0.004384362 0.09600711
0.12429239 0.09350946 0.05655792 0.062118772 0.115288064 -0.05168482 0.01482361 -0.07184682
0.08157751 -0.12295333 -0.09593197 0.20727643 -0.24616273 -0.14794804 -0.03878351 -0.0713165
-0.078923926 -0.03546499 0.0052618966 -0.04590417 -0.10882496 -0.08286067 -0.1272835 -0.07501639
0.26144278 -0.041220117 0.037707213 0.2796363 -0.08796347 -0.030775234 0.063502066 0.11506207
-0.09226709 0.03098452 0.23355976 0.11203662 -0.094298124 0.20993759 0.13826565 0.17946918
-0.031520158 0.058258336 0.1065346 -0.07297771 -0.03137807 -0.030104103 -0.011085879 0.102294624
-0.10652474 -0.051227007 0.03220966 0.20019732 0.05511969 -0.06064508 0.1478084 -0.02652398
-0.13394323 0.21539648 -0.1619399 -0.14679134 -0.08944057 0.0039982465 0.04905736 -0.080201395
-0.10850973 -0.14537087 -0.09011882 -0.14181861 -0.081615314 0.1194755 -0.09541901 0.04122787
0.012810533 -0.07005633 0.13378614 -0.13887553 -0.08483 -0.024952397 0.2192313 -0.111258395
-0.20141244 0.28350872 -0.19308127 -0.108592436 0.025251789 0.15738925 -0.012409022 -0.22549103
-0.062007118 -0.24404243 -0.29248884 -0.25986612 -0.2707813 -0.25154495 -0.28774107 -0.31951562
-0.12510891 0.11788073 0.14463422 0.063288085 -0.030479973 0.13444832 -0.05456267 -0.044915456
0.089289226 0.12090809 0.08400211 -0.023864508 -0.16065747 0.20835814 0.035257008 -0.10777079
0.010736648 0.03936846 -0.37406012 -0.2321695 -0.22117408 -0.0837065 -0.37124342 -0.33891016
-0.26205143 -0.1311638 -0.30657223 0.0527768 -0.122421056 0.06675014 0.14651735 0.09520068
0.023634577 0.20681171 0.2936074 0.032448098 0.18266019 0.12271647 -0.018331755 -0.04780332
00000000: 0684 713c 3662 4dbb badd fcbd d3db 9b3d
00000010: f70d 133d 5a66 ac3d 8ff2 27be 311b f1bd
00000020: 7a5d 97bd 0f3d 18be 7d29 0abd 8c19 b8bd
00000030: ca4b e1bd 9012 c5bd 26ef 9fbc ed00 a0bc
00000040: 40bf 913e 0f6e 04be e6d4 3a3e 58a7 813e
00000050: c0bd 353d 0955 c23d 2a64 fc3d e456 3f3e
00000060: 5922 563e 03cc 48bb 3c70 c1bc f7e4 eabd
00000070: 4b21 d9bd 73b2 90be 0b43 d9be 904b 88be
00000080: 18a1 7dbe 09b7 77be 0dea 1abe cb65 b3bd
00000090: db5d 163e 3e17 c53d b3cf 693e c8ca 8a3d
000000a0: 5657 a8bd e062 893e 5479 1e3e bd20 b03e
000000b0: f627 3d3e cabe aa3d 998a 3c3d 6248 abbb
000000c0: 7bdf 063d 01d5 4c3c d979 26bd f2ee a83d
000000d0: 6c36 38bd 3e6e b9bc 2a30 c2bd 1034 f7bd
000000e0: 26f0 e6bd 07f0 cb3c 644b c33d 8ac1 f7bc
000000f0: 02b9 8bbd d52f 9d3c c045 f13c e23d ae3c
00000100: ab84 f2bd 8d42 85b9 49c7 cb3d edaf 8abd
00000110: 88d3 fcbd b65b 20be e161 293d 16da 953e
00000120: 977e 7bbd 7e4f 00be 6305 743d a342 cc3c
00000130: efca c6bd 5e2a 223d bad1 08be e04e e5bc
00000140: 9061 afbd 7cda 4ebc ce05 003e 6307 8d3c
00000150: f092 b73e a93f 6b3e 0efa 11be baaf cb3e
00000160: e5e2 173e 41c0 013e 430c 393d f8db a6bc
00000170: 0ec9 fd3d 7840 2e3b 0b69 e7bd b466 19bd
00000180: 51bd f53d 0ff6 96bc 841c 03be bc59 8b3d
00000190: 4fd2 f2bd 349f 7f3d e80a 613d ac7e eabd
000001a0: 68a5 1fbd 4d37 023b 6160 a1bd b96d 0cbd
000001b0: dbcf 4ebe dcfb 02be 88a6 cabd 69ac 81bd
000001c0: e97f c4bd 1ca4 a13d c937 353d 1618 3abc
000001d0: a94f 543e 7281 b93d b2aa 8f3b 609f c43d
000001e0: 028d fe3d e381 bf3d 47a9 673d 4170 7e3d
000001f0: 261c ec3d 76b3 53bd bade 723c 6d24 93bd
00000200: 1c12 a73d f5ce fbbd fb77 c4bd 4640 543e
00000210: 1512 7cbe b17f 17be 75db 1ebd 630e 92bd
00000220: dea2 a1bd bd43 11bd fd6b ac3b 0306 3cbd
00000230: 9fdf debd dbb2 a9bd 9b56 02be 31a2 99bd
00000240: d4db 853e 6dd6 28bd e172 1a3d 7d2c 8f3e
00000250: 3126 b4bd 581c fcbc 5f0d 823d aaa5 eb3d
00000260: 87f6 bcbd 40d3 fd3c 4a2a 6f3e 7573 e53d
00000270: 601f c1bd e1f9 563e 8395 0d3e c5c6 373e
00000280: 481b 01bd 4ba0 6e3d d02e da3d 5675 95bd
00000290: 4b86 00bd e19c f6bc 8ca1 35bc d87f d13d
000002a0: a529 dabd 69d3 51bd 47ee 033d 8700 4d3e
000002b0: 2fc5 613d fa66 78bd 165b 173e d148 d9bc
000002c0: 6a28 09be e590 5c3e 93d3 25be 7850 16be
000002d0: 9e2c b7bd b903 833b 5ff0 483d a140 a4bd
000002e0: 593a debd 1adc 14be 3790 b8bd e638 11be
000002f0: ee25 a7bd 92af f43d 0b6b c3bd 8ede 283d
00000300: 45e3 513c b179 8fbd 3cff 083e 6335 0ebe
00000310: 5abb adbd f868 ccbc 2b7e 603e 71db e3bd
00000320: 103f 4ebe 0e28 913e 19b7 45be b665 debd
00000330: d7dc ce3c a62a 213e 364f 4bbc 1fe7 66be
00000340: 2dfb 7dbd 42e6 79be 19c1 95be 2c0d 85be
00000350: d9a3 8abe 80ca 80be cc52 93be 8d97 a3be
00000360: 8d1c 00be 746b f13d fe1a 143e 2f9d 813d
00000370: 23b1 f9bc d2ac 093e 1b7d 5fbd 45f9 37bd
00000380: 45dd b63d a99e f73d 4c09 ac3d 807f c3bc
00000390: 6483 24be d65b 553e a769 103d efb6 dcbd
000003a0: c4e8 2f3c d340 213d cf84 bfbe d7bd 6dbe
000003b0: 757b 62be 506e abbd 9e13 bebe a285 adbe
000003c0: 9b2b 86be ce4f 06be 09f7 9cbe 7c2c 583d
000003d0: e4b7 fabd 4cb4 883d a508 163e 93f8 c23d
000003e0: 4d9d c13c 73c6 533e b653 963e 4ce8 043d
000003f0: 460b 3b3e c652 fb3d 7a2c 96bc 6acd 43bd

bias f4 [14]
-0.02642972 -0.07051206 0.36494863 -0.64702696 -0.20515776 -0.14197047 0.12893629 -0.20021302
-0.54143006 -0.50668806 0.21334235 0.3269603 0.15067247 -0.115786664
00000000: 2483 d8bc a068 90bd 8cda ba3e 8fa3 25bf
00000010: e014 52be b560 11be e007 043e a404 4dbe
00000020: 299b 0abf 4fb6 01bf 6b76 5a3e 5767 a73e
00000030: e249 1a3e 8f21 edbd

weight f4 [20, 14, 3, 3]
0.042270392 0.090005055 0.29194465 -0.117864355 0.04536642 0.26026878 -0.11406976 -0.008496887
0.15764193 -0.052363943 -0.081594415 -0.039124116 0.012063773 0.07450512 0.06446774 0.033876102
-0.0036239976 0.15593325 0.03139523 0.08265545 0.119245194 -0.010641907 0.06787185 0.03870643
0.030681768 0.016690178 0.12631734 0.057091627 0.17001699 0.0075422013 -0.06353975 -0.116405085
-0.05232262 0.07009702 -0.1370042 -0.17290457 -0.051924963 0.02237824 0.12896658 0.049054544
-0.039012287 0.08055497 -0.0021904777 -0.10087869 0.12467718 -0.02689825 -0.09748626 -0.14487533
0.16786782 0.12381808 -0.08188797 0.20130065 0.022568323 0.051992364 -0.2109366 -0.09281149
0.054446213 -0.090597495 -0.036635514 0.119621135 0.047572415 -0.0046493225 0.06398445 -0.08916836
-0.23925544 -0.2833082 0.13891305 -0.15592135 -0.31315687 0.12845641 -0.006211747 -0.34113833
0.04241349 -0.10075379 -0.0855018 0.11581095 -0.0076171895 -0.08546805 -0.0035275577 -0.09747297
-0.0086384695 -0.017950697 0.15247181 0.30159128 -0.13034624 -0.13252302 0.073267825 -0.08224058
0.020196058 0.0050120787 0.031490486 -0.011055968 0.11130696 -0.082212746 0.047824565 0.06521829
0.05432621 -0.05269761 0.057156537 -0.017886655 -0.08021839 0.12311231 -0.13802406 -0.13296513
-0.095322534 -0.0344877 -0.20989896 -0.32161987 -0.006759186 0.12516052 0.15356778 -0.052799646
0.08850438 0.19695508 0.034151137 -0.048567582 0.09791521 0.11425015 0.028463239 0.068673685
0.123924896 0.112003796 0.028890394 -0.022503505 0.013986672 0.00017858243 -0.031158349 -0.18416616
-0.023905946 -0.14116812 -0.17485705 0.09076281 -0.0783384 -0.16106649 0.02123818 0.08518706
-0.0559146 -0.101622336 0.16137877 -0.009888308 -0.056388892 0.16980806 -0.03593243 -0.11732514
0.13616778 0.11551072 0.043288834 0.17520326 0.03126125 0.026628694 0.05472811 -0.07532097
0.12572783 0.22636966 -0.024351498 0.04080241 0.1857956 -0.05257793 0.046761297 0.16698109
-0.13127625 -0.11984873 -0.01870665 -0.12437836 0.16373798 -0.017914198 0.0054732696 0.182674
-0.108890764 -0.12933485 0.24076651 0.015460299 -0.00572919 -0.04433399 0.004385512 0.115820885
-0.09735211 0.018698294 0.10422977 -0.018482758 0.066798985 0.17070504 0.0041207015 -0.0799424
0.22189078 -0.17750464 0.034035396 0.07093485 -0.24616279 -0.16797946 0.081823036 -0.14088653
-0.020874763 0.047937028 -0.10910583 -0.020060096 0.047787983 -0.10317306 -0.119351074 0.031637445
0.067223474 -0.12852682 0.06882187 0.012393789 -0.12742399 -0.0006655154 -0.037917737 -0.109010026
-0.0017120349 0.10168284 -0.075799726 -0.041496813 0.041712675 -0.13508108 -0.021115988 0.17612833
-0.03509891 -0.109368175 0.025911454 0.010700008 -0.05637312 0.10523461 0.061314773 0.07257195
-0.018413713 -0.0034339894 0.025547635 0.06312889 0.0012454953 -0.16408587 0.030562358 0.0154924905
0.07152779 0.02253045 0.05057844 0.03194026 0.09034903 0.105401956 0.09363692 -0.15685193
-0.024441382 -0.018329302 -0.12697192 -0.02329639 0.16002797 -0.04792089 0.03138094 0.24994352
-0.2557487 0.07864339 0.18282343 -0.1528228 -0.07323448 -0.086717464 -0.061090857 0.02202976
00000000: b823 2d3d 9254 b83d c579 953e de62 f1bd
00000010: 24d2 393d f341 853e 689d e9bd 8736 0bbc
00000020: e36c 213e 937b 56bd f91a a7bd 9c40 20bd
00000030: 22a7 453c 2496 983d aa07 843d abc1 0a3d
00000040: 9780 6dbb f7ac 1f3e 4998 003d 4347 a93d
00000050: d336 f43d 655b 2ebc 6600 8b3d a28a 1e3d
00000060: 5558 fb3c d7b9 883c 5559 013e e9d8 693d
00000070: ef18 2e3e 9224 f73b 2121 82bd ca65 eebd
00000080: 3e50 56bd 078f 8f3d d44a 0cbe e50d 31be
00000090: 45af 54bd 9252 b73c d10f 043e 6bed 483d
000000a0: 59cb 1fbd 01fa a43d 1e8e 0fbb 7d99 cebd
000000b0: c056 ff3d b859 dcbc e0a6 c7bd 335a 14be
000000c0: 8be5 2b3e 5594 fd3d e1b4 a7bd c221 4e3e
000000d0: 34e1 b83c f2f5 543d c4ff 57be f313 bebd
000000e0: fe02 5f3d 2e8b b9bd 1f0f 16bd edfb f43d
000000f0: 4bdb 423d 5859 98bb 480a 833d e79d b6bd
00000100: 61ff 74be c60d 91be 393f 0e3e d9a9 1fbe
00000110: 1956 a0be 148a 033e e98b cbbb afa9 aebe
00000120: c5b9 2d3d 0158 cebd 911b afbd 4b2e ed3d
00000130: 9e99 f9bb df09 afbd 992e 67bb e99f c7bd
00000140: 5e88 0dbc 570d 93bc 9221 1c3e 2c6a 9a3e
00000150: 7c79 05be 1db4 07be 710d 963d c06d a8bd
00000160: 3472 a53c 5d3c a43b 2bfc 003d 1724 35bc
00000170: e7f4 e33d 285f a8bd b1e3 433d 2b91 853d
00000180: 2985 5e3d 73d9 57bd f91c 6a3d 0987 92bc
00000190: 8a49 a4bd 4f22 fc3d 2e56 0dbe 0328 08be
000001a0: 7638 c3bd f942 0dbd c1ef 56be 5cab a4be
000001b0: 297c ddbb 142a 003e df40 1d3e 7144 58bd
000001c0: c941 b53d 98ae 493e 10e2 0b3d cdee 46bd
000001d0: c587 c83d fcfb e93d bd2b e93c caa4 8c3d
000001e0: 56cc fd3d 3f62 e53d 8cab ec3c 4559 b8bc
000001f0: 5b28 653c db41 3b39 cb3f ffbc 0e96 3cbe
00000200: 67d6 c3bc 608e 10be ba0d 33be dae1 b93d
00000210: e26f a0bd 9dee 24be b1fb ad3c 8e76 ae3d
00000220: b506 65bd 5f1f d0bd 7a40 253e 9202 22bc
00000230: 0af8 66bd 2ae2 2d3e e22d 13bd 2a48 f0bd
00000240: 916f 0b3e e290 ec3d a24f 313d 7c68 333e
00000250: cc0b 003d 6b24 da3c 952a 603d e141 9abd
00000260: ccbe 003e 73cd 673e cb7c c7bc 6e20 273d
00000270: 3441 3e3e f55b 57bd c688 3f3d 17fd 2a3e
00000280: 486d 06be 4073 f5bd b03e 99bc 15ba febd
00000290: eeaa 273e ccc0 92bc 1d59 b33b e50e 3b3e
000002a0: 1f02 dfbd 5b70 04be 7f8b 763e 324d 7d3c
000002b0: eebb bbbb 8f97 35bd 57b4 8f3b 8033 ed3d
000002c0: 8b60 c7bd 2a2d 993c 6b76 d53d 2769 97bc
000002d0: e8cd 883d 4dcd 2e3e f306 873b d7b8 a3bd
000002e0: 5637 633e c7c3 35be b368 0b3d 4a46 913d
000002f0: 1912 7cbe cf02 2cbe d692 a73d 8f44 10be
00000300: 8d01 abbc 9e59 443d e172 dfbd 1255 a4bc
00000310: 55bd 433d 664c d3bd 566e f4bd 4496 013d
00000320: 76ac 893d 899c 03be 7bf2 8c3d 520f 4b3c
00000330: 6f7b 02be fc75 2eba a14f 1bbd a640 dfbd
00000340: 5c66 e0ba 183f d03d e33c 9bbd 90f8 29bd
00000350: e9da 2a3d b252 0abe 70fb acbc fc5a 343e
00000360: e0c3 0fbd 6cfc dfbd 4244 d43c 164f 2f3c
00000370: 80e7 66bd 3e85 d73d 3325 7b3d 9aa0 943d
00000380: 5bd8 96bc c80c 61bb 4649 d13c b849 813d
00000390: e33f a33a 2006 28be e95d fa3c 37d4 7d3c
000003a0: 297d 923d c791 b83c 572b 4f3d cad3 023d
000003b0: ea08 b93d fbdc d73d b7c4 bf3d cb9d 20be
000003c0: 4b39 c8bc 5527 96bc ed04 02be 12d8 bebc
000003d0: 5fde 233e b248 44bd 4d89 003d 32f1 7f3e
000003e0: 7ef1 82be c90f a13d 1136 3b3e 957d 1cbe
000003f0: f6fb 95bd ed98 b1bd 683a 7abd c177 b43c

bias f4 [20]
-0.17182273 -0.3142374 0.07114639 0.35227758 0.30076855 -0.14499511 -0.5217209 0.48651466
0.20694777 0.10937861 -0.117936574 -0.24523245 -0.3084157 -0.21923466 0.05040645 -0.39923558
0.083500855 -0.15666786 -0.12928495 -0.31358793
00000000: 4cf2 2fbe b9e3 a0be 33b5 913d ba5d b43e
00000010: 56fe 993e 9979 14be 808f 05bf 7318 f93e
00000020: 1eea 533e e501 e03d bb88 f1bd 371e 7bbe
00000030: aae8 9dbe 0d7f 60be fe76 4e3d 9b68 ccbe
00000040: 7f02 ab3d 8a6d 20be 4663 04be 998e a0be

weight f4 [120, 500]
0.07607776 0.08657983 0.059752166 0.038727198 0.09434285 0.12143498 0.051972024 0.05204728
0.0074084313 0.01914333 -0.025518592 0.007246982 -0.018807674 -0.023213718 -0.013149341 -0.05748753
-0.05355777 -0.020092027 -0.06105184 -0.09445512 -0.060272038 -0.069452345 0.015178728 -0.018109709
-0.022887487 0.010233809 -0.02246103 0.03526284 0.063199826 0.0053111776 0.0053670825 0.009261923
0.05830602 0.0030158625 -0.010507608 -0.026445867 0.058692724 0.076790355 0.045338172 0.04943981
-0.03204388 0.032362707 -0.04899215 -0.030561905 -0.07105325 0.013799651 0.038390487 -0.0044926517
-0.04220621 -0.009240717 -0.021977771 -0.015743328 -0.040939216 0.010733798 -0.048417114 -0.022454988
-0.020301206 0.009851502 -0.0044633937 0.0014148653 0.035420936 -0.003381426 0.04750464 0.039892722
-0.059463244 -0.048236154 0.014452578 -0.0008771045 -0.009723369 -0.02109603 -0.08460826 -0.0766815
-0.11784078 -0.08509331 -0.13966975 0.20004436 0.032515623 0.056960315 -0.0221147 0.07386852
0.09415315 0.027437558 -0.0071593155 -0.035955302 -0.07783956 0.06593163 -0.009872855 -0.026066
-0.035781674 0.030831221 0.005979734 0.0057565463 -0.05213821 0.0009969544 -0.0495584 -0.13586377
-0.098867685 -0.07271857 -0.047036074 -0.11651924 -0.04800709 0.0015617327 0.00883791 0.0050554797
-0.11998315 -0.00883139 0.096191384 0.035173763 0.034392055 0.0030454465 0.019073034 0.03600635
0.03429995 0.036951523 0.033004384 -0.08725094 -0.02806336 -0.003958538 -0.013212883 0.002907564
-0.06462811 -0.036946606 0.017292777 -0.0072262334 -0.031818163 0.03442277 -0.039937396 -0.02936897
0.01462742 -0.04005633 -0.04071667 -0.10225241 -0.08500148 0.03770777 0.026760712 -0.017933272
-0.0027303973 -0.007823775 0.01874976 0.013360749 -0.065086134 -0.04463896 -0.00063975534 0.035251487
-0.04685663 -0.114582606 -0.047082115 0.049698573 0.07170977 0.011331346 -0.04702921 -0.048932724
-0.028692205 -0.031131426 -0.0014475905 0.032946937 -0.071332715 -0.024866123 -0.14247236 -0.0307492
0.08248777 0.0044289716 0.014743015 0.0071237977 0.086748414 0.11881576 -0.034602873 0.01600597
-0.03584049 0.08769211 0.016858691 0.020220723 -0.015591107 0.031719927 -0.0028801726 -0.036936108
0.08471507 0.0050499844 0.009068819 -0.05828763 -0.030741034 -0.0499181 0.0033440988 -0.042267483
-0.05596489 -0.040777374 0.009238026 -0.06561156 -0.04156945 -0.025499457 0.0080554085 -0.013926336
-0.002624366 0.007828109 0.046798877 -0.06162128 -0.029685574 -0.040911365 -0.05511201 -0.057424936
-0.054862354 0.005671826 -0.060588118 -0.07719998 -0.10016783 -0.08743828 -0.07999568 -0.09027453
-0.032601934 -0.03887478 -0.07734821 -0.09092097 -0.06546306 -0.11651406 -0.0834669 0.062167343
-0.0061688893 -0.065856054 -0.021981305 -0.09421923 0.018364191 -0.062154114 -0.0133753335 0.0021889268
0.02412958 0.107123904 -0.02664537 -0.0013437677 -0.03976768 0.0055697556 -0.055272207 -0.051582452
0.008607944 0.0031267372 0.016971178 -0.0973368 -0.024763916 -0.035094462 -0.12630372 -0.016813785
-0.13965802 -0.02325617 -0.006149939 -0.07039246 -0.041909702 -0.03267946 -0.04241127 -0.009805096
0.019263625 0.030069886 0.032570533 0.04456673 0.051592026 0.0140978815 0.07089387 0.020400288
00000000: a8ce 9b3d c450 b13d b0be 743d 69a0 1e3d
00000010: d336 c13d e7b2 f83d 9ee0 543d 872f 553d
00000020: 6dc2 f23b 79d2 9c3c 5e0c d1bc 1778 ed3b
00000030: 8d12 9abc b22a bebc 5570 57bc 0b78 6bbd
00000040: 645f 5bbd 0998 a4bc 7f11 7abd b071 c1bd
00000050: d0df 76bd 083d 8ebd 33b0 783c d05a 94bc
00000060: 8a7e bbbc b5ab 273c 3200 b8bc c56f 103d
00000070: e96e 813d 6309 ae3b 5ade af3b 52bf 173c
00000080: 4bd2 6e3d c7a5 453b 1a28 2cbc 01a5 d8bc
00000090: c867 703d 4344 9d3d 85b4 393d 6681 4a3d
000000a0: 7240 03bd c28e 043d feab 48bd f65c fabc
000000b0: 5e84 91bd ee17 623c 583f 1d3d 1837 93bb
000000c0: 6be0 2cbd 6066 17bc ba0a b4bc 27f8 80bc
000000d0: e1af 27bd d0dc 2f3c 0651 46bd 86f3 b7bc
000000e0: b74e a6bc 3268 213c a941 92bb 0073 b93a
000000f0: 8b15 113d ea9a 5dbb 3a94 423d 8d66 233d
00000100: bb8f 73bd 4693 45bd 81ca 6c3c 7ded 65ba
00000110: c44e 1fbc 95d1 acbc 1847 adbd 310b 9dbd
00000120: 8256 f1bd 6745 aebd 9605 0fbe 6ed8 4c3e
00000130: 1a2f 053d 384f 693d e329 b5bc 6148 973d
00000140: 5ed3 c03d bbc4 e03c b198 eabb de45 13bd
00000150: 596a 9fbd 2a07 873d c1c1 21bc 5d88 d5bc
00000160: ce8f 12bd c291 fc3c a5f1 c33b 69a1 bc3b
00000170: e08e 55bd 3dac 823a c0fd 4abd df1f 0bbe
00000180: 247b cabd 79ed 94bd e6a8 40bd a4a1 eebd
00000190: 15a3 44bd 0eb3 cc3a e2cc 103c 70a8 a53b
000001a0: bab9 f5bd 89b1 10bc fdff c43d 5d12 103d
000001b0: afde 0c3d 1d96 473b 0d3f 9c3c 657b 133d
000001c0: 1b7e 0c3d 7b5a 173d 9b2f 073d 9fb0 b2bd
000001d0: 22e5 e5bc a0b6 81bb d97a 58bc d48c 3e3b
000001e0: be5b 84bd 5355 17bd 95a9 8d3c 0aca ecbb
000001f0: c353 02bd e4fe 0c3d 6595 23bd 3297 f0bc
00000200: d9a7 6f3c 1b12 24bd 86c6 26bd b669 d1bd
00000210: 4215 aebd 7673 1a3d 4839 db3c cce8 92bc
00000220: 77f0 32bb 4a2f 00bc 1999 993c 0be7 5a3c
00000230: e14b 85bd 58d7 36bd 41b5 27ba dd63 103d
00000240: bdec 3fbd 49aa eabd 2dd9 40bd bb90 4b3d
00000250: 92dc 923d 1ca7 393c b3a1 40bd ae6d 48bd
00000260: ea0b ebbc 5507 ffbc 14bd bdba 5ef3 063d
00000270: e316 92bd 0ab4 cbbc 46e4 11be bfe5 fbbc
00000280: 59ef a83d e820 913b b08c 713c bf6e e93b
00000290: 27a9 b13d ad55 f33d bebb 0dbd f41e 833c
000002a0: 7acd 12bd ec97 b33d 3d1b 8a3c eea5 a53c
000002b0: d871 7fbc c1ec 013d 47c1 3cbb 514a 17bd
000002c0: 187f ad3d 577a a53b 6295 143c 03bf 6ebd
000002d0: 9fd4 fbbc ec76 4cbd ab28 5b3b ab20 2dbd
000002e0: 713b 65bd 2d06 27bd 175b 173c 5b5f 86bd
000002f0: ba44 2abd 3de4 d0bc d5fa 033c 492b 64bc
00000300: 8efd 2bbb 7841 003c 2eb0 3f3d 9866 7cbd
00000310: 292f f3bc ad92 27bd 22bd 61bd 6936 6bbd
00000320: 59b7 60bd bada b93b 3f2b 78bd 061b 9ebd
00000330: cb24 cdbd d712 b3bd c6d4 a3bd dae1 b8bd
00000340: 9b89 05bd 293b 1fbd bd68 9ebd c634 babd
00000350: 7f11 86bd ec9e eebd b2f0 aabd 2fa3 7e3d
00000360: 6524 cabb 8adf 86bd 2312 b4bc 03f6 c0bd
00000370: 8070 963c 5095 7ebd 3724 5bbc 1974 0f3b
00000380: 66ab c53c c763 db3d 6447 dabc 5d21 b0ba
00000390: 6fe3 22bd 7f82 b63b 1c65 62bd 1f48 53bd
000003a0: 5508 0d3c f2e9 4c3b 2407 8b3c 8458 c7bd
000003b0: b2dd cabc 36bf 0fbd c355 01be 10bd 89bc
000003c0: 8302 0fbe b983 bebc 6d85 c9bb ec29 90bd
000003d0: 82a9 2bbd e6da 05bd 71b7 2dbd 8ea5 20bc
000003e0: c0ce 9d3c 1f55 f63c ae68 053d 9a8b 363d
000003f0: 2952 533d cdfa 663c ce30 913d 811e a73c

bias f4 [120]
-0.11890047 -0.002033607 0.0026825268 0.023434877 0.07220738 0.065098256 -0.06764826 -0.018881436
-0.030624028 0.014989534 0.06207475 0.054824885 -0.018672792 0.020395549 -0.03581489 0.04545986
0.04278602 -0.058447048 0.046909768 -0.007737535 0.005877279 0.16031154 0.17134744 0.09085149
-0.06883714 -0.04185454 -0.07301231 -0.05655628 0.20374091 -0.0021572837 0.0058641825 0.024025863
-0.019731108 0.08546618 -0.061968807 0.019634195 0.039991125 0.15781812 0.14306939 0.00521307
-0.034181427 -0.036746267 0.026234457 0.088624455 0.0002714235 -0.011842165 -0.035602305 -0.0053785583
0.0876276 -0.03135746 0.13705356 -0.010088045 -0.0096852705 0.084724024 0.008376236 -0.012175503
-0.036875937 -0.06695837 -0.13131638 -0.024009379 -0.03605126 0.0051313858 0.008444369 0.0058846828
0.07875842 -0.10424271 0.010587467 -0.08088877 0.046069697 -0.03996509 0.015845811 -0.02688209
0.09067356 0.097960375 -0.027941938 0.06409759 0.039008677 -0.05097409 0.24154124 0.05893153
0.05650911 0.013816578 0.04013633 0.03917644 0.21754386 -0.067407 0.01183183 0.20255293
0.035167098 0.04500409 0.08904414 0.09186884 0.025752997 0.055861488 -0.020808669 0.03516503
-0.021200994 0.1050272 -0.041531105 -0.047575336 0.021210229 -0.08720732 0.034589965 -0.04598458
0.06703675 -0.076133795 -0.0109871635 0.013273059 -0.0131351035 0.014750476 -0.05833977 0.029880414
-0.007302039 0.0078992825 -0.041538507 0.10780573 0.017619414 0.031871207 -0.095210224 0.0034910329
00000000: 1782 f3bd 4446 05bb 55cd 2f3b 80fa bf3c
00000010: 76e1 933d 3c52 853d 2c8b 8abd 3ead 9abc
00000020: 3edf fabc aa96 753c 1842 7e3d 0f90 603d
00000030: aff7 98bc 9114 a73c a2b2 12bd 1e34 3a3d
00000040: 6540 2f3d 2c66 6fbd 7524 403d 268b fdbb
00000050: 3196 c03b b528 243e b475 2f3e 5910 ba3d
00000060: 7dfa 8cbd ab6f 2bbd 7a87 95bd 8fa7 67bd
00000070: 75a1 503e 3761 0dbb 5428 c03b e3d1 c43c
00000080: 22a3 a1bc e508 af3d 01d3 7dbd e4d7 a03c
00000090: bccd 233d 139b 213e c880 123e 67d2 aa3b
000000a0: d301 0cbd 4183 16bd a5e9 d63c bd80 b53d
000000b0: d84d 8e39 a405 42bc b9d3 11bd 9e3e b0bb
000000c0: 1976 b33d ae70 00bd c557 0c3e 5448 25bc
000000d0: f8ae 1ebc ca83 ad3d 7b3c 093c c37b 47bc
000000e0: 390b 17bd 7821 89bd cd77 06be 51af c4bc
000000f0: 7caa 13bd 2f25 a83b 405a 0a3c 4cd4 c03b
00000100: 184c a13d 347d d5bd 0e77 2d3c 03a9 a5bd
00000110: 94b3 3c3d 6fb2 23bd 13cf 813c d437 dcbc
00000120: 0fb3 b93d 739f c83d 7ee6 e4bc 9945 833d
00000130: 90c7 1f3d 35ca 50bd 9656 773e 3062 713d
00000140: 1976 673d ee5e 623c fe65 243d 7a77 203d
00000150: d1c3 5e3e ae0c 8abd 4bda 413c 096a 4f3e
00000160: 600b 103d 3556 383d c65c b63d bb25 bc3d
00000170: f3f7 d23c 04cf 643d f176 aabc 3509 103d
00000180: b5ad adbc 8018 d73d 851c 2abd 5bde 42bd
00000190: 13c1 ad3c c099 b2bd 35ae 0d3d 545a 3cbd
000001a0: 904a 893d 09ec 9bbd 8103 34bc 3f77 593c
000001b0: 9e34 57bc fbab 713c aff5 6ebd c5c7 f43c
000001c0: f145 efbb fe6b 013c 4824 2abd 40c9 dc3d
000001d0: 9756 903c 628b 023d 94fd c2bd d0c9 643b

weight f4 [10, 120]
0.08402696 0.18511376 -0.20690198 -0.06546074 0.079875246 0.10707736 0.10217989 -0.23286827
0.033671092 -0.2855553 0.21394043 -0.082967214 -0.22163859 -0.13263197 0.1207431 0.11452558
-0.023478586 -0.03201138 0.15160479 0.02059273 0.18979852 -0.07913514 0.120845005 -0.19497718
0.09122952 0.07386408 0.0250928 0.12705831 -0.058534183 -0.103273116 -0.034786854 0.050236408
0.07132354 -0.10393435 0.022887098 0.13576412 -0.20426129 -0.2542238 -0.080190524 -0.114281274
-0.082025334 0.07732266 0.087963864 0.021890096 0.0374905 -0.08252765 -0.10965863 0.036485404
0.11352624 0.09326611 -0.030582594 0.14229107 -0.08828348 0.18138638 0.0570207 -0.22494026
-0.08178307 -0.22560193 0.04178949 -0.0108220605 0.18626276 0.2439827 -0.05698881 0.012573349
-0.0053924625 0.0499833 0.17699908 0.09501703 -0.0030567078 -0.062999904 0.067745835 0.15561652
-0.07333355 -0.15694237 0.09464374 0.05164263 -0.20737073 0.23401728 -0.04004938 -0.04519757
-0.11069928 0.11834636 0.20694654 0.103973985 -0.15113896 0.13332842 -0.06337228 -0.06739315
-0.17396356 -0.18072546 -0.03993723 0.15662184 0.22671196 0.2151726 -0.19480513 -0.038608883
0.10672044 0.2583905 0.12925416 -0.21361333 0.1159922 0.23157002 0.11755358 0.20142637
0.13150991 -0.105892874 0.06420519 0.24850981 0.00032686917 0.03980124 -0.17542832 0.29915637
0.057249215 0.22676231 -0.0579817 -0.106950566 -0.11960129 0.0742995 0.08655805 -0.085638314
0.0923289 -0.28205064 -0.0019321243 -0.05465859 0.013345141 -0.15490703 0.28606984 0.05905308
-0.0662564 0.09497056 -0.13649371 -0.14735238 -0.04692512 -0.08299321 -0.06904538 -0.13099061
-0.07514147 0.17877275 -0.15578498 -0.118665054 -0.11535208 0.07356076 -0.13022539 -0.024150481
0.024023995 0.16056356 0.15435821 0.2503902 -0.114115484 -0.020648627 0.011018524 -0.035246637
0.032478113 0.05300444 0.13651277 0.1406562 -0.08508451 -0.26994693 -0.37634093 -0.13425757
0.06935761 -0.12785374 -0.049322687 -0.070509665 -0.2739647 -0.03438591 -0.0062457686 -0.06837612
0.018526401 -0.011954838 -0.061603125 -0.097049266 -0.1345865 -0.23340543 0.18296805 0.08519166
-0.046319995 0.16794753 0.097351 0.15291098 0.17724991 0.012780402 0.035434235 0.010345656
-0.34419551 0.20924006 -0.035617113 0.20992771 -0.21681042 -0.11109395 -0.072536945 -0.08351589
-0.04665752 0.12050706 -0.03371917 -0.1707375 -0.08761947 -0.07204269 -0.35269696 -0.2554478
-0.24329518 -0.14667434 -0.1504563 -0.097497605 -0.21449235 0.18994962 -0.054411396 -0.027879206
-0.07191678 0.022779131 -0.18006861 0.19479622 -0.13379087 -0.1886469 0.21331394 -0.28006756
-0.18289879 -0.18358195 -0.044008687 -0.09379925 -0.115467824 0.054111782 0.17671661 -0.0030265527
0.16138339 0.2632252 0.10837613 -0.083308086 0.0969572 0.085774876 0.07877531 0.0077263135
0.13015391 -0.18321927 0.19228488 -0.12000591 0.18260401 0.3510355 0.2856793 -0.050760165
-0.004668385 0.29173368 -0.19436732 -0.031432167 0.010780132 -0.067127556 -0.10810341 -0.18601339
0.2727937 -0.12870952 -0.017778272 0.3189204 0.15287471 0.22272539 -0.10927318 -0.1369033
00000000: 5416 ac3d 768e 3d3e 1dde 53be 4810 86bd
00000010: a295 a33d 604b db3d b143 d13d 0575 6ebe
00000020: b3ea 093d 4e34 92be 3313 5b3e b7ea a9bd
00000030: 3af5 62be add0 07be 2948 f73d 638c ea3d
00000040: 2a56 c0bc 5d1e 03bd 493e 1b3e 16b2 a83c
00000050: 8b5a 423e 9b11 a2bd 967d f73d 19a8 47be
00000060: 8bd6 ba3d 0d46 973d 6a8f cd3c 931b 023e
00000070: 8ac1 6fbd db80 d3bd a97c 0ebd b1c4 4d3d
00000080: 1312 923d 88db d4bd b97d bb3c c005 0b3e
00000090: df29 51be 9f29 82be ee3a a4bd 4d0c eabd
000000a0: e6fc a7bd 585b 9e3d 6626 b43d dc52 b33c
000000b0: a38f 193d 4204 a9bd b494 e0bd b871 153d
000000c0: 7280 e83d 4d02 bf3d 5988 fabc c0b4 113e
000000d0: f8cd b4bd 5abd 393e 8a8e 693d bd56 66be
000000e0: e27d a7bd 3104 67be 752b 2b3d 034f 31bc
000000f0: aabb 3e3e 9ad6 793e 196d 69bd 7300 4e3c
00000100: 41b3 b0bb 4abb 4c3d 3f3f 353e 4a98 c23d
00000110: 0c53 48bb 1806 81bd 54be 8a3d f059 1f3e
00000120: e62f 96bd 80b5 20be 94d4 c13d 3987 533d
00000130: fe58 54be 3aa2 6f3e d20a 24bd 1621 39bd
00000140: 4eb6 e2bd 945f f23d cbe9 533e 50f0 d43d
00000150: 2cc4 1abe 3f87 083e 53c9 81bd 6b05 8abd
00000160: 8123 32be 1810 39be 3995 23bd 7a61 203e
00000170: 2e27 683e 3556 5c3e ff7a 47be 5924 1ebd
00000180: 3f90 da3d c24b 843e 345b 043e 74bd 5abe
00000190: 528d ed3d b120 6d3e eebf f03d b742 4e3e
000001a0: 89aa 063e 5dde d8bd 037e 833d 5b79 7e3e
000001b0: a35f ab39 a006 233d 7ba3 33be 062b 993e
000001c0: 277e 6a3d 6134 683e 387e 6dbd e608 dbbd
000001d0: 85f1 f4bd 562a 983d 5945 b13d 2463 afbd
000001e0: ef16 bd3d f168 90be 553f fdba b0e1 5fbd
000001f0: 94a5 5a3c f39f 1ebe bf77 923e a4e1 713d
00000200: 6fb1 87bd ed7f c23d 02c5 0bbe 8be3 16be
00000210: 8e34 40bd 58f8 a9bd aa67 8dbd 6722 06be
00000220: c5e3 99bd 3410 373e 1986 1fbe aa06 f3bd
00000230: b63d ecbd 06a7 963d ce59 05be 3bd7 c5bc
00000240: f8cd c43c c66a 243e 1410 1e3e 2533 803e
00000250: 61b5 e9bd 4f27 a9bc 0a87 343c c75e 10bd
00000260: c507 053d 2f1b 593d 01ca 0b3e 2e08 103e
00000270: ca40 aebd 7c36 8abe c2af c0be d17a 09be
00000280: 5d0b 8e3d 17ec 02be 9606 4abd 5f67 90bd
00000290: 1a45 8cbe 3dd8 0cbd 4ea9 ccbb c708 8cbd
000002a0: aec4 973c 3ade 43bc 8f53 7cbd c4c1 c6bd
000002b0: 0bd1 09be d501 6fbe fa5b 3b3e f778 ae3d
000002c0: 09ba 3dbd 70fa 2b3e f65f c73d b294 1c3e
000002d0: 0081 353e e464 513c 7d23 113d d480 293c
000002e0: 653a b0be 0743 563e 40e3 11bd 4af7 563e
000002f0: 8d03 5ebe 3a85 e3bd 408e 94bd 610a abbd
00000300: f51b 3fbd 68cc f63d 1d1d 0abd d0d5 2ebe
00000310: d671 b3bd 1e8b 93bd b294 b4be 0eca 82be
00000320: 5f22 79be cc31 16be 3711 1abe d3ac c7bd
00000330: e2a3 5bbe 2782 423e 7cde 5ebd ef62 e4bc
00000340: 1b49 93bd 4d9b ba3c e863 38be a978 473e
00000350: 7900 09be a72c 41be f86e 5a3e 0465 8fbe
00000360: d249 3bbe e8fc 3bbe 7442 34bd d219 c0bd
00000370: 657a ecbd 51a4 5d3d 33f5 343e 2159 46bb
00000380: b041 253e 74c5 863e 4ef4 dd3d 6e9d aabd
00000390: 7f91 c63d bdaa af3d f354 a13d 042d fd3b
000003a0: 1147 053e d59d 3bbe 54e6 443e a9c5 f5bd
000003b0: 8cfc 3a3e edba b33e 8f44 923e e4e9 4fbd
000003c0: 40f9 98bb 1e5e 953e 3a08 47be 04bf 00bd
000003d0: 279f 303c 2c7a 89bd 5265 ddbd 4b7a 3ebe
000003e0: 9eab 8b3e 6ecc 03be bda3 91bc 8949 a33e
000003f0: 308b 1c3e 2012 643e 9eca dfbd 6130 0cbe

bias f4 [10]
-0.18193445 -0.5449461 -0.08368021 0.24025509 0.65777975 -0.042181462 0.09734297 -0.0816302
0.29086867 -0.3061162
00000000: 064d 3abe 9681 0bbf 8860 abbd 6e05 763e
00000010: 4164 283f 78c6 2cbd c05b c73d bc2d a7bd
00000020: bdec 943e 43bb 9cbe
