models/v6.pt (torch_old, 514897 bytes, 14 tensors)

weight f4 [5, 3, 3, 3]
0	0xbe473665	-0.19454344
1	0xbf51c5df	-0.8194255
2	0xbee2cf75	-0.44298902
3	0xbec2fbde	-0.38082784
4	0xbe2791c5	-0.163642
5	0x3be71e53	0.0070531755
6	0xbea6fe10	-0.3261571
7	0x3d3986a3	0.045294415
8	0xbe27f9c7	-0.16403876
9	0x3e77839f	0.24171303
10	0xbf0063da	-0.5015236
11	0xbe0663ff	-0.13124083
12	0x3e86d3c6	0.26333445
13	0x3e8a16aa	0.26970416
14	0x3e74b591	0.23897387
15	0x3d319ed9	0.04336438
16	0x3ee23300	0.44179535
17	0x3e16b9b0	0.14719272
18	0x3e88272f	0.26592395
19	0xbf105e0d	-0.5639351
20	0xbe61bf3b	-0.22045605
21	0xbdf8cdaf	-0.12148606
22	0x3ead0658	0.33793902
23	0x3edb450d	0.4282612
24	0x3d92c9a1	0.07167364
25	0x3e869ecb	0.26293024
26	0x3d9d7edf	0.07690214
27	0xbe519285	-0.20466049
28	0xbdc999de	-0.09843801
29	0xbed73508	-0.42032647
30	0xbdfebea4	-0.124387056
31	0x3eac9bcb	0.3371261
32	0xbe48c363	-0.19605784
33	0xbd2776d3	-0.040884804
34	0x3f020928	0.5079522
35	0x3e2cae10	0.16863275
36	0x3e561195	0.20905145
37	0x3e60d2a3	0.21955352
38	0x3dcad0a0	0.09903073
39	0x3e067047	0.13128768
40	0x3eae20a1	0.3400927
41	0x3e30738e	0.1723158
42	0x3ca23a08	0.019803062
43	0x3f04196d	0.51601297
44	0x3d5ee3b3	0.05441637
45	0xbe9e7cd9	-0.30954626
46	0x3d95af8c	0.073088735
47	0xbea45d81	-0.32102588
48	0xbece5ea2	-0.40306574
49	0x3d816e82	0.06319906
50	0xbe935436	-0.28775185
51	0xbe554789	-0.2082807
52	0x3ec25587	0.37955877
53	0xbe01ff6a	-0.12695089
54	0xbec92203	-0.3928376
55	0xbefcf506	-0.49405688
56	0x3bc35355	0.0059608617
57	0x3d178ea5	0.03700127
58	0xbd6baa07	-0.057535198
59	0xbe40f8a6	-0.18844852
60	0x3eb264ba	0.34842473
61	0xbe10785f	-0.14108418
62	0xbcf3ce87	-0.029761566
63	0xbbe6d190	-0.0070440248
64	0x3d2be84e	0.04196959
65	0x3f0ce76c	0.5504062
66	0x3ea54391	0.32278112
67	0x3e60b650	0.21944547
68	0x3e11de87	0.14245044
69	0x3e8bf36e	0.2733416
70	0xbd7c9db9	-0.061673854
71	0xbe8625f9	-0.26200846
72	0xbd8e7283	-0.06955435
73	0x3de7ca3c	0.1131787
74	0x3ecbecff	0.3982925
75	0x3cc5c9be	0.02414405
76	0x3d05b77d	0.03264569
77	0xbda13532	-0.07871474
78	0x3e2fbf0a	0.1716272
79	0xbe0477b4	-0.12936288
80	0xbea60166	-0.32422942
81	0xbd13021c	-0.035890684
82	0xbf124d99	-0.57149655
83	0xbf016f12	-0.50560105
84	0x3d361717	0.044455614
85	0xbe84b45e	-0.2591886
86	0x3ea5030f	0.32228896
87	0xbe536cb7	-0.2064694
88	0x3e03e150	0.12878919
89	0x3ecc8fb6	0.39953393
90	0x3eaf4387	0.34231207
91	0xbef00d73	-0.4688526
92	0xbeb0b2fe	-0.3451156
93	0xbd7eaac0	-0.06217456
94	0x3dcafa23	0.09910991
95	0xbbb66c88	-0.005567137
96	0xbead6f77	-0.33874103
97	0xbcbc31a3	-0.022972887
98	0xbaa043d9	-0.0012227251
99	0x3f1a3ad6	0.60246027
100	0x3e599800	0.2124939
101	0xbce64435	-0.028108696
102	0x3eb63182	0.35584646
103	0x3e8578cc	0.26068723
104	0x3eca182b	0.39471564
105	0x3c0b186e	0.008489711
106	0xbdeddd64	-0.116144925
107	0x3e5621ad	0.20911284
108	0x3edfd1f4	0.4371487
109	0xbe1f2f3e	-0.15545365
110	0x3bbef790	0.0058278516
111	0x3f4a1420	0.7893696
112	0xbc9758b6	-0.018474918
113	0xbe025d05	-0.12730797
114	0xbddbfa8b	-0.10741147
115	0xbf11d34a	-0.56963027
116	0x3e9cdc10	0.30636644
117	0x3ec9a23d	0.3938159
118	0xbec742c3	-0.38918123
119	0xbf0347af	-0.51281255
120	0x3f22d55f	0.6360683
121	0xbe8a1f62	-0.26977068
122	0xbe923b57	-0.28560898
123	0x3ecfb829	0.4057019
124	0xbeb41743	-0.35173997
125	0x3e8d23af	0.27566287
126	0x3dbd9670	0.09257209
127	0xbef2da7b	-0.47432312
128	0xbeff511e	-0.49866575
129	0x3f0a018d	0.53908616
130	0xbed02da0	-0.4065981
131	0xbe939058	-0.28821063
132	0x3dd78035	0.105225004
133	0xbea80ddf	-0.32823083
134	0x3eaad420	0.33364964

bias f4 [5]
0	0x3ca6d6e3	0.020366138
1	0x3d11320d	0.035448123
2	0x3e10d615	0.14144166
3	0x3e5e5362	0.21711496
4	0xbe2cf0a5	-0.16888674

weight f4 [8, 5, 3, 3]
0	0x3db9b65a	0.09067984
1	0x3e3f645a	0.18690625
2	0x3e2e69ad	0.170325
3	0xbebbcc69	-0.3667939
4	0xbeef5604	-0.46745312
5	0xbed18757	-0.4092357
6	0x3e98611b	0.29761586
7	0x3eae50b9	0.34045961
8	0x3e9f790d	0.31147042
9	0xbd3273da	-0.043567516
10	0x3e1c52b8	0.1526593
11	0x3cb9aba7	0.022664858
12	0xbe384258	-0.17994058
13	0xbde4e031	-0.111755736
14	0xbd782407	-0.060581233
15	0xbd9e90a1	-0.077424295
16	0x3e220c5d	0.15825029
17	0xbe8a7f7f	-0.27050397
18	0x3e817230	0.2528243
19	0xbd4dee54	-0.050276116
20	0x3d2ff3b3	0.04295702
21	0x3de0e6fe	0.10981558
22	0xbe06d302	-0.1316643
23	0x3da2d200	0.079502106
24	0xbd926b10	-0.07149327
25	0x3d840d20	0.06447816
26	0x3c25b9c2	0.010115089
27	0x3e60ddd4	0.2195962
28	0x3d8c4104	0.06848338
29	0x3dc7d839	0.09758038
30	0xbe70d209	-0.23517622
31	0xbee1d9c2	-0.4411145
32	0xbeaecead	-0.34142056
33	0x3e98d331	0.29848626
34	0x3df226c7	0.118238024
35	0x3e119ed9	0.14220752
36	0x3d301af6	0.042994462
37	0x3ce0a2cf	0.027421383
38	0x3ec06060	0.37573528
39	0x3d9efdbf	0.07763242
40	0xbebc57f1	-0.36785844
41	0xbd6e0412	-0.05810935
42	0x3de13d92	0.10998072
43	0xbe1a4d67	-0.15068589
44	0x3d6912a7	0.056902554
45	0xbdbcacf7	-0.09212678
46	0xbee73d16	-0.45163792
47	0xbec7a3e5	-0.3899223
48	0xbed517ec	-0.41619813
49	0xbd55e8ff	-0.052224156
50	0x3e82e5b8	0.25565886
51	0x3e80bfb9	0.25146273
52	0x3ed7c016	0.42138737
53	0x3eefecc0	0.46860313
54	0x3d914674	0.07093516
55	0xbc360191	-0.011108772
56	0xbdee5e6d	-0.11639104
57	0xbc092559	-0.008370721
58	0xbcea2961	-0.028584184
59	0xbdd0ce83	-0.10195639
60	0x3d5d3342	0.05400396
61	0xbdb0a166	-0.08624534
62	0xbe1cf480	-0.15327644
63	0x3e8306a5	0.25591007
64	0x3d167b95	0.03673895
65	0xbe2b0443	-0.16700844
66	0x3e1abda6	0.15111408
67	0xbe0f3021	-0.13983203
68	0xbd4a9e58	-0.049467415
69	0xbe043a48	-0.12912858
70	0xbe1c3c29	-0.15257324
71	0x3da4446a	0.080208614
72	0xbe1f1479	-0.15535153
73	0xbed2de28	-0.41185117
74	0xbda6dcd2	-0.08147587
75	0x3d54a8c8	0.051918775
76	0xbd821c19	-0.063530155
77	0xbd987f8e	-0.07446204
78	0x3e6ebc89	0.23314108
79	0x3ec1496a	0.37751323
80	0x3e24912a	0.16071
81	0xbe91363f	-0.283617
82	0xbcfb602b	-0.030685505
83	0x3e55cd64	0.20879132
84	0x3dca980b	0.09892281
85	0x3dbff385	0.093726195
86	0xbeae0c87	-0.33993933
87	0x3dce6112	0.100771084
88	0xbe0bd758	-0.13656366
89	0x3ce5ea8c	0.028065942
90	0xbd1a9411	-0.037738863
91	0xbe5d9f79	-0.21642865
92	0xbe2b8808	-0.1675111
93	0xbdf19b28	-0.11797172
94	0xbddaf104	-0.10690501
95	0x3df1af13	0.11800971
96	0x3e26cc32	0.16288832
97	0x3e16c23a	0.14722529
98	0x3e932b8d	0.28744164
99	0x3d6cd63b	0.057821494
100	0x3d1ee843	0.03879572
101	0x3de182eb	0.11011299
102	0xbe56a40d	-0.20961018
103	0xbe130797	-0.14358364
104	0xbc2c59c6	-0.0105194505
105	0xbe8422c0	-0.25807762
106	0xbe45c3e8	-0.19313014
107	0xbe33683f	-0.17520235
108	0xbd99ab9d	-0.07503436
109	0xbd8be097	-0.068299465
110	0xbe812aba	-0.2522791
111	0xbe3bf5ef	-0.18355535
112	0xbe76e03a	-0.24108973
113	0xbd89d37d	-0.06729791
114	0xbd915e9e	-0.07098125
115	0xbdbc1b19	-0.09184856
116	0xbe0bad32	-0.13640288
117	0x3dcc9a8a	0.099904135
118	0x3daa9f01	0.08331109
119	0x3ca5280c	0.020160697
120	0x3d11bb4a	0.035579003
121	0xbe03977b	-0.12850754
122	0xbd60e3f1	-0.054904882
123	0x3e3086a6	0.17238864
124	0xbddea97a	-0.10872169
125	0xbdd97332	-0.10617675
126	0x3e7449b8	0.23856246
127	0x3e53f421	0.20698597
128	0x3e6bb829	0.2301947
129	0x3ea340a0	0.31885242
130	0x3e8cf61c	0.27531517
131	0x3e2b7718	0.1674465
132	0x3d514f8a	0.051101245
133	0x3d9719e8	0.07377988
134	0xbd31ca3c	-0.043405756
135	0x3f11b949	0.5692335
136	0x3f3334ab	0.7000224
137	0x3e98a814	0.29815733
138	0x3dbb37f0	0.091415286
139	0xbebb571b	-0.36589894
140	0xbe8a5d12	-0.27024132
141	0xbe3cb700	-0.18429184
142	0xbe994cf6	-0.2994153
143	0xbe20dd30	-0.15709376
144	0x3de0d469	0.10978014
145	0x3d7252a6	0.05916085
146	0xbd6e7176	-0.058213674
147	0xbd271e16	-0.040800177
148	0x3b20323a	0.0024444
149	0x3caeeb7c	0.021352522
150	0x3db786bc	0.089612454
151	0x3e375670	0.17904067
152	0x3e0528ff	0.1300392
153	0xbe40ef00	-0.18841171
154	0x3e895722	0.2682429
155	0x3e07cfd9	0.13262881
156	0x3da3a9f2	0.07991399
157	0x3d0670cb	0.03282241
158	0xbe902f06	-0.28160876
159	0xbdf8674e	-0.12129079
160	0xbdfb9dab	-0.12285932
161	0xbe6f2901	-0.23355485
162	0x3eb1c5aa	0.34721118
163	0x3e802455	0.2502772
164	0x3ddac754	0.1068255
165	0xbe430155	-0.19043477
166	0xbed13d6b	-0.4086717
167	0xbdb14f44	-0.08657697
168	0xbe61dba5	-0.22056444
169	0xbd0e7668	-0.03478089
170	0x3e30530c	0.1721918
171	0x3def6eaf	0.11691033
172	0xbeae4a40	-0.34041023
173	0xbe0526d5	-0.13003094
174	0xbdbc61db	-0.09198352
175	0xbdce4a9b	-0.100728236
176	0x3db2ec0c	0.087364286
177	0x3d7c85a6	0.061650895
178	0x3ed1a8b7	0.40949032
179	0x3dc57648	0.09641701
180	0xbe1fe3c4	-0.1561423
181	0x3edcff30	0.43163443
182	0x3d9d9a58	0.07695454
183	0xbe32ee50	-0.17473722
184	0x3d5e50c1	0.05427623
185	0x3e89bac8	0.26900315
186	0x3dd18187	0.102297835
187	0xbee32f04	-0.44371808
188	0x3eb4b3e2	0.3529349
189	0xbdc05c2b	-0.0939258
190	0x3e5caa4b	0.21549337
191	0xbd9186a1	-0.071057566
192	0xbd5e1fb3	-0.05422945
193	0x3dfdfe44	0.12402013
194	0x3e261460	0.1621871
195	0x3d489425	0.048969407
196	0xbdbde6cb	-0.09272536
197	0x3de31698	0.11088294
198	0xbdc2163c	-0.09476897
199	0xbe78acf2	-0.24284723
200	0x3ea2a5fb	0.31767258
201	0x3db1a5b2	0.08674182
202	0xbe399df5	-0.18126662
203	0x3e048156	0.12939963
204	0x3e95d6e1	0.29265502
205	0x3d144855	0.036201794
206	0xbec2bde1	-0.3803549
207	0x3db5be45	0.08874182
208	0x3eeb466d	0.45952168
209	0xbec68997	-0.38776848
210	0xbe04a6a5	-0.12954195
211	0x3db57a53	0.08861222
212	0x3b8fe774	0.004391605
213	0x3ba31c43	0.0049777343
214	0xbe9d69fe	-0.30744928
215	0x3e71a355	0.23597462
216	0x3ed2564c	0.41081464
217	0x3ebaf58b	0.3651546
218	0xbe61cb89	-0.22050299
219	0xbeac0df7	-0.33604404
220	0xbe5c9d00	-0.21544266
221	0x3f119f1d	0.5688341
222	0x3d9a11a5	0.07522897
223	0xbe60c5b3	-0.21950416
224	0x3dd5b01d	0.104339816
225	0x3e638d93	0.22221975
226	0x3d9b4957	0.07582348
227	0xbd975d14	-0.073908
228	0x3d1a62bb	0.037691813
229	0x3e02ad9a	0.12761536
230	0x3dda9742	0.106733814
231	0xbe484bd9	-0.19560184
232	0x3cf1d757	0.029521627
233	0xbdcd0dce	-0.10012399
234	0x3c8b5d90	0.017012388
235	0xbd709c0a	-0.05874256
236	0x3dc5c2f4	0.09656325
237	0x3d100f00	0.035170555
238	0x3db54ee6	0.08852939
239	0xbb9d301f	-0.0047969962
240	0x3c8c372b	0.01711615
241	0x3d2ac969	0.041695986
242	0xbc418d0f	-0.011813416
243	0x3ca7e06c	0.020492755
244	0xbdd57742	-0.10423137
245	0x3e02aeec	0.1276204
246	0x3e5ff4f6	0.21870789
247	0x3e2a75dc	0.16646522
248	0x3d5c850c	0.05383782
249	0x3c99f606	0.01879407
250	0x3cf03561	0.029322328
251	0x3d9efcf1	0.077630885
252	0xbe4aa73b	-0.19790356
253	0x3e031732	0.12801817
254	0x3dc5f1c7	0.09665256
255	0x3e57a69e	0.21059653

bias f4 [8]
0	0x3c397662	0.011319729
1	0xbe810566	-0.2519943
2	0x3c839d14	0.016066112
3	0xbe42ade4	-0.19011647
4	0x3f087260	0.5329952
5	0x3e53bb3b	0.20676892
6	0x3e6966af	0.22793077
7	0xbe219214	-0.1577838

weight f4 [14, 8, 3, 3]
0	0xbd792a2d	-0.060831238
1	0x3d1d3ff9	0.038391087
2	0x3e1c47e6	0.15261802
3	0x3e096296	0.13416514
4	0xb9587bcf	-0.00020645488
5	0x3d1a886f	0.03772777
6	0xbd77cf1d	-0.060500253
7	0xbbbbb0fa	-0.0057278844
8	0x3d5daecc	0.054121777
9	0x3d3c618d	0.04599147
10	0x3db3866b	0.087658726
11	0x3e3488f8	0.17630374
12	0xbc7d0bd8	-0.015444718
13	0x3c8d6eb2	0.017264698
14	0x3d3c9f7e	0.04605054
15	0x3d87585a	0.066086486
16	0xbd7b426e	-0.06134265
17	0xbd5a725e	-0.053331725
18	0xbe303202	-0.17206576
19	0x3d13022e	0.03589075
20	0x3e0c97fe	0.13729855
21	0xbe38c25f	-0.18042897
22	0xbe02f8e9	-0.12790264
23	0xbe1ec38f	-0.15504287
24	0xbd1ef945	-0.03881194
25	0xbe8643ee	-0.262237
26	0xbe928381	-0.28615955
27	0x3d741c69	0.059597407
28	0x3e26f775	0.16305335
29	0xbd9c9700	-0.076459885
30	0x3defa37d	0.11701105
31	0x3d6eaf9d	0.058272947
32	0x3e4fe3cb	0.2030174
33	0x3dd6c386	0.10486512
34	0x3dd2dfb3	0.102965735
35	0x3e015369	0.12629475
36	0xbd095342	-0.033526666
37	0x3d0e7d81	0.03478766
38	0x3e35dbf7	0.17759691
39	0xbe374229	-0.17896332
40	0x3ccc5131	0.024941059
41	0x3dd87af6	0.10570328
42	0xbbce712b	-0.0063001118
43	0x3a83e789	0.001006351
44	0xbd21634c	-0.039401338
45	0x3dec4b67	0.11537819
46	0x3d65e044	0.05612208
47	0xbd9af061	-0.0756538
48	0xbe5fe726	-0.2186552
49	0xbe38e95d	-0.18057771
50	0x3df5bed3	0.119992875
51	0xbe748bef	-0.23881505
52	0xbd14ecd4	-0.03635867
53	0x3d9a5644	0.07535985
54	0xbea1754e	-0.3153481
55	0xbd4178ae	-0.04723423
56	0x3e2307e7	0.15920983
57	0xbe0ba202	-0.1363602
58	0xbe15f114	-0.14642745
59	0x3da01cd7	0.07818001
60	0xbeac4493	-0.33646068
61	0x3c7b4108	0.015335329
62	0xbd0f483e	-0.034981005
63	0x3ea176c1	0.31535915
64	0x3d8cde6c	0.06878361
65	0x3e676772	0.22598055
66	0x3e86da44	0.26338398
67	0x3ea1ba99	0.31587675
68	0x3e8e7d50	0.2782998
69	0x3e5b3064	0.21405178
70	0x3d5f0e45	0.054456968
71	0x3e790fb3	0.24322395
72	0x3e35effa	0.17767325
73	0x3e832503	0.25614175
74	0x3e6930e6	0.2277256
75	0x3d69aa36	0.05704709
76	0x3c8f3b50	0.017484337
77	0x3ce3fc93	0.027830398
78	0x3d439a00	0.047754288
79	0xbd173494	-0.036915377
80	0x3e0734a7	0.13203679
81	0x3e468283	0.19385724
82	0x3e1da417	0.15394627
83	0x3bed8d71	0.007249527
84	0x3e078163	0.13232951
85	0xbd954f2c	-0.072904915
86	0xbd8d031b	-0.06885358
87	0xbe302c4a	-0.17204395
88	0xbc80eb90	-0.015737325
89	0x3d4420e0	0.047882915
90	0x3e9aad4c	0.3021034
91	0x3e13a469	0.14418186
92	0xbdfaa3c6	-0.122382686
93	0x3d92c734	0.07166901
94	0x3dae5a8c	0.08513364
95	0xbe4626e5	-0.19350775
96	0xbda3be3c	-0.07995269
97	0xbe38f179	-0.18060865
98	0xbe890f2c	-0.26769388
99	0x3b6992a6	0.0035640388
100	0xbe1baf33	-0.15203552
101	0xbd737e37	-0.05944654
102	0x3e08d198	0.13361204
103	0x3ca73d07	0.020414842
104	0x3cb84b09	0.022496717
105	0x3de7cc77	0.113182954
106	0x3cd329b9	0.02577673
107	0xbe23b35c	-0.15986389
108	0x3df2ad1d	0.11849425
109	0xbcdd5fde	-0.027023252
110	0xbd1e086f	-0.03858226
111	0x3e5a1e02	0.2130051
112	0xbe0757ef	-0.13217138
113	0xbea81e01	-0.3283539
114	0x3e91ebcd	0.28500214
115	0x3d3dd283	0.046343338
116	0xbebb28aa	-0.36554462
117	0xbe1be9f0	-0.15225959
118	0xbdab8d58	-0.083765686
119	0x3e88b37a	0.2669943
120	0xbd49c050	-0.04925567
121	0xbe4156c5	-0.18880756
122	0xbcc00ce8	-0.023443654
123	0xbdb42c78	-0.08797544
124	0xbe904bd9	-0.28182867
125	0xbe94fbb4	-0.29098284
126	0x3e0ea192	0.13928822
127	0x3d99d855	0.07511965
128	0xbcb3f06d	-0.02196523
129	0x3e4b9248	0.1988002
130	0x3b169f13	0.0022983
131	0x3c0d4bd1	0.008624033
132	0xbda44418	-0.080208
133	0x3af89324	0.001896475
134	0x3d17ad5e	0.03703057
135	0x3dcf1e41	0.10113192
136	0x3e2d033b	0.16895764
137	0xbc488e09	-0.012240895
138	0xbd2eac10	-0.04264456
139	0xbe1f19d9	-0.15537204
140	0xbdb5651b	-0.08857175
141	0xbd944d8c	-0.072413534
142	0xbe0d1b3d	-0.13779922
143	0x3dd50c11	0.10402692
144	0x3e815147	0.25257322
145	0x3e8bf096	0.2733199
146	0x3e7335a2	0.23750928
147	0x3e257dea	0.16161314
148	0x3e8cec7b	0.2752417
149	0x3de0414a	0.10949953
150	0x3d459018	0.04823312
151	0x3e38ee70	0.18059707
152	0x3dfb6cc1	0.122766025
153	0x3e63a8ca	0.22232357
154	0x3e355b55	0.17710622
155	0x3e2d98d3	0.16952829
156	0x3d041ffc	0.032257065
157	0xbd3077e3	-0.043083083
158	0x3dcd6182	0.10028364
159	0x3d952c3d	0.072838284
160	0x3e343e6d	0.17601939
161	0x3e39e4ed	0.18153735
162	0x3e3111d8	0.17291963
163	0x3ca38cc4	0.019964583
164	0x3db00a31	0.08595694
165	0x3d4cc14a	0.049989022
166	0xbc4a66f7	-0.01235365
167	0x3e165a33	0.14682846
168	0x3d99306b	0.07479938
169	0xbdb4fa9f	-0.08836865
170	0x3d43eb89	0.047832046
171	0x3e62afea	0.22137418
172	0xbb9bf9b8	-0.0047599934
173	0x3e0e3b46	0.13889799
174	0xbd813e8f	-0.0631076
175	0x3cdaa9a7	0.026692225
176	0x3d917f50	0.07104361
177	0x3de461f8	0.111514986
178	0xbd4f1fda	-0.050567485
179	0x3dd8cbc7	0.105857424
180	0x3d32b286	0.043627284
181	0xbce6f785	-0.028194198
182	0xbdda4c0f	-0.10659038
183	0xbdca4cce	-0.098779306
184	0xbe58d6d9	-0.21175708
185	0xbe2262cc	-0.15858
186	0xbdb90942	-0.09034969
187	0xbd7c7454	-0.061634377
188	0xbe2fdc09	-0.1717378
189	0x3da6695e	0.08125566
190	0x3d8fd48c	0.07022962
191	0x3d35ce41	0.044386152
192	0xbe1c517b	-0.15265457
193	0xbe09e367	-0.13465653
194	0xbcc1b9d2	-0.023648176
195	0xbd734367	-0.05939045
196	0xbe35b865	-0.17746122
197	0xbdadd4ae	-0.08487831
198	0xbd63e212	-0.05563552
199	0x3cf7aadb	0.030232837
200	0x3ccca662	0.024981681
201	0x3d72fff0	0.059326112
202	0xbd12e5f4	-0.03586383
203	0x3ddb3b3b	0.10704657
204	0x3e48d04b	0.19610707
205	0x3e5e4ead	0.217097
206	0xbbb4a974	-0.0055133644
207	0xbd31bb10	-0.043391287
208	0x3ceaa506	0.028643142
209	0xbdb051a8	-0.08609325
210	0x3c6d250b	0.014474164
211	0xba84049d	-0.0010072176
212	0xbd5ca462	-0.053867705
213	0xbd857559	-0.06516523
214	0xbdcc53a5	-0.099768914
215	0x3c47bf10	0.012191549
216	0x3de44d7b	0.11147591
217	0x3d885aef	0.06657969
218	0x3de43536	0.11142962
219	0x3bf374be	0.0074296882
220	0x3a8e2429	0.0010844517
221	0xbde0a071	-0.10968102
222	0x3c60dcc6	0.0137245115
223	0x3dd1d2fb	0.102453195
224	0xbd2c9c00	-0.04214096
225	0xbdb903d7	-0.090339355
226	0xbe0e6e3c	-0.13909239
227	0xbbd37e9e	-0.006454303
228	0xbe3ea950	-0.18619275
229	0xbd560ec5	-0.05226018
230	0xbe031743	-0.12801842
231	0xbce55105	-0.027992735
232	0x3d85ca0f	0.0653268
233	0x3db12a88	0.0865069
234	0x3ca34ec8	0.019935027
235	0x3d1b99ad	0.037988354
236	0x3d985c3f	0.074394695
237	0xbd4563de	-0.048190944
238	0x3d21533a	0.03938601
239	0xbe0ce04d	-0.13757439
240	0x3c099686	0.008397704
241	0xbd47f44a	-0.048816957
242	0xbd71096a	-0.05884687
243	0x3d4b2847	0.04959896
244	0x3db85ad9	0.09001703
245	0x3d99a716	0.07502572
246	0xbd817b8d	-0.063223936
247	0xbe821c7e	-0.25412363
248	0xbe2ca3e4	-0.16859394
249	0xbe19e24a	-0.15027729
250	0xbeb9d298	-0.36293483
251	0xbe6ccccf	-0.23125003
252	0x3ebc1eee	0.36742347
253	0x3ea6c425	0.3257152
254	0x3e6633b5	0.22480662
255	0x3cd57397	0.026056094

bias f4 [14]
0	0xbe9e0cee	-0.3086924
1	0xbd67854b	-0.056523602
2	0xbf079f75	-0.5297769
3	0x3e215382	0.15754512
4	0x3d43621a	0.04770098
5	0xbda4d91e	-0.08049224
6	0x3f1863ec	0.5952747
7	0x3e471c71	0.19444443
8	0x3eb716cf	0.3575959
9	0x3ec8a02c	0.391847
10	0xbe39cdb6	-0.18144879
11	0x3ee589a9	0.4483159
12	0x3dff187c	0.12455842
13	0x3e1d1696	0.15340647

weight f4 [20, 14, 3, 3]
0	0xbdb43fb4	-0.08801213
1	0xbc8077e2	-0.015682165
2	0x3df97f52	0.121824875
3	0xbdea7e46	-0.11449866
4	0xbc5ee1e9	-0.013603666
5	0x3dbb3b37	0.09142154
6	0xbca4e2f7	-0.020127757
7	0x3d153ba1	0.03643382
8	0x3d76f8bb	0.0602958
9	0xbdf34c34	-0.11879769
10	0x3dc20993	0.094744824
11	0xbdbb82ca	-0.091558054
12	0x3dc6a600	0.09699631
13	0x3d4e796d	0.05040877
14	0x3b3d7a4c	0.0028912006
15	0x3d89b86a	0.06724627
16	0xbcbe3d33	-0.023222541
17	0x3d31daf8	0.043421715
18	0xbd5723b4	-0.052524284
19	0x3ddc7e47	0.10766273
20	0x3e135d90	0.1439116
21	0x3d9c2433	0.07624092
22	0x3e0933b9	0.13398637
23	0x3e35bfcb	0.17748944
24	0x3a1cc11f	0.0005979705
25	0xbd41c47a	-0.047306515
26	0x3bd309ab	0.0064403615
27	0x3d50cc67	0.050976183
28	0xbd527b93	-0.05138738
29	0x3bb21a3c	0.0054352563
30	0xbe272e03	-0.16326146
31	0x3c1ec67d	0.009690878
32	0x3ca8d932	0.02061138
33	0xbe575d63	-0.21031718
34	0xbcc8590c	-0.024456523
35	0x3d346a3f	0.044046637
36	0x3cbcf03c	0.023063771
37	0x3d5df9f9	0.05419347
38	0xbc6564c7	-0.014001078
39	0xbb5aadba	-0.003336771
40	0xbd07cce3	-0.03315438
41	0xbdc11898	-0.09428519
42	0xba9cf2e4	-0.0011974243
43	0x3b3de593	0.0028975948
44	0xbd696383	-0.056979667
45	0x3dede5da	0.11616106
46	0x3d62e6f6	0.055396043
47	0x3e1bb0d7	0.15204178
48	0x3e2cd345	0.16877468
49	0x3db8e85a	0.090286925
50	0x3de10a19	0.10988254
51	0x3e8d70ef	0.27625224
52	0x3d5c8664	0.053839102
53	0x3d4b6c7d	0.04966401
54	0x3dc79a65	0.09746245
55	0x3dcb1aca	0.09917219
56	0x3cdcd8a3	0.02695877
57	0xbd53906f	-0.051651414
58	0x3d522238	0.051302165
59	0x3d797fee	0.06091302
60	0x3db9b805	0.09068302
61	0x3d54cba1	0.05195201
62	0x3ca265f5	0.019824008
63	0xbd5edb92	-0.054408617
64	0xbdc6ebc1	-0.09712935
65	0xbdb01997	-0.08598631
66	0x3d2676f4	0.040640786
67	0xbce51f6e	-0.027969088
68	0xbe02ebc1	-0.12785245
69	0x3e049d71	0.12950684
70	0x3d88c5ac	0.06678328
71	0xbc3dd627	-0.011586702
72	0xbccc121f	-0.024910985
73	0xbd1cdaa6	-0.038294457
74	0x3e49851c	0.19679683
75	0x3d828910	0.06373799
76	0x3dfb7781	0.12278653
77	0x3b20b5fa	0.002452253
78	0x3e374aed	0.17899676
79	0x3df98aa6	0.12184648
80	0xbc963472	-0.018335555
81	0x3dda8fa2	0.10671927
82	0xbcb44ae9	-0.022008376
83	0x3da20616	0.07911317
84	0x3e319ee4	0.17345768
85	0x3d5888cc	0.052864835
86	0x3d519770	0.051169813
87	0x3cb2ef36	0.02184258
88	0xbd514205	-0.05108835
89	0x3aa25154	0.0012383857
90	0xbdd0ed0d	-0.10201464
91	0xbd95cb8d	-0.07314215
92	0xbd43e74c	-0.047828004
93	0xbe1400f1	-0.14453484
94	0x3d6432d6	0.055712543
95	0x3dea12eb	0.114293896
96	0x3e0133e8	0.12617457
97	0x3e36c233	0.17847519
98	0x3d466725	0.04843821
99	0x3de4dc19	0.11174793
100	0xbd03c597	-0.03217086
101	0xbe12f365	-0.1435066
102	0xbd919da2	-0.07110144
103	0xbdc33597	-0.09531706
104	0xbdc09b92	-0.09404673
105	0xbd3839e4	-0.044977084
106	0xbd9c5617	-0.07633608
107	0xbdba0b01	-0.0908413
108	0x3dac66f9	0.08418078
109	0x3d08c0ed	0.033387113
110	0x3cb6d6a0	0.022319138
111	0x3e06f83e	0.13180634
112	0xbd15faca	-0.036616124
113	0x3b66cca4	0.003521719
114	0xbd8d927a	-0.06912704
115	0xbd76f976	-0.0602965
116	0xbd379ffb	-0.044830304
117	0xbdc48831	-0.09596289
118	0xbc88fc21	-0.016721787
119	0xbd1b5144	-0.037919298
120	0x3db761e6	0.089542195
121	0xbdc2b124	-0.09506443
122	0xbda70090	-0.08154404
123	0xbd02100f	-0.031753596
124	0x3d7c0760	0.06153047
125	0xbdc07847	-0.09397941
126	0xbe264518	-0.16237295
127	0xbdc99182	-0.098422065
128	0x3b979f6d	0.0046271593
129	0xbd439add	-0.04775511
130	0x3d68d5a7	0.05684438
131	0x3d9b0552	0.07569374
132	0xbdc47963	-0.09593465
133	0xbc7646d8	-0.015031539
134	0xbb65e811	-0.003508095
135	0xbd33a826	-0.04386153
136	0xbcee4ef7	-0.029090388
137	0xbd23538a	-0.03987459
138	0x3d3473c5	0.04405572
139	0x3dfab010	0.122406125
140	0xbda5987d	-0.080857255
141	0x3d744c5c	0.059643134
142	0xbdc090cc	-0.09402618
143	0xbe2b179f	-0.1670823
144	0xbd335228	-0.043779522
145	0x3bcdc2d4	0.006279329
146	0xbdc97a15	-0.098377384
147	0x3d277b7e	0.040889256
148	0xbc3ecbdf	-0.011645286
149	0xbdac4441	-0.08411456
150	0xbc1b709a	-0.0094872955
151	0xbe0a5c08	-0.1351167
152	0xbe1418f2	-0.14462641
153	0xbe2aa7d7	-0.16665588
154	0xbdb1c9be	-0.086810574
155	0xbe13eace	-0.1444504
156	0xbe222963	-0.158361
157	0xbe14db59	-0.145368
158	0xbe16b727	-0.14718305
159	0x3d80ebcc	0.06294975
160	0xbd662daa	-0.056195892
161	0xbadf700c	-0.0017046942
162	0xbc91fe0e	-0.017821338
163	0xbc724ef4	-0.014789332
164	0x3d95e1cd	0.07318459
165	0xbdb5606d	-0.088562824
166	0x3bee495e	0.0072719296
167	0xbde644ae	-0.11243568
168	0xbe3863ce	-0.18006822
169	0xbdf9a83f	-0.121902935
170	0xbdaa7cac	-0.083245605
171	0x3e132f23	0.1437345
172	0x3e4356ce	0.19076082
173	0x3d6aa465	0.057285685
174	0x3e23efee	0.16009495
175	0x3daf9aad	0.08574424
176	0xbd9e2a56	-0.07722919
177	0x3e32f508	0.17476285
178	0xbd230f80	-0.039809704
179	0xbe520a8a	-0.20511833
180	0x3d835585	0.06412796
181	0x3df095ce	0.11747323
182	0x3de13c62	0.10997845
183	0x3dee1b3c	0.11626288
184	0x3e1310b8	0.14361846
185	0x3c882eb9	0.016623842
186	0x3d4ee382	0.050509937
187	0x3ddf7ee9	0.10912878
188	0x3d46c57e	0.048528187
189	0x3be537e3	0.0069951876
190	0x3ccf3c5c	0.025297336
191	0xbd850f93	-0.06497111
192	0xbcb9e054	-0.022689976
193	0x3d60243a	0.05472205
194	0xbdbdf06e	-0.09274374
195	0x3d47e08e	0.048798136
196	0xbc789462	-0.015172096
197	0xbc6aec3b	-0.014338548
198	0x3dd7265d	0.10505364
199	0x3a5817d7	0.00082432985
200	0xbc81f8cb	-0.015865704
201	0x3df88958	0.12135571
202	0x3dbd0201	0.09228898
203	0x3d56217c	0.052278027
204	0x3d154b8d	0.036449004
205	0xbd41da27	-0.047327187
206	0x3cdf9bda	0.027295996
207	0xbd3e0f33	-0.046401214
208	0xb83e70aa	-4.5404457e-05
209	0xbda62446	-0.08112387
210	0xba95109e	-0.001137275
211	0x3e180461	0.1484542
212	0xbb2436cc	-0.0025057076
213	0x3d4e54c2	0.0503738
214	0x3df8d0c5	0.12149195
215	0xbc166b64	-0.009180877
216	0x3db44062	0.088013425
217	0x3d11f007	0.0356293
218	0x3ce9dad6	0.028546732
219	0xbc9b28fa	-0.018940438
220	0xbd990381	-0.074713714
221	0x3cc16bdc	0.023611002
222	0xbcd48fe3	-0.025947517
223	0xbcc787a1	-0.024356665
224	0xbd15c17d	-0.036561478
225	0x3d0853ad	0.033282924
226	0x3d5b4e2a	0.05354134
227	0x3db3d866	0.08781509
228	0xbde9b043	-0.114105724
229	0x3dc40234	0.09570733
230	0x3e0cee2c	0.1376273
231	0x3e0ee592	0.13954762
232	0x3e178f99	0.14800872
233	0x3db62810	0.0889436
234	0xbd802a17	-0.06258028
235	0x3c55c4a0	0.013047367
236	0xbc2c6b96	-0.010523697
237	0x3d901366	0.0703495
238	0x3d049581	0.03236914
239	0xbc6032ae	-0.013683958
240	0x3e240325	0.16016825
241	0xbc04e9b0	-0.008112356
242	0xbd4a105b	-0.049332004
243	0xbdb80b72	-0.08986558
244	0x3d23d693	0.039999556
245	0xbcea213a	-0.028580297
246	0xb788396c	-1.6239203e-05
247	0xbcdbe464	-0.026842304
248	0x3c2859c4	0.010275308
249	0x3d835581	0.06412793
250	0x3e14e511	0.14540507
251	0x3dc4c766	0.09608345
252	0xbde5c9b1	-0.1122011
253	0xbdb4376b	-0.08799633
254	0xbdec3e66	-0.11535339
255	0xbdf140db	-0.11779948

bias f4 [20]
0	0x3cc7c56e	0.024386134
1	0xbdae6add	-0.08516476
2	0xbd99ec36	-0.07515757
3	0xbbae3d72	-0.0053173834
4	0x3e76e528	0.24110854
5	0xbe9516de	-0.2911901
6	0xbeb5af9c	-0.35485542
7	0x39b6f048	0.0003489277
8	0x3e5bd63b	0.21468441
9	0xbe9f3e0f	-0.31102034
10	0x3e1ee510	0.15517068
11	0xbe10e915	-0.14151414
12	0xbe6f6627	-0.23378812
13	0xbd6ac816	-0.057319723
14	0xbd86b77f	-0.06577968
15	0x3d9f94c8	0.0779205
16	0xbeb607e1	-0.35552886
17	0x3db53fa4	0.08850029
18	0xbd7834c0	-0.06059718
19	0xbc577541	-0.013150514

weight f4 [200, 500]
0	0x3bb90bee	0.005647174
1	0x3c6f6f14	0.014613885
2	0xbca09d0e	-0.01960614
3	0xbc755e82	-0.014976146
4	0x3d645da7	0.055753376
5	0xbc935960	-0.017986953
6	0xbd186a39	-0.037210677
7	0xbdb1550a	-0.08658798
8	0xbcff10ce	-0.031135943
9	0x3cb0016f	0.021485059
10	0x3d774c48	0.06037548
11	0x3cc2a23a	0.023758996
12	0xbd24b13e	-0.040208094
13	0x3d0a9f0e	0.033843093
14	0x3c9edc2d	0.019392097
15	0x3d4f0d9c	0.05055009
16	0xbc9956d9	-0.01871817
17	0x3c23c907	0.009996659
18	0x3c60c158	0.013717972
19	0x3b642bb4	0.0034816088
20	0x3c683550	0.014172867
21	0xbd3b5c7a	-0.04574249
22	0xbdb27154	-0.08713022
23	0xbd8ec090	-0.06970322
24	0xbc924fae	-0.01786026
25	0xbd1d16ff	-0.03835201
26	0xbd8141f7	-0.0631141
27	0x3d08dd03	0.0334139
28	0xbd27652e	-0.040867977
29	0xbce7e42b	-0.028307041
30	0xbd612999	-0.05497131
31	0xbcf90da8	-0.03040202
32	0x39ac030c	0.00032808667
33	0xbd1c96b8	-0.038229674
34	0x3c542ef3	0.012950647
35	0x3c0c98c6	0.008581346
36	0x3cb25374	0.02176831
37	0x3d055d50	0.032559693
38	0x3d41ed32	0.047345348
39	0x3bf22d24	0.007390635
40	0xbcca8bc6	-0.024724852
41	0xbc99e543	-0.018786078
42	0x3c07fd17	0.008300087
43	0xba4f42e5	-0.00079063914
44	0xbca9357a	-0.020655382
45	0xbc3252d8	-0.010884009
46	0xbbd1ba7d	-0.006400405
47	0x3c53b871	0.012922392
48	0xbd75e48c	-0.060032412
49	0x3a7817fc	0.0009464023
50	0xbc7f601e	-0.015586881
51	0xbd01dd86	-0.0317054
52	0xbd127d5b	-0.03576408
53	0x3cb5e3a5	0.022203276
54	0x3c876bfa	0.01653098
55	0xbc8122ed	-0.015763724
56	0x3d0bc525	0.03412356
57	0xbc587ec8	-0.013213821
58	0xbc196d4d	-0.009364438
59	0xbca49561	-0.02009076
60	0xbc3362b3	-0.010948825
61	0x3bb494c4	0.0055108983
62	0x3c4ed487	0.012623913
63	0x3c400c91	0.011721746
64	0x3c5e6811	0.013574616
65	0x3cd9fb36	0.026609045
66	0x3ccb555b	0.024820974
67	0x3b917749	0.0044392687
68	0xbcea51da	-0.028603483
69	0x3be99cf4	0.007129306
70	0x3d27f84b	0.041008275
71	0xbba6e995	-0.005093763
72	0xbd39a2fc	-0.04532145
73	0xbc3b32cb	-0.011425684
74	0xbd6f93f4	-0.05849071
75	0x3aa68ee7	0.0012707383
76	0x3d11e211	0.035615984
77	0x3bdb01de	0.006683572
78	0x3ccd21f5	0.025040606
79	0xbb9cc564	-0.004784273
80	0x3d02a3ef	0.03189462
81	0x3d7e9600	0.06215477
82	0xbcb64c86	-0.022253286
83	0xbb1ebb12	-0.002422039
84	0xbd62050b	-0.05518059
85	0x3cb3dca7	0.021955801
86	0x3ceefd01	0.029173376
87	0x3d4a3266	0.04936447
88	0x3ce9f9bc	0.028561465
89	0x3cc6f3d8	0.024286196
90	0x3d588e05	0.052869815
91	0x3bc46dc9	0.0059945327
92	0x3ca811ab	0.020516237
93	0x3c5e28e1	0.013559551
94	0x3d0edb04	0.03487684
95	0xbc784409	-0.01515294
96	0x3d27f64e	0.04100638
97	0xbdc2d7d8	-0.09513825
98	0x3bf5c59c	0.0075003635
99	0x3cf51bb3	0.029920435
100	0x3d675f28	0.056487232
101	0xbcc6ccf5	-0.024267653
102	0xbd554216	-0.052064978
103	0xbd3c8201	-0.04602242
104	0xbc870fe1	-0.016487064
105	0xbcef7f1b	-0.029235413
106	0x3b4ab66c	0.0030931486
107	0xbc768419	-0.015046143
108	0x3ad41983	0.001618192
109	0xbcb37672	-0.021907065
110	0x3d0bcf01	0.03413296
111	0xbc2834b7	-0.010266474
112	0x3c98d2da	0.01865523
113	0x3cf0539b	0.029336741
114	0xbc9fdc62	-0.019514266
115	0x3d22a4ba	0.039707877
116	0xbd6975d4	-0.056997135
117	0x3cf153ac	0.029458843
118	0x3c13073f	0.008973896
119	0xbc7b6b0f	-0.015345349
120	0x3dbc8908	0.09205824
121	0x3c89fe60	0.016844928
122	0x3d9272f2	0.0715083
123	0x3ce08ed6	0.02741186
124	0x3d73293f	0.059365507
125	0x3b574cfb	0.003285228
126	0xbd5a73cc	-0.05333309
127	0xbd9bce11	-0.076076634
128	0xbcb448ce	-0.022007372
129	0xbc978e62	-0.01850051
130	0xbd30fea3	-0.04321159
131	0x3b1ec9f6	0.0024229265
132	0x3c9ee8e7	0.019398166
133	0x3afe44ba	0.0019399144
134	0x3b5d7ee0	0.0033797547
135	0x3d03afc7	0.032150056
136	0x3c9a37a2	0.018825356
137	0x3dc0ad6a	0.09408076
138	0x3dc6bf8b	0.09704503
139	0xbd0e0330	-0.03467101
140	0xbc8fbc6b	-0.0175459
141	0xbad9e937	-0.001662529
142	0x3d45c9c3	0.048288118
143	0x3c352e15	0.01105835
144	0xbd77b43a	-0.06047461
145	0xbc4122a7	-0.011788047
146	0x3c8565c7	0.016283883
147	0xbd98f563	-0.07468679
148	0xbce8b0e1	-0.028404655
149	0x3c5f9b6e	0.013647897
150	0xbc3e77a0	-0.0116252005
151	0xbdc5312a	-0.09628518
152	0xbe2192e8	-0.15778697
153	0xbde5c193	-0.11218562
154	0x3c4b033a	0.012390906
155	0xbd24dbde	-0.040248744
156	0xbe0805ae	-0.13283417
157	0xbd899f06	-0.067197844
158	0xbddb4821	-0.10707117
159	0x3c6b7dfa	0.014373297
160	0xbd8fbc5a	-0.07018347
161	0xbd5893c4	-0.052875295
162	0x3bea91e7	0.007158506
163	0x3cdceeb1	0.026969286
164	0x3d2082a5	0.039187092
165	0x3d441c41	0.047878508
166	0x3d047b0c	0.03234391
167	0x3dd6359f	0.10459446
168	0x3d85c49a	0.065316394
169	0x3da1acbd	0.07894275
170	0x3baff040	0.005369216
171	0xba21e908	-0.0006176387
172	0x3ce1869c	0.027530007
173	0x3d43ec38	0.047832698
174	0xbc8ce341	-0.017198207
175	0xbdc79310	-0.09744847
176	0xbddd0ba9	-0.107932396
177	0xbdbd828d	-0.09253416
178	0xbda47251	-0.080296166
179	0xbdd6de09	-0.104915686
180	0x3acfc250	0.0015850756
181	0xbd05d71a	-0.03267584
182	0xbd62dcc6	-0.055386327
183	0xbdedd13f	-0.11612176
184	0xbd8f98ac	-0.07011542
185	0xbc6847f4	-0.014177311
186	0xbd7a663e	-0.061132662
187	0x3cc31839	0.023815261
188	0xbb4766c1	-0.0030426236
189	0xbcf10eef	-0.029426066
190	0x3c6d3b4f	0.014479472
191	0xbc8adf2a	-0.016952116
192	0x3cc9086b	0.024540147
193	0x3d2a230d	0.041537333
194	0xbd47ccb4	-0.048779204
195	0xbcb5eb2f	-0.02220687
196	0x3db061e9	0.08612425
197	0x3d6d849e	0.0579878
198	0x3dc07edb	0.09399196
199	0x3d05aef5	0.032637555
200	0x3d2b326d	0.041796137
201	0x3cd434c0	0.02590406
202	0xbc516167	-0.01277957
203	0x3bd5296a	0.006505181
204	0x3dbca190	0.09210503
205	0x3d75cad2	0.060007878
206	0xbd0a8942	-0.033822306
207	0x3ab7cdda	0.001402314
208	0x3d910bc2	0.07082321
209	0x3d47dbda	0.04879365
210	0xbb563edb	-0.0032691273
211	0x3d063606	0.032766365
212	0x3ca968f8	0.020679936
213	0x3da84ca9	0.08217747
214	0x3d08872d	0.03333204
215	0x3ccf7863	0.02532596
216	0x3ca25bea	0.019819219
217	0x3d2b401e	0.041809194
218	0x3c8e716e	0.017388072
219	0x3c9fc686	0.019503843
220	0x3bcd7f04	0.006271245
221	0x3abc9c57	0.0014389855
222	0x3beb9f70	0.0071906373
223	0x3c65fa7c	0.014036771
224	0x3b9afcc5	0.0047298395
225	0xbc8b6104	-0.017014034
226	0xbda3df57	-0.08001583
227	0xbd3b7690	-0.045767367
228	0xbc3c8d07	-0.011508233
229	0xbd5f921a	-0.054582693
230	0xbd860c9e	-0.06545375
231	0xbc24748a	-0.010037551
232	0xbd8da475	-0.06916133
233	0xbdb74b57	-0.08949917
234	0xbd8aa818	-0.067703426
235	0xbcdf960f	-0.027293233
236	0xbd595890	-0.053062975
237	0xbd1195cc	-0.035543248
238	0xbd6e31d5	-0.058152992
239	0xbd72ffdf	-0.05932605
240	0xbbb2923c	-0.0054495614
241	0xbd3b1ab6	-0.04567977
242	0xbb81492b	-0.00394549
243	0xbcc7e594	-0.024401464
244	0xbd56cca3	-0.05244125
245	0xbc3bbcb8	-0.011458568
246	0x3c8de5f9	0.017321574
247	0x3d2d54c9	0.042317186
248	0x3cab2572	0.020891879
249	0xb8c717e5	-9.49351e-05
250	0xbaf6ded4	-0.0018834719
251	0xbbfd8978	-0.007737335
252	0x3c52058e	0.012818707
253	0xbcb91e26	-0.022597384
254	0x3cc658cc	0.024212264
255	0xbd3261e3	-0.043550383

bias f4 [200]
0	0xbc3a0ec6	-0.011356061
1	0x3d9aef6f	0.075651996
2	0xbd3a80bf	-0.045532938
3	0x3d96c60e	0.07361995
4	0x3aa4b2dc	0.0012565511
5	0x3cb3e341	0.021958949
6	0x3d65e06d	0.056122232
7	0x3ccb1c38	0.02479373
8	0x3cabd5c5	0.020975957
9	0xbc71c20b	-0.014755736
10	0x3d9cd5be	0.076579556
11	0x3d8a278e	0.06745826
12	0x3d473c68	0.048641592
13	0x3bb69131	0.0055715074
14	0x3c2069cc	0.009790849
15	0x3dd8805e	0.10571359
16	0x3d268832	0.04065723
17	0xbb00a1d6	-0.0019627712
18	0x3cbb053a	0.02282964
19	0x3d721d0d	0.059109736
20	0xbca352aa	-0.019936878
21	0x3c9b26d9	0.018939422
22	0x3cb65584	0.022257574
23	0x3d1a6833	0.03769703
24	0x3d946268	0.07245332
25	0x3c187a84	0.009306554
26	0xbba13f94	-0.004920909
27	0x3ccbea47	0.024891986
28	0xbd77c7a0	-0.06049311
29	0x3c0d09a6	0.008608257
30	0xbd010c9c	-0.031506166
31	0xbdab508a	-0.08364971
32	0xbcfe0f08	-0.031013027
33	0xbca8831f	-0.020570336
34	0x3db80b55	0.089865364
35	0x3c4818ff	0.012212991
36	0x3d894fb2	0.06704654
37	0x3d9f54d9	0.07779855
38	0x3de74455	0.1129233
39	0x3dc40b67	0.09572487
40	0xbc2b0e1c	-0.010440376
41	0xbd181905	-0.037133235
42	0x3d55640f	0.052097376
43	0xbdd70e6c	-0.10500798
44	0xbd72466b	-0.059149187
45	0xbd8d42b5	-0.06897489
46	0xbd82829a	-0.063725665
47	0x3d65a51e	0.05606567
48	0xbd655aa6	-0.055994652
49	0xbccc7aed	-0.02496096
50	0xbc9505b0	-0.018191189
51	0x3c335bd9	0.010947191
52	0xbcb1ca1c	-0.021702819
53	0x3be5ac3d	0.007009058
54	0x3bcd0cb8	0.0062576197
55	0xbd5dddf7	-0.05416676
56	0x3d1ba390	0.037997782
57	0x3adffe56	0.0017089348
58	0x3d88b066	0.0667427
59	0x3d2ef38b	0.04271273
60	0x3c19f5cf	0.009396984
61	0xbd55f14c	-0.05223207
62	0xbc0da65a	-0.008645618
63	0xbda3595a	-0.07976027
64	0xbd1b031d	-0.037844766
65	0x3b299eea	0.0025882074
66	0xbd50d949	-0.05098847
67	0x3d5e9899	0.054344747
68	0x3d207120	0.039170384
69	0xbd5f74eb	-0.05455486
70	0x3bd1df59	0.006404799
71	0x3d7072b5	0.058703143
72	0x3c69b508	0.014264353
73	0x3dd86d7a	0.10567756
74	0xbdb30ade	-0.08742307
75	0xbca83e0f	-0.020537404
76	0x3d03315d	0.0320295
77	0x3cdab664	0.026698299
78	0xbc891aec	-0.01673647
79	0xbcae244e	-0.021257546
80	0xbc29f980	-0.010374427
81	0x39e459cc	0.00043554453
82	0x3d7d3137	0.061814513
83	0xbbe7f1b7	-0.007078375
84	0x3c2330a0	0.009960324
85	0xbb7fccaa	-0.0039031901
86	0xb857cca7	-5.1450592e-05
87	0x3dcf6944	0.101275
88	0xbc74faf7	-0.014952413
89	0x3b8c8fc1	0.0042895977
90	0x3cd841cd	0.026398564
91	0xbd4a4a25	-0.049387116
92	0x3d27391a	0.04082594
93	0xbd194884	-0.037422672
94	0xbb1dbc83	-0.002406866
95	0x3d3eaead	0.046553303
96	0xbc783894	-0.015150208
97	0xbc17391c	-0.0092299245
98	0xbaadfb8b	-0.0013273818
99	0xbd8e27cf	-0.06941187
100	0xbcd7770c	-0.026301883
101	0x3c3f306e	0.011669261
102	0xbcd684fb	-0.026186457
103	0x3d65ddd6	0.056119762
104	0x3dd42052	0.10357727
105	0xbcae82a4	-0.021302529
106	0x3d803f3b	0.0626206
107	0x3c09ccde	0.008410661
108	0x3c854acf	0.016271023
109	0x3bdde509	0.006771688
110	0x3d3527bf	0.044227358
111	0x3cac5112	0.021034751
112	0x3c7fb71c	0.0156076215
113	0xbd67ff08	-0.0566397
114	0xbb3edf65	-0.0029124853
115	0x396294d0	0.00021608477
116	0x3d69c220	0.057069898
117	0xbce99525	-0.0285135
118	0x3dd514f8	0.1040439
119	0x3dced014	0.100982815
120	0x3c5bf129	0.013424196
121	0x3d7510ca	0.059830464
122	0x3cccbb48	0.024991646
123	0x3d9de807	0.07710271
124	0x3c0540c8	0.008133121
125	0x3de6949b	0.11258813
126	0x3d834447	0.06409507
127	0x3d8fc83a	0.07020612
128	0x3bc1c504	0.0059133787
129	0x3d76ad87	0.060224082
130	0x3e023986	0.12717256
131	0x3d25f681	0.040518288
132	0x3c3cfe8e	0.0115353
133	0xbb01afc6	-0.0019788607
134	0x3e02fff4	0.12792951
135	0xbd53915e	-0.051652305
136	0xbb99cbb5	-0.004693473
137	0xbbe9a69d	-0.0071304576
138	0x3d7d464c	0.06183462
139	0x3d24e380	0.040256023
140	0x3d76fbe8	0.06029883
141	0xbd1031fd	-0.035203923
142	0xba911ce4	-0.0011071232
143	0xbd4748b8	-0.048653334
144	0x3b18eff9	0.0023336394
145	0x3ac906e5	0.0015337138
146	0xbc9da708	-0.019244686
147	0xbd0e98d1	-0.034813706
148	0xbd414410	-0.04718405
149	0xbd2c9dd5	-0.042142708
150	0xbc9e2971	-0.01930687
151	0x3d251c3c	0.04031013
152	0x3d9efe7b	0.07763382
153	0xbcd2ef2c	-0.025748812
154	0xbc90a5e4	-0.017657228
155	0xbb7fb4ae	-0.0039017606
156	0xbd855d21	-0.065119036
157	0x3d4b8db6	0.049695693
158	0xbc3e0d39	-0.011599832
159	0xbc8b3811	-0.016994508
160	0x3d21ab73	0.039470147
161	0x3cd26726	0.02568395
162	0xbd664815	-0.056221087
163	0xbcf70e50	-0.030158192
164	0x3c54811a	0.012970233
165	0xbcbf93f4	-0.02338598
166	0xbbd95306	-0.0066322116
167	0xbc9cf7ba	-0.019161094
168	0x3d464894	0.04840906
169	0x3cbaee69	0.022818761
170	0xbd678e74	-0.05653234
171	0xbce60e3b	-0.028082957
172	0x3c063ce4	0.008193228
173	0x3dda6ce9	0.10665304
174	0x3da970a5	0.08273438
175	0xbc8c32bf	-0.017114041
176	0x3dcb6c42	0.09932758
177	0x3d1ce4fa	0.038304307
178	0x3bc98abe	0.0061505726
179	0xbcabbbd0	-0.02096358
180	0x3db6cd7b	0.08925911
181	0x3d5e2563	0.054234874
182	0xbcb40c9a	-0.021978665
183	0x3d8342c7	0.06409221
184	0xbc05151c	-0.008122709
185	0x3d3a35b0	0.045461357
186	0x3c100587	0.00879038
187	0x3ddcba73	0.1077775
188	0x3d8baf67	0.06820565
189	0x3cd539d9	0.02602856
190	0x3c31f420	0.010861427
191	0x3cbb441d	0.022859627
192	0xbc7bbd98	-0.015365027
193	0x3c1d93cf	0.00961776
194	0xbd3e031d	-0.046389688
195	0x3dd53fab	0.10412534
196	0x3dbdec04	0.09273532
197	0x3c65fb0a	0.014036903
198	0xbd276f01	-0.040877346
199	0xbd8aa670	-0.06770027

weight f4 [96, 200]
0	0x3d745004	0.05964662
1	0x3c7dbb7d	0.015486595
2	0xbd4117a1	-0.047141675
3	0xbd469e52	-0.04849083
4	0x3d801de9	0.06255705
5	0x3d72168b	0.05910353
6	0x3bdc5ac0	0.0067246854
7	0x3da58886	0.080826804
8	0x3d2eda19	0.042688463
9	0x3e0156be	0.12630746
10	0x3bf97bea	0.0076136487
11	0x3d630c64	0.05543174
12	0x3d8578cc	0.06517181
13	0x3dc10e81	0.094265945
14	0x3dae3577	0.08506291
15	0x3bd735bd	0.0065676854
16	0x3d843de9	0.06457121
17	0xbb2d26e1	-0.0026420879
18	0x3d8f78b7	0.070054464
19	0xbd54ffda	-0.05200181
20	0x3a85ea2a	0.0010216881
21	0xbd121fa7	-0.035674717
22	0x3d049dfd	0.032377232
23	0xbd719c20	-0.058986783
24	0xbb821590	-0.0039698556
25	0xbceccfa8	-0.028907612
26	0x3d3580ae	0.04431217
27	0xbcff7e93	-0.031188285
28	0x3c800760	0.015628517
29	0xbd14f56c	-0.036366865
30	0xbd884668	-0.06654054
31	0xbb11078e	-0.0022129747
32	0x3cd3f224	0.025872298
33	0x3d979876	0.074021265
34	0x3d662c0f	0.05619436
35	0x3aa29c73	0.0012406245
36	0x3d847f1e	0.06469558
37	0x3d18f634	0.037344173
38	0xbd8181e2	-0.06323601
39	0x3db94f89	0.09048373
40	0x39c3f60c	0.00037376618
41	0x3caef47f	0.02135682
42	0xbd1e226c	-0.038607046
43	0xbc9e39ee	-0.019314732
44	0xbda06cc6	-0.07833247
45	0xbca460dc	-0.020065717
46	0x3ca6da34	0.02036772
47	0x3d24cc77	0.040234055
48	0x3bd27fdf	0.006423935
49	0xbd48c9f7	-0.049020734
50	0xbd8560ad	-0.0651258
51	0xbce9edf1	-0.028555842
52	0xbd3fd2ed	-0.046832014
53	0xbca86757	-0.020557089
54	0xbd8355a0	-0.06412816
55	0xbca2127c	-0.019784205
56	0xbd3e5e5f	-0.046476718
57	0xbc9bfdff	-0.019042013
58	0x3dd32452	0.10309662
59	0xbe0fd61f	-0.14046524
60	0x3d073367	0.033008005
61	0xbd2a606b	-0.041595858
62	0x3d163f31	0.036681358
63	0xbdd9de4b	-0.10638102
64	0xbd268ab8	-0.040659636
65	0xbd54a7ad	-0.05191772
66	0x3c05d651	0.008168773
67	0x3d8c3db5	0.06847707
68	0x3cfcef52	0.030875836
69	0xbceb7e6c	-0.028746806
70	0x3da19c88	0.07891184
71	0x3ca9d423	0.020731037
72	0x3ce981a3	0.028504198
73	0x3cad1116	0.021126311
74	0xbc52d1be	-0.012867389
75	0x3d4e5dfc	0.0503826
76	0x3d072658	0.03299555
77	0x3d92370b	0.07139405
78	0x3d5c4954	0.05378087
79	0x3d9785e0	0.073985815
80	0x3da0668a	0.07832058
81	0x3d6621e8	0.05618468
82	0xbdeab538	-0.11460346
83	0x3c5235a5	0.012830173
84	0x3dbc4e03	0.09194567
85	0x3d5a5445	0.053303022
86	0xbcba4686	-0.022738706
87	0x3e14e8ea	0.14541975
88	0xbd27ce45	-0.0409682
89	0x3d8a12d7	0.06741875
90	0x3b4c6bfe	0.0031192298
91	0xbc6654ce	-0.014058305
92	0x3d1c1dea	0.038114466
93	0xbbd0049a	-0.006348205
94	0x3d9f6d25	0.077844895
95	0xbda8be73	-0.0823945
96	0xbd971293	-0.073765896
97	0x3d926c7e	0.071495995
98	0xbb13e8e5	-0.0022569236
99	0xbd17fea3	-0.037108075
100	0xbc05fd2f	-0.008178039
101	0xbdc02da5	-0.09383706
102	0xbce6077f	-0.028079746
103	0xbde5f24a	-0.112278536
104	0x3d841bd6	0.06450622
105	0x3d4a75a7	0.04942861
106	0xbbcc1c01	-0.0062289243
107	0xbcd46cc3	-0.025930768
108	0x3d062ea4	0.032759324
109	0x3d39203f	0.045196768
110	0x3d7b7eb0	0.061400115
111	0xbbd58d66	-0.0065171
112	0x3d708432	0.05871982
113	0xbdcfbf67	-0.10143929
114	0xbd58fc87	-0.052975204
115	0x3d0778f4	0.033074334
116	0xbd0e9707	-0.034812
117	0xbd1a8e48	-0.037733346
118	0x3de62c29	0.11238892
119	0x3ccaf695	0.024775783
120	0xbd833eb7	-0.06408446
121	0xbd02a325	-0.031893868
122	0x3d8ec54e	0.06971227
123	0xbc337997	-0.010954282
124	0x3d6a8009	0.05725101
125	0xbd55162c	-0.052023098
126	0xbdadbc51	-0.08483184
127	0xbcfd31fc	-0.030907623
128	0x3dee65e1	0.116405256
129	0xbdfa5a86	-0.12224297
130	0x3d9ebd4d	0.0775095
131	0xbd4d4f6c	-0.05012457
132	0x3dc9a6b9	0.09846253
133	0xbd3b628f	-0.04574829
134	0xbd546535	-0.05185433
135	0xbdcc9a3e	-0.09990357
136	0xbcd24e42	-0.025672082
137	0x3d97ad79	0.07406134
138	0x3d4889a1	0.04895938
139	0xbc450b32	-0.012026595
140	0xbd3a5e3a	-0.045500018
141	0xbdb9ac01	-0.0906601
142	0x3c84e57e	0.016222712
143	0xbdefbf01	-0.11706353
144	0xbd4cf859	-0.05004153
145	0x3bf0e13e	0.0073510697
146	0xbd9c1f45	-0.07623152
147	0x3bfdad5b	0.007741613
148	0xbd3ebe6d	-0.046568323
149	0xbb31f22b	-0.00271524
150	0xbbb3b8e5	-0.0054846876
151	0x3d8a00b4	0.06738415
152	0xbd4a3d90	-0.049375117
153	0xbdec4ced	-0.1153811
154	0x3d5b0afc	0.053477272
155	0x3c29f785	0.010373955
156	0x3d162129	0.036652718
157	0x3ca6b17a	0.0203483
158	0x3d6ab519	0.057301614
159	0x3b32205d	0.0027179935
160	0x3cb5f502	0.022211555
161	0xbcb3c9bc	-0.02194678
162	0xbd59b6d8	-0.05315289
163	0xbd8f9db3	-0.070125006
164	0xbd321011	-0.043472353
165	0xbb84786b	-0.0040426753
166	0x3d1600ef	0.036621984
167	0x3d8a1bc4	0.06743577
168	0xbd10b27e	-0.035326473
169	0x3cc89021	0.024482789
170	0x3ddd8b5d	0.10817597
171	0xbcc226a4	-0.023700066
172	0xbcd39140	-0.025826097
173	0x3c8144f0	0.015779942
174	0x3cb1db20	0.021710932
175	0xbc5fbb0e	-0.013655437
176	0xbd1543fd	-0.03644179
177	0xbd86753a	-0.06565328
178	0xbb9d17b8	-0.0047940873
179	0xba309630	-0.0006736247
180	0x3cbdd9b6	0.023175102
181	0xbc235557	-0.009969077
182	0x3b79ca22	0.0038114865
183	0x3dc910ea	0.09817679
184	0xbb2da0cf	-0.0026493554
185	0xbcb5cb76	-0.022191744
186	0xbc3fc9f4	-0.011705864
187	0x3d339316	0.043841444
188	0xbd3a2295	-0.045443136
189	0x3cc9b43f	0.02462208
190	0x3d85083b	0.064957105
191	0xbd3a2b9b	-0.04545174
192	0x3dad754f	0.084696405
193	0x39b80bd4	0.00035104027
194	0xbc858fb4	-0.016303875
195	0x3e01c2d4	0.12671977
196	0x3d587ea7	0.05285516
197	0x3ce4f08a	0.02794673
198	0x3d134860	0.035957694
199	0x3d82c963	0.06386068
200	0x3d581028	0.052749783
201	0xbe07990f	-0.13241981
202	0x3d4261fb	0.047456723
203	0x3b732fa9	0.0037107265
204	0x3cc1278a	0.023578424
205	0xbd6be742	-0.05759359
206	0x3dfed80b	0.12443551
207	0x3c332b84	0.010935668
208	0xbc67b85e	-0.014143078
209	0x3db35e1d	0.08758185
210	0xbd6d1f9d	-0.057891477
211	0xbdd3a0a0	-0.10333371
212	0x3d49a7b1	0.04923219
213	0xbc8b62e8	-0.017014936
214	0x3d2935a7	0.041310932
215	0x3de52deb	0.11190399
216	0xbc65c128	-0.014023103
217	0x3ad5bf51	0.0016307627
218	0x3c5bf6d6	0.0134255495
219	0xbc29a766	-0.010354852
220	0xbc723f7e	-0.0147856455
221	0xbcd08761	-0.025455179
222	0x3c4e7766	0.012601709
223	0xbd402573	-0.046910714
224	0xbc9d208b	-0.019180557
225	0x3e1999d5	0.15000089
226	0x3d5794a2	0.05263198
227	0xbc67e617	-0.014153979
228	0xbd91a461	-0.07111431
229	0xbdaf79b4	-0.08568135
230	0xbd214ecc	-0.039381787
231	0x3ba9d808	0.0051832236
232	0xbd85bb00	-0.06529808
233	0xbcb45d78	-0.022017226
234	0x3d2feb19	0.042948816
235	0xbd8743b2	-0.06604709
236	0x3c9f6017	0.019454999
237	0x3d2ccec3	0.04218937
238	0x3bd5ff0e	0.006530649
239	0xbcd2892a	-0.02570017
240	0xb9a8285c	-0.00032073527
241	0x3a7c03c5	0.0009613599
242	0xbcab2cef	-0.02089545
243	0xbcbe0348	-0.023194924
244	0xbd962cae	-0.07332741
245	0x3ce5ec9e	0.02806693
246	0x3ce25813	0.027629888
247	0x3d400079	0.04687545
248	0x3d92ab3b	0.07161566
249	0x3bb3ca87	0.0054867896
250	0xbca54d77	-0.02017854
251	0x3ca64c70	0.02030012
252	0x3cee076d	0.029056275
253	0x3d106aca	0.035258092
254	0xbdcfabdd	-0.10140202
255	0xbdb3c0ce	-0.08777009

bias f4 [96]
0	0x3d817a8d	0.06322203
1	0xbd5c982b	-0.053856056
2	0xbc574443	-0.013138833
3	0x3c7430c2	0.014904203
4	0xbca20cc9	-0.019781487
5	0xbce8f685	-0.028437862
6	0x3deb5533	0.1149086
7	0x3c6ea4a9	0.014565625
8	0x3e5348a0	0.20633173
9	0x3e25d76e	0.16195461
10	0x3da2b968	0.0794552
11	0xbd2f229b	-0.04275761
12	0x3e94057a	0.28910428
13	0xbcecf9a5	-0.028927634
14	0x3cbb17c4	0.02283848
15	0xbd40a730	-0.047034442
16	0xbd541ceb	-0.05178539
17	0x3e05d0ef	0.13067983
18	0xbda33123	-0.079683565
19	0x3d70b01f	0.058761712
20	0x3d129aa7	0.03579202
21	0x3d3d5974	0.046227887
22	0xbe8f1bd9	-0.27950934
23	0xbdd689b5	-0.10475484
24	0xbd10429a	-0.035219766
25	0x3e1e5712	0.15462902
26	0x3e6f5613	0.23372678
27	0xbc88742a	-0.016656954
28	0x3c6e360d	0.014539254
29	0x3d7f56f8	0.0623388
30	0x3e30f6d9	0.17281665
31	0x3e75ac3e	0.23991486
32	0x3b49d313	0.0030795976
33	0x3dce1373	0.100623034
34	0x3db86024	0.09002712
35	0xbd17adfd	-0.037031163
36	0xbd84fc8b	-0.06493481
37	0xbcb1e5a7	-0.021715952
38	0xbcb9b424	-0.022668906
39	0xbd656d69	-0.056012545
40	0x3e24a25d	0.16077562
41	0x3e1fa663	0.15590815
42	0xbc2a4611	-0.010392682
43	0xbdc2664d	-0.094921686
44	0x3d775ac3	0.06038929
45	0xbe183f0b	-0.14867799
46	0xbd38fce4	-0.04516305
47	0x3ca4f6a6	0.020137142
48	0x3df6ec70	0.120568156
49	0x3d121e99	0.03567371
50	0x3d3cfdf4	0.046140626
51	0xbc561af9	-0.013067954
52	0xbdcfb293	-0.10141482
53	0x3bef39c2	0.0073005864
54	0xbd6543bf	-0.05597281
55	0x3d81b594	0.063334614
56	0x3df08ce7	0.11745625
57	0xbd12c38b	-0.035831016
58	0xbd7a2f89	-0.06108049
59	0x3e42e928	0.19034255
60	0x3cf507a4	0.02991087
61	0xbc8d10ce	-0.017219927
62	0xbd4b479b	-0.049628835
63	0xbcf6ee9c	-0.030143075
64	0x3e836bab	0.25668082
65	0x3cfa9676	0.030589323
66	0xbd68846f	-0.056766924
67	0xbd39c239	-0.04535124
68	0xbd8848a0	-0.06654477
69	0xbd448469	-0.04797784
70	0x3d48135c	0.048846588
71	0x3b4dd53d	0.0031407617
72	0xbd763f76	-0.060119115
73	0x3d3acfb0	0.045608222
74	0x3e16176b	0.14657371
75	0x3c934e05	0.017981539
76	0xbd5e782e	-0.05431383
77	0xbd75b9b2	-0.059991546
78	0xbd4d8202	-0.050172813
79	0xbd510440	-0.051029444
80	0xbcb0fdef	-0.02160546
81	0x3e42f500	0.19038773
82	0x3d9e8f06	0.07742123
83	0x3e2e78a1	0.17038204
84	0xbd95576b	-0.07292064
85	0xbbfbdfad	-0.0076865763
86	0x3e017fde	0.12646434
87	0x3dffe99f	0.124957316
88	0x3dea6d6d	0.114466526
89	0xbcc35fd6	-0.02384941
90	0x3e23ea20	0.1600728
91	0x3e7c2b46	0.24625883
92	0xbe4d5be0	-0.20054579
93	0x3e5a6fed	0.21331759
94	0x3e0be934	0.13663179
95	0x3e6ff612	0.23433712
